miniImagenet/SalNet_InterClass/miniImagenet_foreground_encoder_5way_1shot.pkl (torch_old, 458878 bytes, 24 tensors)

layer1.0.weight f4 [64, 3, 3, 3]
0	0xbe11b1bb	-0.14227955
1	0xbe5d22a8	-0.21595252
2	0xbe877d5c	-0.2646283
3	0xbdaa8031	-0.08325232
4	0x3eb1b668	0.34709477
5	0x3eba5e1c	0.36399925
6	0x3e5c6e64	0.21526486
7	0x3f010e16	0.5041212
8	0x3edbdf8d	0.42943993
9	0xbea4cdf8	-0.32188392
10	0xbf0ec875	-0.55774623
11	0xbf10b54c	-0.5652664
12	0xbed8c265	-0.4233581
13	0xbe4bbdd9	-0.1989664
14	0xbe3fae06	-0.18718728
15	0xbe9330e3	-0.28748235
16	0xbdd9d230	-0.10635793
17	0xbe01c4c3	-0.12672715
18	0x3e5ccf26	0.21563396
19	0xbcce8fd2	-0.025215063
20	0x3e162c3c	0.14665312
21	0x3bc6995e	0.0060607633
22	0x3e97fd21	0.2968531
23	0x3ee4070b	0.44536623
24	0x3dc895ef	0.097942226
25	0x3eb90692	0.36137825
26	0x3e847bb1	0.2587562
27	0xbc90f6e2	-0.017695848
28	0x3f0a66a2	0.54062855
29	0x3ef0e647	0.47050688
30	0xbf32f7c6	-0.6990932
31	0x3dc04ccd	0.093896486
32	0x3ecf5e87	0.40501806
33	0xbf2ac97c	-0.6671369
34	0xbea33f42	-0.318842
35	0x3d9de2aa	0.07709248
36	0xbe92049a	-0.28519136
37	0x3eab549d	0.33462992
38	0x3eb72e69	0.35777596
39	0xbef09f80	-0.4699669
40	0x3cb75817	0.022380872
41	0x3e8533e7	0.2601616
42	0xbea70d9d	-0.32627574
43	0xbd6d6816	-0.057960592
44	0x3dc552f2	0.09634961
45	0xbe3140c2	-0.1730986
46	0x3ea9e740	0.33184242
47	0xbd39f22a	-0.04539696
48	0xbe80cc7b	-0.25156006
49	0x3df1c976	0.11806004
50	0x3dc77c3f	0.09740495
51	0x3c196b13	0.009363907
52	0x3e04db2a	0.1297423
53	0x3ddc4e7e	0.10757159
54	0x3e20434f	0.15650676
55	0x3dc3b665	0.09556273
56	0x3f01a7fc	0.5064695
57	0x3e67c949	0.22635378
58	0x3dca1e75	0.098690905
59	0x3e38a40a	0.18031326
60	0x3ea02dcc	0.3128494
61	0x3e964adf	0.29353997
62	0x3cab9f41	0.020949962
63	0xbe40a6df	-0.18813656
64	0xbee651e4	-0.44984353
65	0xbe93f660	-0.28898907
66	0xbe105c17	-0.1409763
67	0xbf261cae	-0.6488751
68	0xbf1d2b23	-0.61393946
69	0x3d2e5592	0.042562075
70	0xbd968774	-0.073500544
71	0xbead5066	-0.33850402
72	0x3dcf7991	0.10130609
73	0xbe298927	-0.16556226
74	0xbdbcfd36	-0.09227984
75	0x3e9dd4f0	0.3082652
76	0xbb08463e	-0.002079382
77	0xbe9328eb	-0.28742155
78	0x3f09384a	0.53601515
79	0x3eb2448d	0.34817925
80	0x3d11acd1	0.0355652
81	0xbe254193	-0.16138296
82	0x3ba13387	0.0049194726
83	0x3db09491	0.08622087
84	0xbf0e8b9f	-0.55681795
85	0xbe8a9315	-0.2706534
86	0xbd976caa	-0.07393773
87	0xbeca1f8f	-0.39477202
88	0xbf014054	-0.5048878
89	0xbd18110c	-0.037125632
90	0x3dbc79e6	0.09202938
91	0x3eac482f	0.33648822
92	0x3ea8f914	0.33002532
93	0x3de79cce	0.11309205
94	0x3ec42ad5	0.38313928
95	0x3f0939ab	0.5360362
96	0x3ea059a9	0.31318405
97	0x3ea08196	0.31348866
98	0x3f14ab61	0.58074003
99	0xbd783d56	-0.06060537
100	0x3c589de1	0.013221235
101	0xbcf93619	-0.030421304
102	0xbebb739f	-0.3661165
103	0xbe79f760	-0.24410772
104	0x3db015b3	0.08597889
105	0xbeced777	-0.40398762
106	0xbeaa8b05	-0.33309188
107	0x3cc44dec	0.023962937
108	0xbe9cdee5	-0.30638805
109	0xbbbc40ce	-0.00574503
110	0x3ea13898	0.3148849
111	0x3e8e9c7c	0.27853763
112	0x3ede570c	0.43425786
113	0x3f116f15	0.5681012
114	0x3f21b7ac	0.63170886
115	0x3f13e560	0.57771873
116	0x3ee0d4e8	0.43912435
117	0xbed434b9	-0.41446474
118	0xbe669b54	-0.2252019
119	0xbe0bce4a	-0.13652912
120	0xbd93aea7	-0.07211047
121	0x3daa10c9	0.08303983
122	0x3cafe98b	0.021473667
123	0x3e29ddfa	0.16588584
124	0x3cbdc513	0.023165261
125	0xbe04c818	-0.12966955
126	0xbf1c733d	-0.6111334
127	0xbdebb128	-0.11508399
128	0x3dbfd541	0.09366847
129	0x3c6c82c4	0.014435474
130	0x3eb3d509	0.3512347
131	0x3e93bd27	0.2885525
132	0x3e7395a1	0.23787548
133	0x3e7328ed	0.2374608
134	0x3d8089e8	0.062763035
135	0xbe66d80d	-0.22543354
136	0xbe9a7e0a	-0.30174285
137	0x3c8ef1a9	0.017449217
138	0x3e4ec23a	0.20191279
139	0x3edb8728	0.42876554
140	0x3dfcef97	0.12350386
141	0xbeb8bae9	-0.360801
142	0xbeb04136	-0.34424752
143	0x3daad015	0.0834047
144	0xbe623c80	-0.22093391
145	0xbeefc821	-0.46832374
146	0xbcee0072	-0.029052947
147	0x3e9550e0	0.29163265
148	0x3f268ff1	0.6506339
149	0x3ddcd485	0.107827224
150	0xbe9cd601	-0.30632022
151	0xbead7987	-0.3388178
152	0xbd93e0e7	-0.07220631
153	0x3e24ea51	0.1610501
154	0xbeaa556f	-0.33268306
155	0xbe64b7e8	-0.2233578
156	0x3f03f993	0.51552695
157	0x3edd2f33	0.43200073
158	0xbd8288ff	-0.06373786
159	0xbe28838b	-0.1645643
160	0xbe90d6c2	-0.28288847
161	0xbe35e617	-0.17763554
162	0x3d20904f	0.039200123
163	0x3ec081d3	0.37599048
164	0x3d641fde	0.055694453
165	0x3ceeb7c6	0.029140364
166	0x3e33bea1	0.17553188
167	0xbd2598ac	-0.040428802
168	0x3e62c837	0.22146688
169	0x3de9ffb3	0.11425724
170	0xbec84c90	-0.39120913
171	0x3ee040ed	0.43799534
172	0x3ecc9c8b	0.39963183
173	0x3ea4f02d	0.3221449
174	0x3e0c0bf4	0.13676435
175	0x3e3504e2	0.17677644
176	0x3e01fb7d	0.12693591
177	0x3e77d4ad	0.24202223
178	0xbd72a377	-0.059237923
179	0xbe5de76d	-0.21670313
180	0x3e8d6f61	0.27624038
181	0x3ec4ab3e	0.38411897
182	0x3e85c3ba	0.2612589
183	0xbccfb806	-0.025356304
184	0xbe70daab	-0.23520915
185	0xbe87cef6	-0.26525086
186	0xbd1d6b2a	-0.038432278
187	0xbf0ad16f	-0.5422582
188	0xbf212669	-0.62949234
189	0x3f4c6d0f	0.7985391
190	0x3f4d671d	0.80235463
191	0x3f7795f6	0.967132
192	0x3f697e96	0.9120878
193	0x3f63a501	0.8892365
194	0x3f947d2d	1.1600701
195	0x3f178837	0.5919222
196	0x3f885da7	1.065358
197	0x3f426112	0.7592937
198	0x3e02a235	0.1275719
199	0x3e731fe3	0.23742633
200	0x3e086061	0.13318016
201	0x3ed46706	0.4148485
202	0x3f1c73c1	0.61114126
203	0x3ec128cd	0.3772644
204	0x3da5d81e	0.08097862
205	0x3efb08d5	0.49030176
206	0xbe115d7d	-0.14195819
207	0x3e4b255b	0.19838469
208	0x3eec020b	0.4609531
209	0x3e82b1fa	0.2552641
210	0x3ed17507	0.40909597
211	0x3f2236f0	0.6336508
212	0x3ec27a73	0.37984046
213	0x3e95362a	0.29142886
214	0x3eb9e012	0.36303765
215	0x3daf6ac7	0.08565288
216	0x3e9ba760	0.30401134
217	0xbd741434	-0.05958958
218	0xbc8d1a1d	-0.017224366
219	0x3e022142	0.12708
220	0xbea39dcb	-0.31956324
221	0xbe68f9b0	-0.22751498
222	0x3e813481	0.2523537
223	0xbdeb6f95	-0.11495892
224	0xbde103b8	-0.109870374
225	0x3e807f0e	0.25096935
226	0xbe42dbcd	-0.1902916
227	0xbe2b644d	-0.1673748
228	0xbd67b648	-0.05657032
229	0xbf55344a	-0.8328291
230	0xbf0a47af	-0.5401563
231	0x3e2c6ba8	0.16837943
232	0xbe95f9fb	-0.29292282
233	0xbe0e60d6	-0.13904127
234	0xbe80b6fb	-0.25139603
235	0xbf02609e	-0.50928676
236	0xbcbaf341	-0.02282107
237	0xbe8b72a6	-0.27235907
238	0xbf48ef2f	-0.78489965
239	0xbe6035ed	-0.21895571
240	0x3dc30467	0.09522324
241	0xbd734f21	-0.059401635
242	0x3e80391a	0.25043565
243	0xbe38af2a	-0.1803557
244	0xbe6bb5cf	-0.23018573
245	0x3b8ee49e	0.0043607494
246	0xbc9228ed	-0.01784178
247	0xbd3c2d7e	-0.045941822
248	0x3e0cf033	0.13763504
249	0xbd99fb8e	-0.075186834
250	0xbd3da401	-0.046298984
251	0xbd3c1eeb	-0.045927923
252	0x3e991d6a	0.29905254
253	0x3e9b6ddf	0.30357262
254	0x3e5ddaa6	0.21665439
255	0x3e9a8039	0.3017595

layer1.0.bias f4 [64]
0	0xc288ea8e	-68.458115
1	0xc2890890	-68.51672
2	0xc28872b0	-68.224
3	0xc288534d	-68.1627
4	0xc281eb88	-64.96002
5	0xc285ba9c	-66.86447
6	0xc2840df5	-66.02726
7	0xc2654fb8	-57.32785
8	0xc2702a9c	-60.04161
9	0xc27c4a56	-63.072594
10	0xc2761d06	-61.528343
11	0xc288f112	-68.47084
12	0xc272cf41	-60.702396
13	0xc26801c5	-58.001728
14	0xc2831aa0	-65.552
15	0xc25a58cc	-54.586716
16	0xc28a5625	-69.16825
17	0xc272f2e4	-60.737198
18	0xc2883f18	-68.12323
19	0xc289064a	-68.51228
20	0xc283cb6a	-65.89729
21	0xc283d070	-65.907104
22	0xc28516e1	-66.544685
23	0xc26d0321	-59.253056
24	0xc2803193	-64.096825
25	0xc287060f	-67.51183
26	0xc288c25b	-68.3796
27	0xc27bc4d0	-62.9422
28	0xc280f04a	-64.469315
29	0xc289004f	-68.5006
30	0xc279f86b	-62.492596
31	0xc2848670	-66.26257
32	0xc281b6a6	-64.856735
33	0xc2879a4c	-67.80136
34	0xc2702244	-60.033463
35	0xc285455f	-66.63549
36	0xc284bc98	-66.36835
37	0xc284f854	-66.485016
38	0xc2879ed5	-67.81022
39	0xc2895718	-68.670105
40	0xc279be86	-62.436058
41	0xc26a113b	-58.516827
42	0xc28978d6	-68.73601
43	0xc284a303	-66.31838
44	0xc2845990	-66.17493
45	0xc283c281	-65.87989
46	0xc27fe803	-63.976574
47	0xc2655c98	-57.340424
48	0xc284b6f2	-66.357315
49	0xc2844d74	-66.151276
50	0xc289b490	-68.85266
51	0xc2855653	-66.6686
52	0xc288fdc2	-68.49562
53	0xc27e7d4e	-63.622368
54	0xc281e084	-64.93851
55	0xc2827c49	-65.242744
56	0xc28975f2	-68.73036
57	0xc28a2319	-69.06855
58	0xc286d196	-67.40935
59	0xc2815afb	-64.6777
60	0xc285d9dd	-66.925514
61	0xc2701fa0	-60.030884
62	0xc28a417c	-69.1279
63	0xc2813a99	-64.61445

layer1.1.weight f4 [64]
0	0x3f70b253	0.940221
1	0x3f9fd354	1.2486367
2	0x3f823f87	1.0175637
3	0x3f64aaf9	0.89323384
4	0x3f91f930	1.1404171
5	0x3f3e0ca5	0.74238044
6	0x3f795b61	0.9740506
7	0x3f6133cb	0.87969655
8	0x3ef34e45	0.47520652
9	0x3f31ace1	0.6940442
10	0x3eeda848	0.4641745
11	0x3f9ef43d	1.2418286
12	0x3f953b29	1.1658679
13	0x3f87a25e	1.0596426
14	0x3f9e9d29	1.2391711
15	0x3eaa36ca	0.33244926
16	0x3ff9da87	1.9519814
17	0x3f3c2a1c	0.73501754
18	0x3fc7afb1	1.5600492
19	0x3fa09dac	1.2548118
20	0x3f9588e7	1.1682404
21	0x3f87dd40	1.0614395
22	0x3f9453c9	1.1588069
23	0x3f8b5f52	1.0888464
24	0x3e687568	0.22701037
25	0x3f62a069	0.88526016
26	0x3f86c93a	1.053016
27	0x3f70a5e9	0.9400316
28	0x3f8ed0fa	1.1157525
29	0x3f96f3eb	1.1793188
30	0x3f3a1bc1	0.726986
31	0x3e9f1dbf	0.31077382
32	0x3f7cf8b0	0.98816967
33	0x3fa6bf17	1.3027066
34	0x3f8c24dc	1.0948749
35	0x3fc719d9	1.5554763
36	0x3f938d05	1.1527411
37	0x3f85abea	1.0443089
38	0x3fa1e3fe	1.2647703
39	0x3f9df4ef	1.2340373
40	0x3f7b19a1	0.9808598
41	0x3f7c40b8	0.9853625
42	0x3fae6ec9	1.3627559
43	0x3fa74683	1.3068393
44	0x3f0d82f4	0.55277944
45	0x3f5a39ad	0.85244256
46	0x3e795e19	0.24352302
47	0x3ec13afa	0.37740308
48	0x3f665af9	0.89982563
49	0x3f59b8a3	0.8504736
50	0x3f9fe7f0	1.2492657
51	0x3f17fcfb	0.5937039
52	0x3f9c0ba4	1.2191052
53	0x3f804814	1.0021996
54	0x3fa2fe0a	1.2733777
55	0x3f708f33	0.93968505
56	0x3fbffa69	1.4998294
57	0x3fc6e083	1.5537266
58	0x3f3143a6	0.6924385
59	0x3e9c9186	0.30579776
60	0x3fbfcafa	1.4983819
61	0x3f00f5f4	0.50375295
62	0x3fd0cff0	1.6313457
63	0x3f48f05e	0.7849177

layer1.1.bias f4 [64]
0	0xbe054114	-0.13013107
1	0x3fe7f0c7	1.8120354
2	0x3f6d8b03	0.9279024
3	0x3f907b77	1.1287678
4	0xbeba957c	-0.36442173
5	0xbe8743cb	-0.2641891
6	0xbecf132a	-0.4044431
7	0xbe8b0d7d	-0.27158728
8	0xbf5baeff	-0.858139
9	0xbeb6d650	-0.35710382
10	0xbf1d0872	-0.6134101
11	0x4015054e	2.3284488
12	0xbdcc92cc	-0.09988937
13	0xbe8f39db	-0.27973828
14	0xbf041fe5	-0.5161117
15	0xbf56f640	-0.839695
16	0xbe6a1e89	-0.2286321
17	0xbed1a709	-0.4094775
18	0xbf14d629	-0.5813928
19	0x3f77a978	0.96742964
20	0xbee93f15	-0.4555594
21	0xbee74090	-0.45166445
22	0x3e3ad137	0.18243872
23	0xbe473d84	-0.1945706
24	0x3d39db83	0.04537536
25	0xbdad7356	-0.08469264
26	0xbe5db19b	-0.21649782
27	0xbee67719	-0.4501274
28	0xbedfd9a5	-0.43720737
29	0x3fb86521	1.4405862
30	0xbef11d7b	-0.47092804
31	0x3f5e8556	0.86922204
32	0xbf27b58d	-0.655114
33	0xbec6cc9a	-0.38827974
34	0xbd845afd	-0.06462667
35	0xbee23104	-0.4417802
36	0xbea67c34	-0.32516634
37	0xbe51407e	-0.20434758
38	0xbeb865fa	-0.36015302
39	0x3fd1db9d	1.6395146
40	0xbe831029	-0.25598267
41	0xbecb7c8c	-0.3974346
42	0x3fab48e8	1.3381624
43	0xbebc6b68	-0.36800694
44	0x3f02d470	0.51105404
45	0xbe2e3b4a	-0.17014804
46	0xbf02d075	-0.5109933
47	0xbf75743c	-0.95880485
48	0x3ed07214	0.40712035
49	0xbee6e9fd	-0.45100394
50	0x3fe6696e	1.8000925
51	0xbeb0be5e	-0.3452024
52	0x3fbd4c40	1.4788895
53	0xbec1371d	-0.3773736
54	0xbec59296	-0.385884
55	0xbe5f347b	-0.21797363
56	0x3fe1c3e1	1.7637902
57	0xbe42b21a	-0.19013253
58	0x3f090ba0	0.53533363
59	0xbdd0019f	-0.10156559
60	0xbebe7c1c	-0.37204063
61	0xbe98006e	-0.29687828
62	0x3fafc28d	1.3731247
63	0xbef16965	-0.47150722

layer1.1.running_mean f4 [64]
0	0xc28957f5	-68.67179
1	0xc28958cb	-68.67342
2	0xc2886f5c	-68.2175
3	0xc287c6d9	-67.888374
4	0xc2888fae	-68.280624
5	0xc283a15a	-65.81514
6	0xc2872acb	-67.58358
7	0xc291dcd4	-72.931305
8	0xc25eeb14	-55.72957
9	0xc2817c40	-64.742676
10	0xc26b77df	-58.86706
11	0xc288e316	-68.44353
12	0xc290f798	-72.48358
13	0xc293d8b3	-73.92324
14	0xc28b77e2	-69.734146
15	0xc2469ca0	-49.652954
16	0xc28bfa73	-69.98916
17	0xc2858aea	-66.77132
18	0xc28ade9c	-69.434784
19	0xc288d0c1	-68.40772
20	0xc287905b	-67.781944
21	0xc286f5b9	-67.47993
22	0xc2855d10	-66.68176
23	0xc2929eea	-73.31038
24	0xc280b496	-64.35271
25	0xc2868488	-67.25885
26	0xc28874c3	-68.22805
27	0xc2888c65	-68.27421
28	0xc288b9f3	-68.36318
29	0xc289470a	-68.63875
30	0xc27f052a	-63.755043
31	0xc285ad7a	-66.83882
32	0xc286532b	-67.16244
33	0xc289b242	-68.84816
34	0xc28dc6c9	-70.88825
35	0xc28d8eac	-70.778656
36	0xc287d058	-67.90692
37	0xc286f3d7	-67.47625
38	0xc28988f6	-68.7675
39	0xc2889b52	-68.30336
40	0xc28bb21b	-69.84786
41	0xc2940fb4	-74.03067
42	0xc2892875	-68.57902
43	0xc28c954f	-70.29162
44	0xc283dc0a	-65.92976
45	0xc287b072	-67.84462
46	0xc27fdf3a	-63.967995
47	0xc2561724	-53.5226
48	0xc2830046	-65.500534
49	0xc285cbf3	-66.89834
50	0xc289bf87	-68.87408
51	0xc28446de	-66.13841
52	0xc2899816	-68.79704
53	0xc289ba5c	-68.86398
54	0xc28c6652	-70.199844
55	0xc2890f83	-68.5303
56	0xc289b71e	-68.85765
57	0xc28a339c	-69.1008
58	0xc28718ba	-67.548294
59	0xc2813ff3	-64.6249
60	0xc28a1eb9	-69.060005
61	0xc278ac88	-62.168488
62	0xc289bd29	-68.86945
63	0xc2836f51	-65.717415

layer1.1.running_var f4 [64]
0	0x4046f2b2	3.108563
1	0x4106d2ae	8.426435
2	0x40346a56	2.8189902
3	0x40722104	3.783265
4	0x422f5083	43.828625
5	0x409ad57d	4.8385606
6	0x414f3eca	12.952829
7	0x445ccaba	883.1676
8	0x429398d7	73.798515
9	0x412ec07e	10.921995
10	0x420135b3	32.30244
11	0x40fadbc9	7.8393292
12	0x44028405	522.0628
13	0x446b32a3	940.7912
14	0x42942d62	74.08864
15	0x42cabb83	101.366234
16	0x40a874d3	5.264261
17	0x43056aa1	133.41652
18	0x41374e67	11.456641
19	0x40978c0d	4.735846
20	0x417a3dae	15.6400585
21	0x4140b01f	12.042998
22	0x4060f033	3.5146606
23	0x4436b412	730.8136
24	0x3fdbe295	1.7178522
25	0x40a27c52	5.077676
26	0x4037191e	2.860908
27	0x42cd0c79	102.52436
28	0x428016b2	64.04433
29	0x4026d5c0	2.6067963
30	0x41123c59	9.139733
31	0x40b60293	5.687814
32	0x41f3fccb	30.498434
33	0x410f1998	8.943748
34	0x43e0d6c4	449.67786
35	0x428a838e	69.25694
36	0x413d0c34	11.815479
37	0x40a9c28e	5.3049994
38	0x41341766	11.2557125
39	0x40f6e88a	7.715886
40	0x434b0904	203.03522
41	0x445f0827	892.1274
42	0x40a211b2	5.06466
43	0x427a27fe	62.539055
44	0x3f79184e	0.9730271
45	0x41ac2993	21.5203
46	0x3f9c37d0	1.2204533
47	0x426d3ddf	59.31042
48	0x40a07418	5.0141716
49	0x40a7b566	5.2408934
50	0x407dc001	3.964844
51	0x40fd1074	7.9082584
52	0x40a6b383	5.209413
53	0x42c71c50	99.5553
54	0x42dd4b15	110.646645
55	0x421f0b41	39.76099
56	0x40b3f57e	5.6237173
57	0x3fbfe729	1.499242
58	0x3fd50105	1.6640936
59	0x40cee3fa	6.465329
60	0x41db1244	27.383919
61	0x41a9d98b	21.231222
62	0x40979fa2	4.7382364
63	0x4118eadd	9.55734

layer2.0.weight f4 [64, 64, 3, 3]
0	0xbe975d7f	-0.2956352
1	0xbd8f45d7	-0.06995743
2	0xbe8b3faa	-0.2719701
3	0x3cc97e5a	0.024596382
4	0x3d6fb6db	0.058523994
5	0x3dd00346	0.10156874
6	0x3e07b1ed	0.13251467
7	0x3d3912c0	0.045183897
8	0x3d5532a7	0.05205026
9	0xbdeca697	-0.11555212
10	0xbe008364	-0.12550122
11	0xbdbdbfc7	-0.09265094
12	0x3e0dd064	0.13849026
13	0xbe2f7236	-0.17133412
14	0x3e6eeb36	0.23331913
15	0x3ebdd15c	0.3707379
16	0xbe320cdb	-0.17387716
17	0x3db658a5	0.08903626
18	0xbca28294	-0.019837655
19	0xbb9efbac	-0.004851779
20	0xbdfe9b6b	-0.124319874
21	0x3d2aa895	0.04166468
22	0x3e6353fc	0.22200006
23	0xbd85fade	-0.0654199
24	0x3eb54dc0	0.3541088
25	0x3ed1691f	0.40900514
26	0x3e269ef6	0.16271576
27	0x3d6d4fb3	0.057937335
28	0xbdb7e468	-0.08979112
29	0xbc3c4fbc	-0.0114936195
30	0x3c9cbbc6	0.019132506
31	0xbeb67061	-0.35632613
32	0x3d326de7	0.043561842
33	0xbe04aefd	-0.12957378
34	0xbee3f910	-0.44525957
35	0xbe8b855c	-0.27250183
36	0x3ef46dcf	0.47740027
37	0x3e415ff6	0.18884262
38	0x3dddefe2	0.1083677
39	0x3ec1c1e8	0.3784325
40	0xbc16bd97	-0.009200475
41	0xbf507c56	-0.8143972
42	0x3dd2a4e2	0.10285355
43	0xbef9a009	-0.4875491
44	0xbf4a2646	-0.7896465
45	0x3f2257d0	0.6341524
46	0x3edc8632	0.43071133
47	0x3ebac235	0.36476293
48	0x3e8da8bd	0.276678
49	0x3e5603cc	0.20899886
50	0x3e88e38e	0.2673611
51	0x3e4f536e	0.2024667
52	0x3ca99812	0.020702396
53	0x3e349c02	0.17637637
54	0x3e82b558	0.2552898
55	0x3eac7bac	0.33688104
56	0x3ede83d3	0.4345995
57	0xbbb05b15	-0.0053819516
58	0x3ed57b54	0.41695654
59	0x3ee8e50b	0.45487246
60	0xbe405294	-0.18781501
61	0xbd27fda9	-0.041013394
62	0xbb414fef	-0.0029497107
63	0x3e7187ca	0.23586956
64	0x3c5797e0	0.013158768
65	0x3ea5f292	0.3241163
66	0x3e62bb48	0.22141755
67	0xbd8773a6	-0.06613855
68	0x3dcb94ca	0.09940489
69	0xbe5d288e	-0.21597502
70	0xbefe2dca	-0.4964431
71	0xbeef1caa	-0.46701556
72	0x3fbc4a63	1.4710201
73	0x3fe097e2	1.7546351
74	0x3fe8597e	1.8152311
75	0x3fbb3ae5	1.4627348
76	0x3fd30abd	1.6487652
77	0x3fe70c20	1.8050575
78	0x3f147439	0.5798984
79	0x3f7499ae	0.95546997
80	0x3f99fda6	1.2030532
81	0xbe284034	-0.16430742
82	0xbd8b42ea	-0.06799872
83	0xbea9ed0e	-0.3318867
84	0xbdd404f6	-0.10352509
85	0xbe0ec945	-0.13943966
86	0xbf0c1c7b	-0.5473096
87	0xbde04e8d	-0.10952482
88	0xbe107a4e	-0.14109156
89	0xbf370927	-0.7149834
90	0x3fcbba1b	1.591617
91	0x3fc1e706	1.5148628
92	0x3fbc8495	1.4727961
93	0x3fa9260e	1.3214738
94	0x3faac928	1.3342638
95	0x3fbee5f5	1.4913927
96	0x3ea95415	0.33071962
97	0x3f422576	0.7583841
98	0x3f725f7a	0.94676936
99	0x3de2c6e4	0.110730916
100	0xbe2ffb6e	-0.17185757
101	0xbdb6a99f	-0.089190714
102	0xbe058b31	-0.13041379
103	0x3efe55bd	0.49674788
104	0xbd3bba23	-0.04583181
105	0xbd809c0b	-0.06279763
106	0x3f07b7ff	0.5301513
107	0x3e5a8ebc	0.21343511
108	0x3e2b9fe2	0.16760209
109	0x3e1106c3	0.14162736
110	0x3e6cd6df	0.23128842
111	0x3e03bf96	0.12866053
112	0x3c900057	0.017578287
113	0x3e86c039	0.2631853
114	0xbed1262f	-0.40849444
115	0xbe830310	-0.25588274
116	0xbd3a6d68	-0.045514494
117	0x3db82b00	0.089925766
118	0xbcf95201	-0.03043461
119	0x3e38297b	0.17984574
120	0x3d06bb00	0.03289318
121	0xbe599ee0	-0.21252012
122	0x3e0d5c8e	0.13804838
123	0xbec2d524	-0.38053238
124	0xbef8a59e	-0.48563856
125	0xbe9b75a0	-0.30363178
126	0xbcfd3c30	-0.030912489
127	0x3f3fcc5d	0.7492121
128	0xbd7ba091	-0.061432425
129	0xbedf7363	-0.4364272
130	0x3e83f8d4	0.25775778
131	0x3da8f3eb	0.08249649
132	0xbe863111	-0.2620931
133	0xbeb9b7ae	-0.3627295
134	0x3d4f2b0c	0.050578162
135	0x3fd9492e	1.6975458
136	0x3feea811	1.864504
137	0x3fcfbea7	1.6230057
138	0x3fdb5456	1.7135112
139	0x3fe68963	1.8010677
140	0x3fd3b66a	1.6540043
141	0x3f4da9b9	0.803371
142	0x3f89f4a6	1.0777786
143	0x3f8f0e72	1.1176283
144	0xbea17d1a	-0.31540757
145	0x3f1cbf55	0.6122945
146	0x3ea924bf	0.33035848
147	0xbeb410f8	-0.35169196
148	0x3e141cf0	0.14464164
149	0x3efa56db	0.4889439
150	0xbe8d0713	-0.2754446
151	0x3c4f3b03	0.012648347
152	0xbcca3dfb	-0.024687758
153	0x3ea447b2	0.3208595
154	0x3ecb37c9	0.39690998
155	0x3ef960ac	0.48706567
156	0x3e8b2434	0.27176058
157	0x3e16fcea	0.14744917
158	0xbb64d187	-0.0034914927
159	0x3e4c3af1	0.1994436
160	0x3d143c6d	0.03619044
161	0xbd901edd	-0.07037137
162	0x3f1083e9	0.5645128
163	0x3dcc9db7	0.09991019
164	0x3e8b9ef4	0.2726971
165	0x3ea293a0	0.31753254
166	0xbdd34e21	-0.10317636
167	0x3f0a223b	0.5395848
168	0xbda8492d	-0.08217082
169	0xbe86fbd9	-0.2636402
170	0x3e2e6336	0.17030033
171	0x3da63676	0.08115856
172	0x3dc4334d	0.09580097
173	0x3e2b7799	0.16744842
174	0xbe793fea	-0.24340788
175	0x3d000d9a	0.03126297
176	0x3cc36d95	0.023855964
177	0xbd879715	-0.066206135
178	0x3d576ef3	0.052596044
179	0xbe2ff74d	-0.17184182
180	0x3f0a0f2f	0.5392942
181	0x3f47979c	0.7796571
182	0x3f80834d	1.004007
183	0x3ea0ed72	0.31431156
184	0x3e4e836e	0.20167324
185	0x3f1ce380	0.6128464
186	0xbd3a782a	-0.045524754
187	0x3d9dfcbe	0.07714222
188	0x3e7d3b3e	0.2472963
189	0x3f0f4f7a	0.55980647
190	0x3f8c36c9	1.0954219
191	0x3f2cc684	0.6749041
192	0x3e12bd8c	0.14330119
193	0x3d9ca1d7	0.07648056
194	0xbe24788e	-0.16061613
195	0x3d130076	0.03588911
196	0x3ccc9c75	0.024976948
197	0x3ee976bb	0.45598397
198	0x3da6bd7f	0.08141612
199	0x3dad87dd	0.084731795
200	0x3cf36562	0.029711429
201	0x3c779278	0.015110604
202	0xbdbfeebf	-0.09371709
203	0x3d12ae57	0.035810795
204	0x3d0a7b7b	0.033809166
205	0x3d78d5d1	0.060750786
206	0x3e236e22	0.15959981
207	0x3e25aa35	0.1617821
208	0x3d98e183	0.07464888
209	0x3ec0442d	0.37552014
210	0x3e44b8f4	0.19211179
211	0xbc7b9c1e	-0.015357045
212	0x3e8cdb66	0.27511138
213	0xbeb28464	-0.3486663
214	0xbea45fd7	-0.3210437
215	0xbe4b565b	-0.19857161
216	0x3e20dbf0	0.157089
217	0x3e2ffced	0.17186327
218	0x3df50037	0.119629316
219	0xbd54f38a	-0.05199007
220	0x3dd93846	0.106064364
221	0x3ddeba7d	0.108754136
222	0x3e5edd84	0.21764189
223	0x3df391e9	0.118930645
224	0x3d47a040	0.04873681
225	0x3e8d8031	0.27636865
226	0x3ca532ce	0.020165827
227	0x3d3cf00d	0.046127368
228	0x3ee8378e	0.45354885
229	0xbdb2a525	-0.08722905
230	0x3ddce179	0.10785193
231	0x3e8af3af	0.2713904
232	0xbe6e77c3	-0.23287873
233	0xbe07b43b	-0.13252346
234	0xbe2a8eb2	-0.16655996
235	0x3bf38311	0.007431396
236	0xbdcd9d4b	-0.10039767
237	0x3bdd0c13	0.006745824
238	0x3ed342b1	0.4126182
239	0xbea73cf6	-0.32663697
240	0xbe121f90	-0.14269853
241	0x3ea27b43	0.31734666
242	0x3d11e9a8	0.035623223
243	0xbec1c0cf	-0.37842414
244	0xbe9952b7	-0.2994592
245	0xbeb2d895	-0.34930864
246	0xbe66ce1d	-0.22539563
247	0xbf022be7	-0.5084824
248	0xbf13e882	-0.57776654
249	0xbea80b6a	-0.32821208
250	0xbef2e7ee	-0.47442573
251	0xbf3a87ea	-0.7286364
252	0xbe6f5599	-0.23372497
253	0x3da8c7a5	0.08241204
254	0x3ee429e0	0.44563198
255	0xbf49590f	-0.7865152

layer2.0.bias f4 [64]
0	0x422c4592	43.06794
1	0x4236c1c8	45.68924
2	0x423e65ec	47.599533
3	0x424c0060	51.000366
4	0x42532ede	52.79577
5	0x424e0f70	51.515076
6	0x42233ac5	40.807392
7	0x42548b89	53.136265
8	0x422f0ce7	43.7626
9	0x422c7a16	43.119225
10	0x4246b276	49.67428
11	0x42341e99	45.02988
12	0x42461216	49.517662
13	0x422d0f4f	43.26495
14	0x425948d6	54.32113
15	0x42563e9a	53.561134
16	0x424cb26a	51.174232
17	0x42416125	48.344868
18	0x423ec5a0	47.692993
19	0x423feb23	47.979626
20	0x42357548	45.364532
21	0x4246c386	49.69094
22	0x4232d3af	44.706722
23	0x42394b02	46.32325
24	0x424a2b32	50.542183
25	0x423c8987	47.134304
26	0x4250d6e9	52.209873
27	0x42548369	53.12833
28	0x424deb7a	51.479958
29	0x4259cfc2	54.45289
30	0x4248238b	50.03471
31	0x421e4175	39.563923
32	0x423f103e	47.76586
33	0x42229a74	40.650833
34	0x425f579c	55.835556
35	0x424a23f2	50.535103
36	0x4243fb25	48.99526
37	0x4228f1e4	42.23622
38	0x421ac7de	38.695183
39	0x4246e8a2	49.72718
40	0x4233a62a	44.91227
41	0x424b9c02	50.90235
42	0x424ab76d	50.679127
43	0x423de502	47.47364
44	0x42329ece	44.655083
45	0x42368ef9	45.63962
46	0x4243c3a7	48.941067
47	0x423f03ce	47.753716
48	0x421c32f4	39.04976
49	0x423f72a6	47.86196
50	0x42446f59	49.108738
51	0x42521181	52.517094
52	0x423dc248	47.439728
53	0x424fd345	51.956318
54	0x42528039	52.625217
55	0x421064d3	36.09846
56	0x4235a3ba	45.40989
57	0x424af3fe	50.738274
58	0x4239d6c9	46.45975
59	0x42244cc8	41.07498
60	0x424e6896	51.602135
61	0x4240d0dc	48.203964
62	0x4218a064	38.15663
63	0x424dd8e4	51.461807

layer2.1.weight f4 [64]
0	0x3f18f14a	0.5974318
1	0x3f7bbaa8	0.9833169
2	0x3f334e60	0.70041466
3	0x3fa07652	1.2536108
4	0x3f484c93	0.78241843
5	0x3fde1dfa	1.7352898
6	0x3f85cfa2	1.045399
7	0x3f9fc02a	1.2480519
8	0x3fabd427	1.3424119
9	0x3edd313f	0.43201634
10	0x3faec077	1.3652486
11	0x3f4bd02d	0.79614526
12	0x3fc253a0	1.518177
13	0x3f9f4abc	1.2444682
14	0x3fcf8af2	1.6214278
15	0x3fbf1cd4	1.4930673
16	0x3f7b8e5d	0.98264104
17	0x3f370b25	0.7150138
18	0x3f9a144f	1.2037448
19	0x3f40a996	0.7525877
20	0x3f33105f	0.69946855
21	0x3f8c85b0	1.0978298
22	0x3f8f0d92	1.1176016
23	0x3f7875ba	0.97054636
24	0x3f563ecb	0.83689564
25	0x3f87ee95	1.0619684
26	0x3fcaa2db	1.583095
27	0x3f89f379	1.0777427
28	0x3f9faad9	1.2474014
29	0x3fa0e9d6	1.2571361
30	0x3f7d45dc	0.9893472
31	0x3f008ef2	0.5021812
32	0x3f0a5e4d	0.5405014
33	0x3f0e1fd9	0.55517346
34	0x3fadfe0c	1.3593154
35	0x3fa21647	1.2663049
36	0x3fce740f	1.6129168
37	0x3f627a7a	0.88468134
38	0x3eeda06b	0.46411452
39	0x3fa1bafe	1.263519
40	0x3f233f11	0.63768107
41	0x3fc72557	1.555827
42	0x400a2c9a	2.1589723
43	0x3f2da2f5	0.6782678
44	0x3f308633	0.6895477
45	0x3fb31545	1.3990866
46	0x3f9e074b	1.2345976
47	0x3fa6ab3f	1.302101
48	0x3ede8c06	0.43466204
49	0x3fac586c	1.3464484
50	0x3f3aba1a	0.7294022
51	0x3f85729b	1.04256
52	0x3f3a3669	0.72739273
53	0x3f91efbb	1.1401285
54	0x3f742fe9	0.95385605
55	0x3eefc7aa	0.4683202
56	0x3f2fecd1	0.6872073
57	0x3fbbfef4	1.468718
58	0x3fc22503	1.5167545
59	0x3ee65185	0.4498407
60	0x3fbd19c0	1.4773483
61	0x3f9dd5da	1.2330887
62	0x3f0e8903	0.55677813
63	0x3fa2c1ba	1.2715371

layer2.1.bias f4 [64]
0	0xbf15d16c	-0.5852268
1	0xbf1f871c	-0.62315536
2	0xbf6f2386	-0.9341358
3	0xbc876c0a	-0.01653101
4	0xbf0f59d3	-0.55996436
5	0x3eb94d72	0.361919
6	0xbd8611ed	-0.06546388
7	0x3e227e56	0.15868506
8	0x3deb7ae4	0.11498049
9	0xbed44c77	-0.41464588
10	0xbd0bcbc2	-0.034129865
11	0xbee17c8a	-0.44040328
12	0xbe8bd375	-0.27309766
13	0xbdea1842	-0.11430408
14	0x3eb42a59	0.3518856
15	0xbddcc078	-0.10778898
16	0x3de212aa	0.11038716
17	0xbf41641b	-0.75543374
18	0xbe8c6b41	-0.27425578
19	0xbf7bf3c2	-0.9841882
20	0xbed06353	-0.40700778
21	0x3e079300	0.1323967
22	0xbe89dd9e	-0.26926893
23	0xbd7626c7	-0.060095575
24	0xbe8e4f96	-0.27795094
25	0xbda3ef1b	-0.0800459
26	0xbdb38f49	-0.08767564
27	0xbcf23da0	-0.0295704
28	0xbf1b5848	-0.6068158
29	0xbf12beb3	-0.57322234
30	0xbe59f410	-0.21284509
31	0xbf5b3b23	-0.8563711
32	0xbf7ff15a	-0.9997765
33	0xbf59126e	-0.84793746
34	0xbdb5ab4e	-0.088705644
35	0xbea3afdf	-0.31970116
36	0xbd00a72d	-0.03140943
37	0xbe6a6621	-0.22890522
38	0xbf199e91	-0.6000758
39	0xbc52a7b5	-0.012857367
40	0xbed00939	-0.40632036
41	0xbe901c03	-0.2814637
42	0x3df4869b	0.119397365
43	0x3db9eebd	0.09078739
44	0xbe550a89	-0.208048
45	0x3d71daa2	0.059046395
46	0xbdf19fb7	-0.11798041
47	0x3ee30f4c	0.44347608
48	0xbd4b7d41	-0.04968
49	0x3e5073b3	0.20356636
50	0xbf00c526	-0.50300825
51	0xbea46dc6	-0.32115
52	0xbef8125f	-0.48451516
53	0x3e928916	0.28620213
54	0x3c291471	0.010319815
55	0xbf2ef223	-0.6833822
56	0xbf1d9a7a	-0.6156384
57	0xbee02644	-0.43779194
58	0x3ea28ce0	0.31748104
59	0xbe98e4bd	-0.29862013
60	0xbe6b9527	-0.23006116
61	0xbefae556	-0.49003094
62	0xbf3b3dcb	-0.73141164
63	0xbc4a295b	-0.0123389615

layer2.1.running_mean f4 [64]
0	0x424a13ec	50.519455
1	0x42687e67	58.12344
2	0x4255b4fa	53.426735
3	0x4226641d	41.597767
4	0x425064d0	52.09845
5	0x42267b13	41.62019
6	0x41f4b751	30.58951
7	0x423dcac4	47.448013
8	0x4183429e	16.407528
9	0x41f5e12b	30.734945
10	0x42036a93	32.854076
11	0x41e553ee	28.665981
12	0x4205f209	33.486362
13	0x41ac613c	21.547478
14	0x4237a807	45.91409
15	0x42380a1f	46.009884
16	0x42410400	48.253906
17	0x42226cc4	40.606216
18	0x420ad04b	34.70341
19	0x4247a90e	49.915092
20	0x422ffc17	43.99618
21	0x420087c1	32.132572
22	0x4106240c	8.3838005
23	0x420b55af	34.833675
24	0x4226ac40	41.668213
25	0x41ebb71b	29.464407
26	0x4233e327	44.97183
27	0x422cf2cb	43.237103
28	0x4227a1f9	41.908176
29	0x423d92f2	47.3935
30	0x422b4b21	42.823368
31	0x425cdd19	55.215916
32	0x4262bae9	56.68253
33	0x41e87d2f	29.061125
34	0x4253b12a	52.92301
35	0x42755e2d	61.34197
36	0x42119942	36.399666
37	0x4207dea2	33.967415
38	0x42028eef	32.639584
39	0x420ac0b1	34.688175
40	0x4248539d	50.081654
41	0x422de0c6	43.469505
42	0x41b39d59	22.45183
43	0x4237094b	45.759075
44	0x42218a0f	40.384823
45	0x41f31a75	30.387918
46	0x41cd53ec	25.665977
47	0x42060097	33.500576
48	0xbe720122	-0.23633245
49	0x41e2b97f	28.340574
50	0x426890d4	58.141434
51	0x422a9841	42.648685
52	0x4232c914	44.696365
53	0x423228d2	44.539864
54	0x423553e9	45.331944
55	0x41c31c9c	24.38897
56	0x41f891f6	31.07127
57	0x42369fb7	45.65597
58	0x419cea69	19.614458
59	0x424afe0b	50.74809
60	0x42176f01	37.858402
61	0x4222ff4d	40.749317
62	0x41f77720	30.933167
63	0x422eb95c	43.681015

layer2.1.running_var f4 [64]
0	0x42e0b894	112.360504
1	0x437130bc	241.19037
2	0x428432c4	66.09915
3	0x42e9db1a	116.92793
4	0x42179c02	37.90235
5	0x4378d6c1	248.83888
6	0x43e215d4	452.17053
7	0x43010ca9	129.04945
8	0x440ca3ae	562.5575
9	0x4205c3e7	33.44131
10	0x4344a8b4	196.659
11	0x42e39979	113.79975
12	0x43847f95	264.99673
13	0x43d3cfe9	423.6243
14	0x43101cec	144.11298
15	0x4307c4c6	135.76865
16	0x42f3b091	121.84486
17	0x4281bb0f	64.86535
18	0x4390f141	289.8848
19	0x42280785	42.007343
20	0x42eb016e	117.50279
21	0x43715a66	241.35312
22	0x43e9d869	467.6907
23	0x43599a24	217.60211
24	0x4284da72	66.42665
25	0x434a0cfa	202.05069
26	0x43553773	213.2166
27	0x4296c9f5	75.39445
28	0x4304b545	132.70808
29	0x429b5bd4	77.67935
30	0x42ec058d	118.01084
31	0x426a48c4	58.57106
32	0x425a0596	54.505455
33	0x429076e5	72.232216
34	0x41eeafeb	29.835897
35	0x42cf4f02	103.65431
36	0x438f520a	286.64093
37	0x43cabcb8	405.47437
38	0x42eb3dbf	117.6206
39	0x4343cacc	195.79218
40	0x42e30b96	113.52263
41	0x4355db46	213.85654
42	0x440d59a9	565.40094
43	0x42d479aa	106.237625
44	0x42f47bfc	122.24216
45	0x43e9d1d0	467.63916
46	0x433ac4d2	186.76883
47	0x438e699b	284.82504
48	0x43103cdc	144.23773
49	0x4399c27f	307.5195
50	0x425a2c12	54.543037
51	0x42cfb31c	103.84982
52	0x42913a2d	72.613625
53	0x430aec46	138.92294
54	0x42603c0c	56.05864
55	0x433b60a8	187.37756
56	0x42c56a62	98.70778
57	0x433c38e0	188.22217
58	0x4405510f	533.26654
59	0x42ccfa11	102.48841
60	0x433b3411	187.20338
61	0x42e7bb2a	115.865555
62	0x430a408c	138.25214
63	0x42e5c27c	114.87985

layer3.0.weight f4 [64, 64, 3, 3]
0	0xbf0b1338	-0.543262
1	0xbf43b53a	-0.76448405
2	0xbf3e996d	-0.7445286
3	0xbe0b2e2d	-0.13591833
4	0xbeb0fa30	-0.34565878
5	0xbe9d530a	-0.30727416
6	0x3e11115a	0.14166775
7	0xbd87e14b	-0.06634768
8	0x3c8018a3	0.015636748
9	0x3e548615	0.20754273
10	0xbea2feb0	-0.31834936
11	0xbdd1c343	-0.10242321
12	0x3c9e3821	0.019313874
13	0xbec9d34e	-0.39419025
14	0x3e2028a0	0.15640497
15	0xbea68cfa	-0.32529432
16	0xbe8533f4	-0.260162
17	0xbc9b9aac	-0.018994652
18	0xbc9ca2aa	-0.019120533
19	0xbec56034	-0.3854996
20	0xbddaa05e	-0.10675119
21	0xbd801368	-0.062537014
22	0xbddcc3a3	-0.10779502
23	0x3d106ad5	0.035258133
24	0x3e7b9819	0.2456974
25	0x3e01e7eb	0.12686126
26	0x3c978b46	0.018499028
27	0x3e808e3c	0.25108516
28	0x3d3639a5	0.044488568
29	0x3dc6ab17	0.097006015
30	0x3d3383dc	0.043826923
31	0x3de8d428	0.113685906
32	0x3e755896	0.23959574
33	0x3c9dba82	0.019253973
34	0x3e0fdd1e	0.14049193
35	0x3e947c30	0.29000998
36	0x3e44fe35	0.19237597
37	0xbecb0416	-0.39651555
38	0xbe939e95	-0.28831926
39	0x3d3b0d32	0.04566688
40	0x3c3c4b61	0.011492581
41	0xbe16feaa	-0.14745584
42	0xbe170739	-0.14748849
43	0xbe3d5336	-0.18488774
44	0xbd333787	-0.043754127
45	0x3e59f454	0.2128461
46	0xbe3ce7cf	-0.18447803
47	0xbf068683	-0.52549
48	0x3d87317f	0.066012375
49	0xbeff9722	-0.49919993
50	0xbedc494b	-0.43024668
51	0xbe77aac4	-0.24186236
52	0xbec76ad3	-0.38948688
53	0xbd8c53a3	-0.0685189
54	0xbd4b8d09	-0.04969505
55	0xbe19e434	-0.15028459
56	0x3ed357c9	0.41277912
57	0x3f16425f	0.58695024
58	0x3e8dd2b6	0.27699822
59	0x3e28d40f	0.16487144
60	0x3f3d6824	0.7398703
61	0x3f39db1d	0.72599965
62	0x3d8758a3	0.06608703
63	0xbe307253	-0.17231111
64	0xbead0422	-0.33792216
65	0xbe198c08	-0.14994824
66	0x3e1eb5fc	0.15499109
67	0x3e9d3a1f	0.30708405
68	0xbed638a0	-0.41840076
69	0xbc1b6b1f	-0.009485989
70	0xbe24273f	-0.16030596
71	0xbec6cdef	-0.3882899
72	0x3e12f58d	0.14351483
73	0xbee76019	-0.45190504
74	0xbceef6d9	-0.02917044
75	0x3e55154a	0.20808902
76	0xbea5ed2e	-0.32407516
77	0xbef795ed	-0.48356572
78	0x3e029cb2	0.12755087
79	0xbe645dbb	-0.2230138
80	0x3ddceb60	0.10787082
81	0xbe6aa8ec	-0.22916001
82	0xbaad3a01	-0.0013216139
83	0x3dcb1f87	0.09918123
84	0xbe84df8b	-0.259518
85	0x3df1e9a2	0.1181214
86	0x3e297ca6	0.16551456
87	0xbee5af95	-0.4486052
88	0xbcfb08b8	-0.030643806
89	0x3e75bc04	0.23997504
90	0xbed2a2e1	-0.41139892
91	0x3d5c38d2	0.053765126
92	0x3e29ede1	0.1659465
93	0xbe235049	-0.15948595
94	0xbe600d70	-0.21880126
95	0xbdb50d2d	-0.08840404
96	0x3c989df0	0.018629998
97	0xbd20963f	-0.039205786
98	0xbcd21978	-0.02564691
99	0xbf3fd19e	-0.74929225
100	0xbf1fe178	-0.62453413
101	0xbe9f3a4b	-0.31099162
102	0xbf0cba34	-0.54971623
103	0xbec991ea	-0.39369136
104	0xbdd718c3	-0.1050277
105	0xbeb31883	-0.34979638
106	0xbe1220e3	-0.14270358
107	0xbe0f7a5c	-0.1401152
108	0xbeddab12	-0.4329458
109	0xbec1a7b9	-0.37823275
110	0xbd8b5fa7	-0.068053536
111	0xbd962500	-0.07331276
112	0xbe0cb4cf	-0.13740848
113	0x3ec0bff7	0.37646458
114	0x3b3115f0	0.0027021132
115	0xbea1430e	-0.3149647
116	0xbeb1f655	-0.3475825
117	0xbe68820b	-0.22705857
118	0x3e0a624f	0.13514064
119	0x3e937da2	0.28806788
120	0x3e357919	0.17721976
121	0x3d9fa42c	0.07794985
122	0xbe28ebc0	-0.16496181
123	0x3f291d1d	0.6606005
124	0x3eac474a	0.3364814
125	0xbe899fc0	-0.26879692
126	0xbe2c123c	-0.16803831
127	0xbeade940	-0.33967018
128	0xbe6cdc13	-0.23130827
129	0xbd6dcfe5	-0.05805959
130	0x3e2130bd	0.15741248
131	0x3e2b0192	0.16699818
132	0xbd164492	-0.036686487
133	0x3e42144a	0.18953052
134	0x3d661543	0.05617262
135	0x3effa4b0	0.49930334
136	0x3e4acdd3	0.19805078
137	0x3dab9010	0.08377087
138	0x3ea3f7f7	0.3202512
139	0xbe30f585	-0.17281158
140	0xbe239422	-0.15974477
141	0xbece149b	-0.40250096
142	0xbe9e782b	-0.30951056
143	0x3d57f905	0.052727718
144	0xbeccd2b1	-0.40004495
145	0xbf3e75e6	-0.7439865
146	0xbef857a5	-0.48504367
147	0x3c7f9a67	0.015600777
148	0x3e349b9e	0.17637488
149	0x3e9a18e6	0.3009712
150	0xbe7616af	-0.2403209
151	0x3e7b0e09	0.24517073
152	0x3e277980	0.16354942
153	0x3f1ac011	0.6044932
154	0x3ea1c06d	0.31592122
155	0x3c4a674d	0.01235373
156	0x3eb8e807	0.36114523
157	0x3e5119da	0.20420018
158	0xbd0a7f34	-0.033812717
159	0x3eaa759a	0.33292848
160	0x3e18fc6a	0.14940038
161	0xbdbf2921	-0.093340166
162	0x3e64c0d5	0.22339185
163	0xbd9829e6	-0.074298665
164	0xbcf523e9	-0.02992435
165	0x3ef45159	0.47718313
166	0x3c33f422	0.010983499
167	0xbd853c1c	-0.065056056
168	0x3f0c72d2	0.548627
169	0x3e54ab59	0.20768489
170	0x3da30a25	0.07960919
171	0xbe97e7e1	-0.29669097
172	0xbe8b4d9f	-0.27207658
173	0xbeabbfd0	-0.3354478
174	0xbeeefeaf	-0.46678683
175	0xbe68e67f	-0.22744177
176	0xbe5e8fc2	-0.21734527
177	0xbecb3fa5	-0.39696994
178	0xbe93b427	-0.28848383
179	0xbefa6a91	-0.4890943
180	0xbce3ef68	-0.027824119
181	0xbca5f812	-0.02025989
182	0x3e254236	0.16138539
183	0x3d6fb74f	0.058524426
184	0x3db1d046	0.08682303
185	0x3de5f2f0	0.11227977
186	0xbd714513	-0.058903765
187	0x3e3ba229	0.18323578
188	0xbdb0a5c3	-0.086253665
189	0xbe90e5ed	-0.2830042
190	0xbe003040	-0.12518406
191	0x3d9bfe70	0.076168895
192	0x3daf8357	0.08569973
193	0x3e7c028c	0.24610347
194	0x3ef9cf62	0.48791033
195	0x3dc41c5f	0.09575724
196	0x3edf217b	0.4358023
197	0x3f0a3ab2	0.5399581
198	0xbe891375	-0.26772657
199	0xbd8f632c	-0.070013374
200	0xbe2e53b3	-0.17024116
201	0xbe3c5af9	-0.18394078
202	0xbdb3948a	-0.08768566
203	0x3e82c057	0.2553737
204	0xbe86f5a2	-0.26359278
205	0x3e0439a5	0.12912615
206	0x3ef73063	0.48279104
207	0x3e9f6b56	0.31136578
208	0xbcb6e6f9	-0.022326933
209	0xbdef8fcd	-0.1169735
210	0x3e7cc431	0.24684216
211	0x3d9b89f2	0.0759467
212	0xbe94c4b2	-0.29056317
213	0xbeacb3e9	-0.3373101
214	0x3accfd56	0.0015639465
215	0x3e4eb0ad	0.20184584
216	0xbb049ec5	-0.0020236236
217	0x3eae8f97	0.34093925
218	0x3e220fab	0.1582629
219	0x3d4046e4	0.046942607
220	0x3defd65b	0.11710807
221	0x3e5ae6cf	0.21377109
222	0xbd4eb46a	-0.050465025
223	0x3ee270f1	0.44226792
224	0x3e52cd08	0.20586026
225	0xbdb1d556	-0.08683269
226	0xbcbe2801	-0.023212435
227	0x3e9807b5	0.2969338
228	0xbe2d0e2b	-0.16899936
229	0x3e8effee	0.27929634
230	0x3ec9c0f7	0.39405033
231	0x3d1c46dd	0.038153518
232	0x3f3c26b4	0.73496556
233	0x3e476024	0.19470268
234	0xbe70e32d	-0.2352416
235	0xbe82b46f	-0.25528285
236	0x3f0ec4b8	0.5576892
237	0x3e88cad2	0.2671724
238	0x3ed45508	0.41471124
239	0x3f1e6d75	0.6188577
240	0x3e8c855a	0.2744549
241	0x3ea99817	0.33123848
242	0x3e66ef89	0.22552313
243	0xbd37773f	-0.044791456
244	0x3c7223ef	0.014779075
245	0x3dacc513	0.084360264
246	0xbde35d89	-0.11101825
247	0xbdb5f4e9	-0.088846035
248	0xbc4b9f45	-0.0124281095
249	0xbef728f6	-0.48273438
250	0xbecc2563	-0.39872274
251	0xbeaf22d7	-0.34206268
252	0xbbe067c4	-0.0068483073
253	0xbeba268a	-0.36357528
254	0xbe1aaab4	-0.1510418
255	0x3eeb399b	0.45942387

layer3.0.bias f4 [64]
0	0x41d14b58	26.161789
1	0x41a5a579	20.705797
2	0x41e55282	28.665287
3	0x41ee7c31	29.81064
4	0x41ed6ebc	29.67907
5	0x420344a4	32.81703
6	0x41cd2095	25.64091
7	0x41f8628f	31.048124
8	0x41d8ccff	27.100096
9	0x41d4d66f	26.604704
10	0x41f617e5	30.761667
11	0x4211f297	36.486904
12	0x41ff17b4	31.886574
13	0x4201aeb1	32.420597
14	0x41c67f14	24.81205
15	0x42017e72	32.37348
16	0x41d81ff2	27.015598
17	0x41fbf2bc	31.493523
18	0x42067ee4	33.623917
19	0x41cd4f9c	25.663872
20	0x41f99e3d	31.202265
21	0x420906fa	34.256813
22	0x41e49f8e	28.577908
23	0x41fe5c32	31.795017
24	0x41c4f8d7	24.621504
25	0x41da0ce9	27.256304
26	0x41ddc4ae	27.721035
27	0x41c5267d	24.643793
28	0x42060454	33.504227
29	0x41e66ee6	28.80415
30	0x41e9284e	29.14468
31	0x4217ef6c	37.98381
32	0x41d9c835	27.222757
33	0x41f6a280	30.829346
34	0x41beeaa9	23.86458
35	0x41f34a29	30.411211
36	0x41f64d97	30.787886
37	0x41ee05f2	29.752903
38	0x4202607b	32.59422
39	0x41ee93dc	29.822197
40	0x41d815d2	27.010654
41	0x41fc8384	31.564217
42	0x41e111f1	28.13376
43	0x41d344c6	26.40858
44	0x41d7b1af	26.96176
45	0x41df5aeb	27.919394
46	0x41c7590b	24.918478
47	0x41c8df6b	25.10909
48	0x41ace343	21.610968
49	0x41f2f2ad	30.368494
50	0x420ed36e	35.706474
51	0x41d124ba	26.142933
52	0x41e30219	28.376024
53	0x420ab4bd	34.676502
54	0x41f1f1d7	30.243086
55	0x41fa0dcf	31.256742
56	0x41e71044	28.882942
57	0x41d5aff0	26.710907
58	0x41f3a217	30.454145
59	0x41e0fe2d	28.12411
60	0x41f7e4cc	30.986717
61	0x4201ee85	32.48293
62	0x41f10ceb	30.131308
63	0x41e23c65	28.27949

layer3.1.weight f4 [64]
0	0x3f4f941e	0.81085384
1	0x3f24a911	0.64320475
2	0x3fb91543	1.4459614
3	0x3f9aeee6	1.2104156
4	0x3fa0aa1b	1.2551912
5	0x3f8e932e	1.1138666
6	0x3f29e9be	0.6637229
7	0x3f8db538	1.1070929
8	0x3f7be049	0.98389107
9	0x3f82889b	1.0197939
10	0x3f996ea2	1.1986887
11	0x3fa8a8f6	1.3176563
12	0x3faf8935	1.3713747
13	0x3f9d9e9d	1.231403
14	0x3f9303a2	1.1485484
15	0x3f69374a	0.9109999
16	0x3f57c142	0.84279263
17	0x3f73a4af	0.9517316
18	0x3fb1d0e6	1.3891876
19	0x3f47bf9b	0.7802674
20	0x3f573d09	0.8407751
21	0x3faef818	1.3669462
22	0x3f2b231a	0.66850436
23	0x3f9eece0	1.2416039
24	0x3f393a85	0.7235492
25	0x3f664263	0.8994505
26	0x3f88b1c5	1.0679251
27	0x3f94eeae	1.1635339
28	0x3fb6fe7d	1.4296414
29	0x3fa69c5b	1.3016466
30	0x3f91407c	1.1347804
31	0x3fa6cf62	1.3032038
32	0x3f91656f	1.135908
33	0x3f918807	1.1369637
34	0x3f4a7c51	0.7909594
35	0x3fb4a5cf	1.4113101
36	0x3fb08f68	1.3793764
37	0x3fb51486	1.4146888
38	0x3fa10e2d	1.2582451
39	0x3fba9962	1.4578059
40	0x3f87ec00	1.0618896
41	0x3f928e23	1.1449627
42	0x3f8fe6b7	1.1242284
43	0x3fa9159e	1.3209722
44	0x3f4a391f	0.7899341
45	0x3f8f7759	1.1208297
46	0x3f43736f	0.7634801
47	0x3f3478a7	0.704966
48	0x3f0f32e0	0.55937004
49	0x3f7ec5a8	0.9952035
50	0x3fa460f0	1.2842083
51	0x3f883ce1	1.0643579
52	0x3f78af1e	0.9714221
53	0x3f89c698	1.0763731
54	0x3f8def18	1.1088591
55	0x3fb1bbdf	1.3885459
56	0x3fad258c	1.3527083
57	0x3f75fe6e	0.96091354
58	0x3f82c435	1.0216128
59	0x3fac54d9	1.3463393
60	0x3faa4410	1.3302021
61	0x3f807a3f	1.0037307
62	0x3f9a8c09	1.2073985
63	0x3fa82bae	1.313833

layer3.1.bias f4 [64]
0	0xbec577c5	-0.3856794
1	0xbf0c74ad	-0.54865533
2	0xbd851168	-0.064974606
3	0xbeaabdf7	-0.33348057
4	0xbebca532	-0.36844784
5	0xbf069bc9	-0.5258146
6	0xbee7fa46	-0.4530813
7	0xbecb01ea	-0.39649898
8	0xbe8bb915	-0.27289644
9	0xbe8be237	-0.27321026
10	0xbecc7925	-0.39936176
11	0xbef98527	-0.487344
12	0xbe8b74dc	-0.27237594
13	0xbebb8ab4	-0.3662926
14	0xbd819d5b	-0.06328841
15	0xbe4dc30d	-0.20093937
16	0xbf0014ef	-0.5003194
17	0xbf47fb5a	-0.7811791
18	0xbe871200	-0.2638092
19	0xbeb28736	-0.34868783
20	0xbe5ef1c0	-0.21771908
21	0xbdcee0aa	-0.10101445
22	0xbec5558b	-0.38541827
23	0x3bb7ae0b	0.0056054643
24	0xbef33eb9	-0.4750879
25	0xbeb05788	-0.3444178
26	0xbe8d1826	-0.27557486
27	0xbe990804	-0.29888928
28	0xbef74a97	-0.48299095
29	0xbef186f9	-0.47173288
30	0xbe4118a9	-0.18857063
31	0xbed82da9	-0.42222336
32	0xbeaa9c2b	-0.33322272
33	0xbe3dadce	-0.18523332
34	0xbea9915c	-0.33118713
35	0xbea85d16	-0.3288352
36	0xbe9c137a	-0.3048361
37	0xbe84fbab	-0.25973257
38	0xbe83e0bd	-0.257574
39	0xbe88c526	-0.26712912
40	0xbe90b4fe	-0.28263086
41	0xbe8469f5	-0.2586209
42	0xbe929f72	-0.28637272
43	0xbefd3692	-0.49455696
44	0xbe44cdd3	-0.1921914
45	0x3c73888b	0.014864097
46	0xbefcf594	-0.4940611
47	0xbe8ebf25	-0.27880207
48	0xbef9c722	-0.4878474
49	0xbdec6d89	-0.1154433
50	0xbeb94fbc	-0.36193645
51	0xbe669335	-0.22517093
52	0x3e2c192b	0.16806476
53	0xbed9ce9b	-0.4254044
54	0xbe688997	-0.22708736
55	0xbeca5c2a	-0.3952344
56	0xbe82c751	-0.2554269
57	0xbe514f4c	-0.20440406
58	0x3c8e0539	0.017336475
59	0xbec169e3	-0.37776098
60	0xbe9e55f3	-0.3092495
61	0xbf0a6cde	-0.5407237
62	0xbe748196	-0.23877558
63	0xbda1cae7	-0.07900029

layer3.1.running_mean f4 [64]
0	0x41adf38d	21.743921
1	0x41e658b2	28.793308
2	0x41a385be	20.440304
3	0x41fc2b45	31.521128
4	0x41a47448	20.556778
5	0x420ee1e2	35.72059
6	0x41e23f37	28.280867
7	0x420118ca	32.274208
8	0x4163cb3a	14.237116
9	0x41a8122c	21.008873
10	0x41df4e08	27.913101
11	0x42011444	32.26979
12	0x41eb16c8	29.386124
13	0x41d8f4b0	27.119476
14	0x40c8eeb7	6.27914
15	0x42068923	33.633923
16	0x418a5d00	17.29541
17	0x41d5c25c	26.719902
18	0x41f7ade0	30.9599
19	0x41036e67	8.214454
20	0x42035602	32.833992
21	0x41e7655e	28.924496
22	0x41e777ee	28.93356
23	0x41dbf1fb	27.493155
24	0x41bbb47c	23.463127
25	0x416f92aa	14.973307
26	0x41e47f4e	28.56216
27	0x41138258	9.219322
28	0x41bef23e	23.868282
29	0x41858900	16.691895
30	0x41d4e53b	26.611929
31	0x420a7dc6	34.622826
32	0x4154a3e4	13.290012
33	0x4209e968	34.477936
34	0x40eb7931	7.358544
35	0x418d86e4	17.690865
36	0x421ced3b	39.23167
37	0x41a2fd9d	20.373835
38	0x41bdc8b1	23.722994
39	0x4187599b	16.918753
40	0x41d97f3f	27.187132
41	0x41d04689	26.034441
42	0x4194d5f9	18.604479
43	0x418029b3	16.02036
44	0x41b82d99	23.022264
45	0x4191ea6e	18.239468
46	0x4201603f	32.34399
47	0x41a04df4	20.038063
48	0x41926d11	18.303255
49	0x420d0c7e	35.2622
50	0x41dbecef	27.49069
51	0x41f86a8a	31.052021
52	0x4181803d	16.187616
53	0x42025c0e	32.589897
54	0x41b5ab7f	22.708738
55	0x41b865b1	23.049654
56	0x41a1b8fb	20.215322
57	0x415ea05e	13.914152
58	0x41b2130d	22.259302
59	0x418006a6	16.003246
60	0x416f01f1	14.937974
61	0x41fa2f98	31.27324
62	0x42218370	40.378357
63	0x419addb6	19.358257

layer3.1.running_var f4 [64]
0	0x4283bc36	65.8676
1	0x425fde72	55.96723
2	0x431916fa	153.08975
3	0x429714df	75.540764
4	0x42b8c6eb	92.38851
5	0x422371a6	40.860985
6	0x4229d48c	42.457565
7	0x42482714	50.038162
8	0x42597377	54.36276
9	0x42a1d285	80.91117
10	0x4295b65a	74.856155
11	0x422eb7fe	43.67968
12	0x42aa1927	85.049126
13	0x428fa801	71.82813
14	0x42fd6d0e	126.713
15	0x42120348	36.503204
16	0x4238dbd9	46.214695
17	0x42287537	42.114468
18	0x428ffb2c	71.99057
19	0x42820282	65.0049
20	0x4217e6c0	37.97534
21	0x4286e0aa	67.4388
22	0x42236c6d	40.855885
23	0x42913e85	72.62211
24	0x4278e995	62.228107
25	0x427b61ce	62.845512
26	0x428899c8	68.300354
27	0x4306ce9a	134.80704
28	0x429f01fc	79.503876
29	0x42af1ea0	87.559814
30	0x4290d683	72.41897
31	0x41fdafa4	31.710762
32	0x4285176e	66.54576
33	0x4281a073	64.81338
34	0x42c36bda	97.71065
35	0x42f32326	121.56865
36	0x42f9f4ca	124.9781
37	0x42e6a5ac	115.32358
38	0x4278a9c1	62.165775
39	0x430eee95	142.93196
40	0x42fd442b	126.63314
41	0x428e3783	71.10842
42	0x4296c667	75.387505
43	0x4331bc50	177.7356
44	0x426d9677	59.39694
45	0x42beb4d5	95.35319
46	0x42280cb4	42.012405
47	0x42642d33	57.04414
48	0x425d4272	55.314888
49	0x4298c68c	76.38779
50	0x42437dd7	48.87289
51	0x42a8ce8c	84.40341
52	0x4288221d	68.06663
53	0x41fe9c5b	31.826345
54	0x424d2f44	51.296158
55	0x426c3191	59.048405
56	0x4308113b	136.0673
57	0x42d87717	108.2326
58	0x427ec2f6	63.69039
59	0x42ec91fa	118.28511
60	0x42da6680	109.200195
61	0x420caed1	35.17072
62	0x42f2057d	121.01072
63	0x42f148e3	120.64236

layer4.0.weight f4 [64, 64, 3, 3]
0	0x3e409f2d	0.1881072
1	0x3ef3841d	0.47561732
2	0x3eecee75	0.46275678
3	0xbde81c87	-0.11333566
4	0x3e67661a	0.22597542
5	0x3f02f40d	0.5115364
6	0x3cce6b3d	0.02519762
7	0x3c6c2a17	0.014414332
8	0x3e8a7cc8	0.27048326
9	0xbd1ee2e5	-0.038790602
10	0xbde4b97d	-0.111681916
11	0xbe05df80	-0.1307354
12	0xbe85872d	-0.26079693
13	0xbe8f032b	-0.27932104
14	0xbeb5739d	-0.35439768
15	0xbf01ac3a	-0.5065342
16	0xbe457803	-0.19284062
17	0xbe9d7f3c	-0.30761135
18	0xbdac033b	-0.08399054
19	0x3f0615e8	0.52377176
20	0x3ef6773f	0.48137853
21	0xbec9d31e	-0.39418882
22	0xbe42f503	-0.19038777
23	0x3f00b929	0.5028253
24	0xbecf55c0	-0.4049511
25	0xbf3a5455	-0.7278493
26	0xbe8820b0	-0.2658744
27	0x3efe7abb	0.4970301
28	0x3ee362b0	0.4441123
29	0x3e37cb3d	0.17948623
30	0x3f0ab6ad	0.5418499
31	0xbd675b21	-0.05648339
32	0xbdcc5d7a	-0.09978767
33	0x3e1c7180	0.15277672
34	0xbf011897	-0.50428146
35	0xbd45a4f1	-0.048253004
36	0x3e3ebae0	0.18625975
37	0xbe847da4	-0.25877106
38	0xbec2d098	-0.3804977
39	0x3e114d92	0.14189747
40	0xbf05ad80	-0.52217865
41	0xbed09aca	-0.40743095
42	0x3f106f4d	0.5641983
43	0x3ddcc3e3	0.1077955
44	0x3d040712	0.032233305
45	0x3eb59180	0.3546257
46	0x3ecf316d	0.40467396
47	0x3e242867	0.16031037
48	0xbd51f31c	-0.051257238
49	0xbd46fbae	-0.048579864
50	0xbdc4bae5	-0.0960596
51	0xbea283e9	-0.31741264
52	0xbe24435d	-0.16041322
53	0xbe5b3f5f	-0.21410893
54	0xbe766f7b	-0.24065964
55	0xbe43c387	-0.19117557
56	0x3d62de13	0.055387568
57	0xbc71a2cb	-0.0147482855
58	0x3df1f87a	0.11814971
59	0x3e02dc29	0.12779297
60	0xbe4070a7	-0.18792973
61	0xbea3691e	-0.31916136
62	0xbe28521e	-0.16437575
63	0xbe01b2a6	-0.12665805
64	0xbee5a605	-0.44853225
65	0xbf07eb49	-0.5309339
66	0xbdd55956	-0.1041743
67	0xbeddea6f	-0.4334292
68	0xbf3b036a	-0.73052084
69	0x3f166ec8	0.5876279
70	0x3ecc232c	0.39870584
71	0x3e7c1dd8	0.2462076
72	0x3e679da8	0.22618735
73	0xbe0a91f4	-0.13532239
74	0x3e665e35	0.22496875
75	0xbe2e2fe8	-0.17010462
76	0xbe9adbd9	-0.30245855
77	0x3d80d2ba	0.06290193
78	0xbeed3887	-0.4633219
79	0xbf330ccf	-0.6994142
80	0xbec7c7e6	-0.39019698
81	0xbf22ec6f	-0.6364202
82	0xbef28547	-0.47367308
83	0xbe617a6e	-0.2201936
84	0xbf0cdb7c	-0.55022407
85	0xbebcfc5a	-0.3691128
86	0xbe6ca0b3	-0.23108177
87	0xbe9938c0	-0.2992611
88	0xbf2223db	-0.6333596
89	0xbede2038	-0.43383956
90	0xbe4e115e	-0.20123813
91	0xbe112aa1	-0.14176418
92	0xbc8365f9	-0.016039835
93	0xbd6f1586	-0.058370136
94	0xbd65e7c1	-0.05612922
95	0xbe354207	-0.17700969
96	0xbebad2fc	-0.36489093
97	0xbe923999	-0.2855957
98	0xbefe02a5	-0.49611393
99	0x3db4d225	0.088291444
100	0xbec43db2	-0.3832832
101	0xbe5a287c	-0.21304506
102	0x3e6469cd	0.22305985
103	0xbe19895b	-0.14993803
104	0x3e38212a	0.17981401
105	0x3f0f0490	0.55866337
106	0x3e1ac86b	0.15115516
107	0x3f04f9bf	0.5194358
108	0xbe093c62	-0.1340194
109	0x3ddee4bd	0.10883472
110	0xbc6700a5	-0.014099275
111	0x3d9b97cd	0.07597313
112	0x3e577cf0	0.21043754
113	0x3ea22f3c	0.31676662
114	0x3e4e9428	0.20173705
115	0x3e89b81c	0.26898277
116	0x3f3e7eda	0.7441231
117	0xbddbaf90	-0.10726845
118	0xbf0de356	-0.5542501
119	0xbe8e9501	-0.27848056
120	0x3d3d72db	0.046252113
121	0xbe5a6251	-0.21326567
122	0x3d99e498	0.07514304
123	0x3e52ef66	0.20599136
124	0x3e175f17	0.14782368
125	0x3e51b95f	0.2048087
126	0xbe29928d	-0.16559811
127	0x3d248888	0.04016927
128	0xbd2e0cf2	-0.042492814
129	0x3cca678c	0.024707578
130	0xbeb0a6da	-0.34502298
131	0xbeabd198	-0.33558345
132	0xbd9294dd	-0.071573
133	0x3c17c87d	0.009264109
134	0xbe002dd5	-0.12517484
135	0x3ece1b7c	0.40255344
136	0x3efa1c6a	0.48849803
137	0xbd606693	-0.054785322
138	0x3de930c3	0.11386254
139	0x3e95ea5a	0.2928036
140	0x3dfee142	0.12445308
141	0xbf12d850	-0.57361317
142	0xbedf2c54	-0.43588507
143	0xbdd020b7	-0.1016249
144	0x3e19acb2	0.15007284
145	0x3e827687	0.25481054
146	0x3f0cec75	0.55048305
147	0xbda57de8	-0.08080655
148	0x3e06cef3	0.13164882
149	0x3e940d33	0.2891632
150	0xbf05194a	-0.51991713
151	0xbf2d42a3	-0.67679805
152	0xbea3803a	-0.31933767
153	0x3e752d75	0.23943122
154	0x3e7d001c	0.24707073
155	0x3dcc29f5	0.0996894
156	0x3f2a841d	0.6660784
157	0x3f62ca81	0.88590246
158	0x3f257d8e	0.64644706
159	0x3f360be4	0.71111894
160	0x3f7500b2	0.95704186
161	0x3f3e132f	0.7424802
162	0x3d19e090	0.037567675
163	0xbe3ec2e9	-0.1862904
164	0x3d3c5e5e	0.045988433
165	0xbe7112e0	-0.23542356
166	0xbd55804b	-0.052124303
167	0x3e09f9ed	0.13474245
168	0x3dc63546	0.0967813
169	0x3e1a1e77	0.15050684
170	0x3eb83cc8	0.35983872
171	0x3e551efc	0.20812601
172	0x3e1f699e	0.15567634
173	0x3da6d894	0.08146778
174	0x3e8db50d	0.27677193
175	0x3da92fdd	0.08261082
176	0x3dc7f863	0.09764173
177	0x3ea62ef1	0.32457688
178	0xbc725e36	-0.014792969
179	0xbdb7722d	-0.08957324
180	0xbea38164	-0.31934655
181	0xbedec1c2	-0.435072
182	0x3eb38268	0.3506043
183	0xbedcd694	-0.4313246
184	0xbf23f1fe	-0.64041126
185	0xbda52d76	-0.080653116
186	0xbf25ee90	-0.6481714
187	0xbf6fce75	-0.93674403
188	0xbf0e80e2	-0.5566541
189	0xbd31068d	-0.043219138
190	0x3e1b9bbc	0.15196127
191	0x3bc31e1c	0.005954517
192	0xbe72d7ad	-0.23715086
193	0xbe11f0a1	-0.14251949
194	0x3e19b46d	0.15010233
195	0xbe9106fa	-0.28325635
196	0xbed78d35	-0.4209992
197	0xbd17dd66	-0.037076376
198	0x3e5a4f93	0.21319418
199	0x3e56a925	0.20962961
200	0x3e6d6001	0.23181154
201	0xbea807fb	-0.3281859
202	0x3c82e3c5	0.01597775
203	0x3e8103db	0.25198254
204	0xbf7202da	-0.945356
205	0xbefa28d3	-0.4885927
206	0xbc43436a	-0.011917928
207	0x3e1cd31c	0.15314907
208	0xbc8382e4	-0.016053624
209	0x3de82afa	0.11336322
210	0x3e7f6536	0.24940953
211	0x3dc50388	0.09619814
212	0x3eb64e50	0.35606623
213	0xbe8d7fef	-0.27636668
214	0xbda657e4	-0.081222326
215	0x3ec6bca9	0.3881581
216	0xbd897ac8	-0.06712872
217	0x3d54dac3	0.05196644
218	0x3e48a572	0.19594362
219	0x3c9daa09	0.019246118
220	0x3e3937f5	0.18087752
221	0x3e48cb92	0.19608906
222	0x3da12438	0.07868236
223	0x3d8464d0	0.06464541
224	0x3dee1a73	0.116261385
225	0x3efa85dc	0.48930252
226	0x3e8b3560	0.2718916
227	0xbea99cf3	-0.33127555
228	0x3f41df6b	0.75731534
229	0x3ef979c2	0.48725706
230	0xbdabd855	-0.083908714
231	0x3f1a1699	0.6019073
232	0x3e66de6b	0.22545783
233	0xbe24084f	-0.16018794
234	0x3e463ff9	0.19360341
235	0xbdaae253	-0.08343949
236	0xbe91e0ef	-0.28491923
237	0x3da7b0ed	0.08188043
238	0x3e6de07f	0.2323017
239	0x3e9c9206	0.30580157
240	0xbe360ea5	-0.17779024
241	0xbe86c54f	-0.2632241
242	0x3ec1dc1f	0.37863252
243	0x3cb03bd4	0.021512903
244	0x3c48d7f4	0.0122585185
245	0xbed6a1a7	-0.41920206
246	0xbd1aae48	-0.037763864
247	0xbc1d67f1	-0.009607301
248	0xbe92ed6b	-0.2869676
249	0xbe975963	-0.29560384
250	0xbde636e4	-0.11240938
251	0x3af48af4	0.0018657134
252	0x3d8b9277	0.06815045
253	0xbec03ba3	-0.375455
254	0xbf6afc6f	-0.91791433
255	0x3e9fa5fd	0.31181327
