miniImagenet/SalNet_InterClass/miniImagenet_mixture_network_5way_1shot.pkl (torch_old, 599365 bytes, 24 tensors)

layer1.0.weight f4 [64, 64, 3, 3]
00000000: 7fd3 36be e520 17bf 083d bfbe ac6f 4b3e
00000010: 5d6c 28bc bf7a 77be 89f8 c1bd 87e4 7bbe
00000020: bcbe 7cbe ad46 493e 1d66 ca3e a322 793e
00000030: 1510 413e 6cdf bb3e 2357 ad3e a22e b7be
00000040: 4035 06bf aa4c a2be 532d 25be 7323 d63d
00000050: e4cd 51bd 7680 4e3c 6d76 a33e 6805 cf3e
00000060: 581f 7dbd 2914 c23e 0fe3 7c3e 2eef b0bd
00000070: 484b b53e 340a 113f 3fae 22be 5067 363e
00000080: afd4 c53e 7325 b4be ae47 34be ee97 713e
00000090: 3c70 16be 404c 2abe 1c55 1f3d 041d f4be
000000a0: 832d 05bf 25a6 25be 6cad 56bf 8c14 1bbf
000000b0: cb86 bcbd 7d63 b4be c55b 8cbd 7be7 cfbd
000000c0: 34ad d7be ea09 60be 17a2 3fbe ea7f 5abf
000000d0: 049b 0bbf 6524 37bf 45ce 003d ecc3 383e
000000e0: de79 813d 993c 6c3e 1225 d7bd 74fb 07bc
000000f0: 9950 60bd 5216 1abf b986 97be 83f7 a7bd
00000100: 7069 cabe 7f4f 11bf c110 31be 418d 78be
00000110: 5b5f 40be 39bb 8fbd 29a2 3f3d 0f39 e53e
00000120: fc27 2ebe 44fa afbe 24ab 16bf 2784 9dbe
00000130: 645f b0be d1ba 61be 8cfc 303d 8eb5 27be
00000140: 8cad 81be f237 46bf 9d98 4dbf f762 0fbf
00000150: a3b4 3dbf 2334 19bf 1228 4abf e634 0bbe
00000160: 777e 9c3d 6de0 cabd 9094 41be a14f 04be
00000170: 09fc c4bd 79f3 3d3e 58ad 9c3e 7ee4 a03e
00000180: fb0f bf3d 7d79 263e d9da 013d fe42 24be
00000190: eb74 1538 9e93 bc3c f854 c13e 9ac7 023f
000001a0: 57c6 db3e b3ae bc3e 2600 173f f217 e63e
000001b0: ab89 69be c2bc 4ebe 9f13 79be 8d7d 533e
000001c0: 6b8e 913c a8f5 8a3d 2a9e 8b3e 27a4 003e
000001d0: b825 663e cb32 04bd 2464 6ebe 104e 2bbf
000001e0: b96d 95be 309e 1abf 2b8d 6cbf 8f58 a4be
000001f0: 9192 ccbe 38f1 edbe fb8c bcbd f969 e6be
00000200: d827 a1bd f688 843e c01c 1fbe 7957 843d
00000210: 8a2e bc3e 0ef8 70be 438c a3bd f823 07be
00000220: 3a9a 233d bdb5 adbb 14a1 86bd deef ce3e
00000230: 0e6b 603e 5db1 a33e 3fef cc3e 8e08 583e
00000240: b83d 253f fae3 163f 5e5c 093f f192 a53e
00000250: 84e5 ab3e 8ccd 4fbe b206 1b3e 866f 5b3e
00000260: ef74 7bbe 786e bfbe fdb4 c1be fd10 6abe
00000270: d22e d4bd 5380 37be dbfe 7cbe 4c08 8c3e
00000280: 9c0a 463e 8569 2b3e d8f7 5abe 61e2 a4be
00000290: a18c 14be 1c08 8e3d a94c f23d 7a8a 043e
000002a0: b81d 733e add2 603e 8f77 e23d 6817 42bf
000002b0: 8a5a 43bf cb76 4abf 4407 18bf d9d1 39bf
000002c0: 3aaa 7dbe ee3c e1be 55b3 f5be 60a4 a23e
000002d0: dc86 fd3d aac2 81bd e7ef 3abe fa26 b83c
000002e0: ccde 52be 2c47 49be 53ed 553e 99c4 a3bd
000002f0: a5e3 18bc 3291 ce3e 5372 e23d fa94 9b3e
00000300: c425 733e 1556 883d c0cc 023e 9f63 553e
00000310: 7341 183e 556a b33e 9519 56be 2858 5dbe
00000320: e5a2 45bd d75a 90bd a4da 1bbe 1d2b 3f3b
00000330: 40b7 cb3d ac3d 203c 1b50 a13d ff3d 04be
00000340: e02a 2e3b bf71 0a3d ad4d 233e 1259 4e3c
00000350: 45f4 313e 099e 4f3e 1d7c 5dbe ad85 8cbe
00000360: 42cc acbe afea e9bc c6ee 87bd 2aad a0be
00000370: d4e8 a0be 1cae ecbe 0b59 a8be ede0 93be
00000380: b310 28be 9c71 05bf 12ad e9be 682c 16be
00000390: f586 2abe e467 11be b249 3c3e d2bc 88be
000003a0: ddcb b1be 300e b03e 7c28 6fbe 2fd1 5c3c
000003b0: e09a 503e a9d6 9c3d 6af0 b13e 0cd5 af3e
000003c0: e479 f33d 5b61 d03e e10d 93bd 776a f0bc
000003d0: beb3 a1bd 3f17 7f3e 701c babe d49c 8cbe
000003e0: 0965 d7bb 16e4 67bf b232 3bbf 1cd9 c9be
000003f0: 6486 1ebf 0ea2 903d bccd e93e 1ec0 10be
-0.17854117 -0.5903457 -0.3735125 0.19866818 -0.010279742 -0.24167918 -0.094712324 -0.24598895
-0.24682134 0.19655867 0.3953103 0.24329619 0.18853791 0.36693895 0.33855543 -0.35777766
-0.52425003 -0.31699115 -0.16130571 0.1045598 -0.051221743 0.01260387 0.3192629 0.40433812
-0.06179747 0.37906006 0.24695991 -0.0863937 0.35408998 0.56656194 -0.15886782 0.17812848
0.38638827 -0.3518482 -0.17605469 0.23593113 -0.14691252 -0.1663065 0.038899526 -0.47678387
-0.5202257 -0.1617666 -0.8385837 -0.6057823 -0.09205397 -0.35232154 -0.06853441 -0.10151573
-0.4212433 -0.21878782 -0.18714176 -0.8535143 -0.5453341 -0.7153991 0.031446714 0.18043488
0.063220724 0.23069991 -0.105051175 -0.008299697 -0.054764364 -0.6019031 -0.29594973 -0.08201506
-0.39533567 -0.56761926 -0.17291547 -0.24272634 -0.18786375 -0.07018132 0.046785507 0.44770095
-0.1700744 -0.34370625 -0.5885489 -0.30764887 -0.34447777 -0.22043921 0.043209597 -0.16377851
-0.25327718 -0.77429116 -0.80310994 -0.56010383 -0.74103755 -0.5984518 -0.7896739 -0.13594398
0.07641309 -0.09906087 -0.18904328 -0.12921001 -0.096183844 0.18549909 0.30601 0.31424326
0.0932922 0.16257282 0.03170285 -0.1604118 3.5633257e-05 0.023019608 0.3776014 0.5108582
0.4292476 0.36852035 0.589846 0.44940144 -0.22806422 -0.20189193 -0.24323891 0.20653363
0.017768105 0.067851365 0.27269107 0.12562619 0.22475326 -0.032275002 -0.23280388 -0.6691599
-0.29185274 -0.60397625 -0.92402905 -0.32098815 -0.3995557 -0.46473098 -0.092065774 -0.45002726
-0.07868928 0.25885743 -0.15538311 0.064619966 0.36754256 -0.23532125 -0.07985737 -0.13197315
0.039942004 -0.005301206 -0.06573692 0.4041738 0.21915838 0.31971255 0.4002628 0.21097013
0.645473 0.58941615 0.53656566 0.3233867 0.33573544 -0.20293254 0.15139273 0.21429262
-0.24556325 -0.37388968 -0.37833396 -0.22858043 -0.10360493 -0.17920046 -0.24706595 0.2735008
0.19339985 0.16739471 -0.21383607 -0.32203963 -0.1450677 0.069351405 0.11831028 0.1294345
0.23741806 0.21955366 0.1105796 -0.75816965 -0.76310027 -0.79087514 -0.59386086 -0.7258583
-0.24771968 -0.43991798 -0.47988382 0.31766033 0.12379238 -0.06335957 -0.18255578 0.022479523
-0.20592803 -0.19656056 0.20891313 -0.079964824 -0.009331618 0.4034515 0.11056962 0.30387098
0.23744875 0.06657044 0.12773418 0.20838784 0.14868717 0.35042062 -0.20908196 -0.2161566
-0.04825105 -0.07048576 -0.15220124 0.0029169985 0.099470615 0.009780329 0.07876607 -0.12914275
0.0026575848 0.033799883 0.159476 0.012594478 0.17378338 0.2027513 -0.21629377 -0.27445737
-0.33749586 -0.028554289 -0.06637339 -0.31382114 -0.31427634 -0.46226585 -0.32880434 -0.28882542
-0.1641262 -0.5212648 -0.45639855 -0.14665377 -0.16653045 -0.14199787 0.18387488 -0.26706558
-0.34725848 0.34385824 -0.23355287 0.013477608 0.2037158 0.07658131 0.34753734 0.3434223
0.11888483 0.40699276 -0.071803816 -0.029347641 -0.07895611 0.24911211 -0.3634982 -0.274634
-0.0065733236 -0.90582407 -0.7312423 -0.39423454 -0.61923814 0.070621595 0.45664775 -0.14135787

layer1.0.bias f4 [64]
00000000: 60cc 9041 979c 7a41 10ef 8641 3a2a 9741
00000010: 369a 8241 042a 7241 2bce 8741 d794 a741
00000020: 8653 a841 8c3a 7041 c19a 9c41 b045 9541
00000030: 4c15 7d41 db5d a041 b942 9141 9684 7a41
00000040: ad1b 9d41 22d0 a641 fc90 9341 fbc7 9241
00000050: 165e 8241 4aca 8641 df43 a641 534b 8541
00000060: 7692 8541 a3d4 9d41 bde1 a441 e118 a441
00000070: b57c a041 a301 9c41 2b15 9b41 9c12 ad41
00000080: 728f 9441 b309 9b41 07a2 6b41 3dc5 7741
00000090: 9416 8c41 a33f 7c41 c307 b341 9d0a a741
000000a0: 7de7 9041 693d 4c41 ed9b b241 bcb9 9c41
000000b0: 1c3e 8641 df81 7f41 89fa 9f41 c630 9641
000000c0: 03f8 a941 facd 8d41 bad7 8041 af56 a441
000000d0: 5f22 8e41 519d 9241 4d40 7a41 2e6b ac41
000000e0: 18a2 7c41 475b 9b41 f22e 9b41 c587 8841
000000f0: 839d 8641 d1fa 8a41 3b7b 9941 662e 8f41
18.099792 15.66323 16.86673 18.895618 16.325298 15.135258 16.975668 20.947676
21.040783 15.014294 19.575563 18.659027 15.817699 20.045828 18.15758 15.65737
19.638514 20.851627 18.445793 18.347647 16.29594 16.848774 20.78314 16.66178
16.696514 19.728827 20.610224 20.512148 20.060892 19.5008 19.385336 21.634087
18.570042 19.379736 14.727057 15.485654 17.511024 15.765536 22.37879 20.880182
18.113031 12.764993 22.326136 19.59069 16.780327 15.969207 19.997332 18.773815
21.2461 17.725574 16.105335 20.542326 17.766783 18.326815 15.640698 21.552334
15.789574 19.419569 19.397923 17.066294 16.82691 17.372469 19.185171 17.897655

layer1.1.weight f4 [64]
00000000: a815 a03f 9db4 913f e39d 8f3f e578 953f
00000010: d3ee 863f ec08 9b3f 032b 8c3f 1e27 a13f
00000020: 64f1 be3f 6ff8 8c3f 8e83 a53f 5eed 993f
00000030: 0c20 933f 39ad a13f acdb 943f a6af 6e3f
00000040: 068a a13f a444 b43f cf51 983f 0b3e 803f
00000050: e533 ad3f db26 8b3f 30a1 963f f4eb 923f
00000060: 2e50 7f3f 4dd8 9b3f 2548 b23f 24b5 ae3f
00000070: 46e0 a33f 202b ac3f 14df 983f 666d bf3f
00000080: a3df 913f defc 953f daa4 893f 6534 8e3f
00000090: 807e 903f 710c 823f 5f38 c73f a538 b43f
000000a0: b8b7 913f d401 523f 44b8 bb3f 7ac1 9d3f
000000b0: 0299 703f e013 883f c3a9 bb3f 8c3e b23f
000000c0: 5dbe df3f 7720 963f e07f 923f 82a1 b23f
000000d0: c24c 823f 0b52 8b3f 234d ab3f d45d af3f
000000e0: df3b a03f 426a a43f 4c0b a83f 2358 873f
000000f0: 9165 953f 120a 883f fa02 a23f ee7e 933f
1.2506609 1.1383244 1.1220058 1.1677519 1.0541633 1.2112098 1.0950626 1.2590063
1.4917417 1.1013316 1.2930772 1.2025564 1.1494155 1.2630988 1.1629539 0.9323677
1.2620246 1.4083447 1.1899966 1.0018934 1.3531462 1.0871233 1.176794 1.1478257
0.9973172 1.2175385 1.3928267 1.364903 1.2802818 1.3450661 1.1943078 1.4955261
1.1396374 1.1717794 1.0753434 1.110974 1.1288605 1.0160047 1.5564078 1.4079787
1.1384192 0.8203404 1.4665608 1.2324669 0.9398347 1.0631065 1.4661182 1.3925338
1.7479969 1.1728657 1.1445274 1.3955538 1.0179675 1.0884413 1.3382915 1.3700509
1.2518271 1.2844927 1.3128448 1.0573772 1.1671621 1.0628073 1.2657158 1.1523111

layer1.1.bias f4 [64]
00000000: a837 d1be 47b2 76be e188 3bbf af4b 57bf
00000010: e8ec b2be c43b aebe 7744 01bf e052 5dbf
00000020: 1fa1 f6be 954e febe 616c 40bf 5fdf 2fbf
00000030: 8f48 4dbe 81f7 46bf 311f 04bf 5834 07bf
00000040: f8fa 53bf 9105 23bf 85af bbbe c834 f6be
00000050: 5a63 c5be 5997 e1be 8568 1cbf 285b f8be
00000060: f020 08bf 8be7 bdbe b117 5cbf 74fb 24bf
00000070: 53c8 6dbf 7653 3bbf ddf9 5dbf 18bc 1bbf
00000080: 34e4 e5be f182 15bf 3792 a9be 94ef 27bf
00000090: 5ced 8bbe 87c0 28bf 6a6c 52bf 5159 85bf
000000a0: aea9 08bf fa11 023d 8ceb 40bf 2101 e2bd
000000b0: de04 8abe 4152 adbe e269 f5be e0ef aebe
000000c0: b267 27bf e522 1dbf fa48 87be 6461 06bf
000000d0: f48d e8be aa11 cabe a594 88be ddff f8be
000000e0: f5a2 f3be 84b8 16bf e6a4 e3be 0173 05bf
000000f0: 4a89 52bc 0114 3abf f6c0 d1be fab1 b6be
-0.40862775 -0.24091445 -0.73255736 -0.8409986 -0.3494637 -0.34029973 -0.50495094 -0.8645458
-0.481698 -0.49669328 -0.75165373 -0.6870021 -0.2004721 -0.7772141 -0.51610094 -0.52814245
-0.8280482 -0.6368037 -0.36657348 -0.48087144 -0.38552362 -0.44060782 -0.61096984 -0.48507047
-0.5317526 -0.37090716 -0.8597365 -0.64446187 -0.92883795 -0.73174226 -0.86709386 -0.60833883
-0.44900668 -0.58402926 -0.33119366 -0.6559994 -0.27329528 -0.65918773 -0.82196677 -1.0417882
-0.5338391 0.031755425 -0.75359416 -0.110353716 -0.26956838 -0.33851817 -0.47932345 -0.34167385
-0.653926 -0.6138137 -0.26422864 -0.52492356 -0.45420802 -0.39466602 -0.26675907 -0.48632708
-0.47585264 -0.588753 -0.44461745 -0.5212861 -0.012850115 -0.72686774 -0.4096753 -0.3568266

layer1.1.running_mean f4 [64]
00000000: ee95 61c2 7fa3 1ec2 fcca 1a42 6936 0d42
00000010: ed1f 20c1 d41d 6fc2 952a 64c1 f719 b4c0
00000020: 8c9c 45c1 e9bb 38c2 dad5 97c0 9669 93c1
00000030: b67a 9dc1 edb0 7141 b833 3541 b6a6 6741
00000040: dd2e cec0 5468 02c1 8fa2 2342 52ec 3fbe
00000050: 08a6 11c2 0556 2dc1 363f 60c1 2483 bfc1
00000060: 6ef9 2241 8881 61c1 d677 1441 d46d f2c0
00000070: b535 c240 4dc3 7041 3ded 71c1 5bfc 86c1
00000080: 55cb 5cc1 21dc d241 7814 9bc2 4896 8bc1
00000090: 5462 8642 87a2 6441 5f25 eac1 6742 6c40
000000a0: a426 7141 1dda 1ac2 3240 bfc0 bae1 0bc2
000000b0: 41b7 15c0 ed90 eac1 b242 bac1 3cf3 a5c1
000000c0: 20cd 32c2 8689 fb40 2c23 9ec1 ae2e 5ac0
000000d0: 8a69 ca3d b78a 55c1 7650 19c0 9c56 00c2
000000e0: 8b47 2ac1 0e8c 55c2 34aa 08c1 471e 4b41
000000f0: a9f9 1ec2 deeb 24c1 6272 78c1 3980 c1c0
-56.396416 -39.659664 38.698227 35.303135 -10.007794 -59.77913 -14.260396 -5.6281695
-12.350719 -46.183506 -4.744855 -18.426556 -19.684917 15.105695 11.325127 14.478201
-6.4432206 -8.150471 40.90875 -0.18742493 -36.41214 -10.833501 -14.015432 -23.939034
10.185896 -14.094124 9.279257 -7.5759068 6.069056 15.047681 -15.1204195 -16.87322
-13.799642 26.357485 -77.53998 -17.44838 67.19205 14.28968 -29.268248 3.6915529
15.071934 -38.713 -5.9765863 -34.970436 -2.33931 -29.320765 -23.282566 -20.743767
-44.700317 7.8605375 -19.767174 -3.409099 0.09883411 -13.346366 -2.395536 -32.08458
-10.642467 -53.386772 -8.5415535 12.694892 -39.74381 -10.307585 -15.5279255 -6.046902

layer1.1.running_var f4 [64]
00000000: df8e 2c44 c41e 7244 2ca1 3344 4319 0b44
00000010: a36f 3c44 86f9 9144 3ccb 5344 bcde e843
00000020: 6ae8 1d44 b0bf 5144 6007 f943 f8a0 1d44
00000030: 6c1b 6844 30e5 3944 7ddf 1d44 4abb d943
00000040: a152 2744 3067 0c44 60ad 1b44 1014 0044
00000050: 154d 7e44 e4a9 2b44 fc43 eb43 71fe 1444
00000060: 1b10 1544 7720 2d44 44f2 4144 fe55 1944
00000070: c369 dd43 b535 1544 6828 0f44 5a88 2844
00000080: fd7d 4644 106a 0c44 fbe9 a444 2112 3044
00000090: 777d 4c44 b7f2 4744 3009 3f44 d4db fc43
000000a0: f7ac 1a44 b067 9444 d9af 0444 c4ac 1144
000000b0: cb1d 1a44 bfdc 2d44 72b6 1b44 da76 6044
000000c0: aa44 4844 321c 1744 4ae6 2d44 35d3 3b44
000000d0: 3e4f 0644 7013 1544 18a3 8744 d692 1644
000000e0: 4187 7a44 544c 4644 a27d 1c44 6669 1344
000000f0: 8b85 3344 d340 4544 3e81 1644 dde1 4544
690.23236 968.4807 718.5183 556.3947 753.7443 1167.7976 847.17554 465.7401
631.6315 838.9951 498.05762 630.51514 928.42847 743.58105 631.492 435.4632
669.2911 561.6123 622.709 512.3135 1017.2044 686.65454 470.53113 595.97565
596.25165 692.50726 775.7854 613.3436 442.82626 596.8392 572.63135 674.1305
793.96857 561.6572 1319.3119 704.28326 817.9604 799.7924 764.14355 505.7174
618.7026 1187.2402 530.7476 582.69946 616.4655 695.44916 622.8507 897.85706
801.0729 604.44055 695.59827 751.3001 537.23816 596.3037 1085.0967 602.2943
1002.11334 793.1926 625.963 589.64685 718.0866 789.0129 602.0194 791.5291

layer2.0.weight f4 [64, 64, 3, 3]
00000000: 38dd af3e ac3f b13e e8db 0b3d cb1d 963e
00000010: b315 983d ed44 3f3b 2c9d b93e 9dd1 5f3d
00000020: e51f eb3c 5513 77be 1123 15be afff 6ebe
00000030: e59f e1bd 364d 193c 3b4b fbbd ccab 043e
00000040: 876e 633e e55f 823e 5b3a 19be 3c89 4d3d
00000050: 9e19 3bbe 739b eebc 0a18 e93e 2f87 083e
00000060: 84b9 373e 2fa2 0b3e cb82 2f3d 1ac8 e23e
00000070: 198a d53e 0cf4 7cbe 34b2 333e 4d52 9c3e
00000080: b7ba a6be c8b1 56be fc9d 2fbe 0354 16bf
00000090: fd83 8bbe 3458 943e baa8 a93d b749 82bd
000000a0: 75ae e03e a586 1f3d b482 66be 7d3a 543e
000000b0: c5ad f43c c8eb d53d 567c 0a3e ac98 4f3f
000000c0: 59ee 053e dec5 8a3e c327 0a3f 562b 663d
000000d0: 0ee3 d03e 9257 153f 262e fa3d 4ac7 213f
000000e0: f181 183f 2f08 e0bd eea9 8a3e 76eb 343e
000000f0: 5f59 09bf b7a6 04bc c15e 5dbe d8b2 8fbe
00000100: a707 b5be c5f9 28be 9682 11be 86af 01be
00000110: 5b98 b63c 0c19 9ebe a916 cdbc afc9 eabc
00000120: bd08 403e 895e 2e3e 90de a03b 2f5e b2bd
00000130: a2b7 153e a155 8ebd 0880 2cbe 86ee ce3e
00000140: a770 a23e 4ad0 8a3e 2918 7e3e 7eac f3bd
00000150: 3cdf da3e e809 b23e e98b 043f 3f4c 263f
00000160: df42 c93e 2afa 403f 5db2 26be d4a0 83be
00000170: 5774 2fbe ad7a 7d3e 3380 d6bd 0888 003e
00000180: e9e9 1f3e 61ed 17bd b1b3 293e eb9f cd3d
00000190: a855 ab3e 6e95 1abd 4b24 bb3d e603 a93e
000001a0: 87e1 953e 5f22 89be 419a e53d 7090 1a3e
000001b0: 75a9 1fbf 1e45 f8be 473a bcbd 16af 34bf
000001c0: 31ca f2be 048c c2be 427f 06bf 065a 60be
000001d0: 316e 98bd 8a61 953d 81fb 73be 47f8 4dbe
000001e0: 55d2 973e d498 7ebd 0106 55be caf4 b0bd
000001f0: c351 c1be 1a56 0abf 0476 edbd 66c8 513e
00000200: f215 a53e 503d 8bbc b2b0 363c 7317 843e
00000210: c8e4 8b3d 9a18 1c3e 2ac6 333f 6291 59be
00000220: b07d 8cbd 8ee2 5d3d bc68 5cbe e9eb 85be
00000230: 1173 0d3e 0c27 7dbe 849f 18bf 7f4d 9abe
00000240: 972c fd3e 33fd 883e a842 193f 50e4 9e3c
00000250: 5999 06bc 42ff c13e b115 c5bc f404 f5be
00000260: e034 c8bd 485b 2bbf 65a8 2ebf d7ad 5fbf
00000270: 742f 07bf ea2f b6be 0448 20bf 87ed aebe
00000280: 8e84 5cbe 9ce4 37be 84f7 afbe 0401 0cbe
00000290: 3b79 713c 09c6 5ebe f8e7 97be 8bdb e7bd
000002a0: e486 6bbe e0a6 fdbe e44a 66be a34a 6f3e
000002b0: 20d4 253d bcce 06be ce3f 413e 7686 133e
000002c0: fdf2 18be e32c abbd 60c4 3fbd 056d d4bd
000002d0: d11d ca3d 2242 423e 4d30 be3e 59f3 353e
000002e0: 8fd5 e93e 0042 183f 03c3 a93e 943e ac3e
000002f0: d809 2a3f 11e6 4b3e 8e54 0f3f abb7 f43e
00000300: d2a8 253e fd58 043f 28be 203f ba33 a93d
00000310: 8490 7a3e 975d f23e ade9 0e3f ebf7 683f
00000320: daa7 4b3f 3fd1 8b3d 2ede 253e ff7c 013f
00000330: 56a3 afbe d5c8 d6be 0c78 c63d edaa 493d
00000340: c297 f73d 1c98 fa3c 1687 f0bd 9c32 36be
00000350: 5f83 8ebe 1937 8cbe 4e1d bcbe 8313 0fbe
00000360: f0dc fe3c 377f 80be de14 793d 38d9 35ba
00000370: b760 f8be 4d3c f33c 423b 65be 480c 1dbf
00000380: 2bb7 1ebe f019 553d b7da 3bbe fe27 fcbe
00000390: c5f0 cc3d 46ff 4b3d af95 a1be d356 3ebd
000003a0: 690d 94be 287e 32be ce13 c23e 1a5e 233e
000003b0: a107 39bc a7eb 643e 74fc 123e 24e2 3e3e
000003c0: ba5e 31be 2fd8 eebe e6c7 89be df57 b63e
000003d0: f198 bf3e 36b8 363e 0bef 85be d9f4 02be
000003e0: 077c cd3d e070 a5be ffb1 87bd cc8c 01be
000003f0: fcac 2abe fb1e 02be e4a1 80bd d2c0 08bf
0.34348464 0.3461889 0.034145266 0.29319605 0.07426014 0.002918537 0.36252725 0.054643262
0.028701732 -0.24128468 -0.14564158 -0.23339723 -0.110168256 0.009356787 -0.122702084 0.1295616
0.22210132 0.25463787 -0.14963667 0.050179705 -0.18271491 -0.029126858 0.45526153 0.13332818
0.17941862 0.13636087 0.042849343 0.4429329 0.41706923 -0.24702471 0.17548448 0.3053154
-0.32564327 -0.20966256 -0.1715011 -0.5872194 -0.27249137 0.28973544 0.08284135 -0.06361716
0.438831 0.038946766 -0.22510797 0.20725437 0.029868016 0.10445362 0.13523993 0.81092334
0.13079204 0.27104086 0.5396692 0.056193672 0.4079823 0.58336747 0.12215833 0.63194716
0.59573275 -0.10939061 0.2708277 0.17667946 -0.53651994 -0.008096389 -0.21618177 -0.28066134
-0.353574 -0.1650153 -0.14209971 -0.12664613 0.022289446 -0.30878484 -0.02503522 -0.028660623
0.18753333 0.1702825 0.004909344 -0.0870937 0.14620832 -0.06949926 -0.16845715 0.40416354
0.31726572 0.27112037 0.24813904 -0.11898135 0.4274844 0.34773183 0.51775986 0.6496009
0.3930883 0.7538172 -0.16278978 -0.2570864 -0.17134224 0.24753828 -0.10473671 0.12551892
0.15616573 -0.037091617 0.16572453 0.100402676 0.33463788 -0.037740164 0.09137782 0.33010787
0.29273626 -0.26784036 0.11211062 0.15094161 -0.62367946 -0.48490232 -0.09190803 -0.7057966
-0.47419885 -0.37997448 -0.5253793 -0.21909341 -0.07442892 0.07293995 -0.2382641 -0.20114242
0.29652658 -0.062157467 -0.20803072 -0.0864044 -0.37757692 -0.5403763 -0.11594775 0.20486602
0.32243305 -0.01699701 0.011150526 0.2579914 0.06830746 0.1524376 0.7022425 -0.21246865
-0.068599105 0.054171138 -0.21524328 -0.26156548 0.13813426 -0.24721926 -0.596184 -0.3013725
0.49448082 0.26755676 0.59867334 0.019395977 -0.008215272 0.3789006 -0.024058195 -0.4785534
-0.0977571 -0.6693616 -0.682257 -0.87374634 -0.5280678 -0.3558343 -0.6260989 -0.34165594
-0.2153494 -0.17958301 -0.34368527 -0.13672262 0.014738376 -0.21755232 -0.29669166 -0.113211714
-0.23000675 -0.49541378 -0.22489506 0.23368315 0.0404855 -0.131648 0.18871996 0.14406762
-0.14936443 -0.08358171 -0.046818137 -0.10372356 0.09868968 0.1897054 0.37146226 0.17768611
0.45670745 0.5947571 0.33156595 0.33641493 0.6642127 0.19911982 0.55988395 0.47796378
0.16177681 0.51698285 0.62790155 0.08261819 0.24469191 0.47337028 0.5582531 0.9100329
0.79552996 0.0682702 0.16198036 0.50581354 -0.34304303 -0.41950098 0.09690866 0.049235273
0.120894924 0.03059011 -0.117445156 -0.17792743 -0.27834603 -0.27385786 -0.36741108 -0.13972287
0.03111121 -0.25097057 0.060810916 -0.000693697 -0.48511288 0.02969184 -0.22385886 -0.61346865
-0.1549956 0.05202669 -0.18345152 -0.49249262 0.10006861 0.049803995 -0.31559512 -0.04646952
-0.2891648 -0.17430937 0.37905735 0.15953866 -0.011293323 0.22355519 0.14354116 0.18640953
-0.17321292 -0.4664931 -0.26910323 0.35613915 0.37421373 0.17843708 -0.26158938 -0.12788714
0.10033422 -0.3231268 -0.06625747 -0.12651366 -0.16667551 -0.1270713 -0.06280878 -0.5341922

layer2.0.bias f4 [64]
00000000: f1d3 6b41 98e9 6241 eb68 6b41 3506 6741
00000010: 4663 6541 522b 7f41 9518 8441 629e 6d41
00000020: dbbc 7e41 abe0 8841 3d59 7841 5d3b 5e41
00000030: 7665 8241 0045 7541 7570 5141 bfcd 5c41
00000040: edd9 8441 9c2d 5641 ed2a 6c41 fc01 9341
00000050: 4a11 5f41 6dba 6741 5223 6c41 0014 5941
00000060: cbed 8441 662a 9041 f9c0 4341 cfde 5741
00000070: bd9d 4e41 c47a 5141 f08c 7d41 c760 8941
00000080: 2ebe 7741 f431 8341 4592 8d41 bbc3 6f41
00000090: 78cf 5c41 ecc8 5441 2e25 8141 87da 8141
000000a0: 764c 5c41 23d7 6e41 0ef5 6b41 341d 7b41
000000b0: a8a9 8141 7906 6841 d3e3 5441 0d7c 4d41
000000c0: 1c3d 6d41 ce17 6a41 40db 8241 6ba6 8441
000000d0: 84bb 6041 dfda 5041 f99b 4c41 751b 6941
000000e0: 2b71 7741 e29b 8141 c2d8 7441 cc28 5f41
000000f0: 6898 6a41 5561 8b41 2996 6e41 9f8e 7d41
14.7392435 14.18203 14.713115 14.439015 14.336737 15.948076 16.512003 14.851168
15.921107 17.109701 15.521787 13.889493 16.299541 15.329346 13.089955 13.800231
16.60641 13.386135 14.76048 18.375969 13.941721 14.483014 14.758623 13.567383
16.61611 18.020702 12.234612 13.491897 12.91351 13.092472 15.846909 17.172255
15.483931 16.399391 17.69642 14.985286 13.800652 13.299053 16.143154 16.231703
13.768667 14.927524 14.747328 15.69463 16.20784 14.50158 13.305621 12.842786
14.827419 14.630812 16.357056 16.581259 14.04578 13.053435 12.788079 14.569203
15.465129 16.201115 15.302919 13.94746 14.662209 17.422525 14.91166 15.84732

layer2.1.weight f4 [64]
00000000: a4eb 783f 02f4 483f 15cc 6f3f 318f 4e3f
00000010: 94d5 653f f85c 873f d885 613f db56 613f
00000020: f1f6 7f3f 9e84 8e3f 26c2 7f3f 5be9 763f
00000030: fd6c 8a3f 4024 883f fd6d 383f 0f34 623f
00000040: 5d2a 743f cc1a 703f 78e1 883f 234b 963f
00000050: 2ce8 653f 5ef9 693f cd9b 633f 4093 863f
00000060: 04c5 8f3f b64c 8f3f f53f 453f 49c1 2b3f
00000070: 964a 563f 8208 613f 91e9 7e3f 65a1 833f
00000080: 9bd7 7e3f a829 8d3f 601a 8f3f c7d5 763f
00000090: dc94 383f 6a3b 7a3f 6226 833f 652f 663f
000000a0: 02f1 803f 2d8c 6f3f 65ca 663f c40b 623f
000000b0: 4004 943f a499 803f 14e3 4c3f e6ed 8f3f
000000c0: 3392 5b3f 9e1a 4a3f 4628 6d3f 9126 983f
000000d0: e6af 813f bd88 4d3f 5f12 733f bdb9 7d3f
000000e0: 5560 763f 888f 763f c07f 823f 6c28 833f
000000f0: 49c3 563f acb8 803f 5821 653f d69d 643f
0.9723456 0.78497326 0.9367078 0.8068724 0.8977902 1.0575247 0.88094854 0.88023156
0.9998618 1.1134222 0.9990562 0.9644982 1.081451 1.0636063 0.7204283 0.88360685
0.9537714 0.9379089 1.0693808 1.174168 0.8980739 0.9139613 0.8890961 1.0513687
1.1231999 1.1195285 0.77050716 0.67091805 0.8370756 0.87903607 0.99575144 1.0283629
0.9954774 1.1028337 1.1179924 0.9641995 0.7210214 0.9774691 1.0246089 0.8991607
1.007355 0.93573266 0.9015258 0.882992 1.1563797 1.0046887 0.80033994 1.1244476
0.8576996 0.78946865 0.9263958 1.188677 1.0131805 0.8028677 0.9494991 0.9911154
0.9624074 0.9631276 1.0195236 1.0246711 0.8389173 1.0056357 0.89504004 0.8930334

layer2.1.bias f4 [64]
00000000: d893 1ebf dc46 9dbe a9e4 7abe fe8f 5fbe
00000010: 3d17 3bbe f9c2 43bf 894f 12bf 49bd 883d
00000020: bc47 00bf 1bc8 46bf 2399 35bf f35f 92be
00000030: 3c1f 1ebf 9e2a 1ebf fba4 63be 0621 6ebe
00000040: a8e4 33bf ae55 eabe 84bd 38be c4f9 4bbf
00000050: e8bf edbe acab 2bbf 0d84 45bd 57eb c5be
00000060: 38b1 edbd d770 ecbe ce86 15be 1fee 8dbd
00000070: e064 d7be 2169 cabe 6c6a 2bbf 8c6e 39bf
00000080: 5fde 85be e153 9abe 5f2b 44bf 678a 39be
00000090: 3203 893b 1f90 763d 1580 ffbe a867 4fbf
000000a0: 5b0a dabd a091 72bf 9fd1 0fbf 68dc 7b3c
000000b0: eb4f 45bf 8e77 3cbf cd5e 68be 8120 5dbd
000000c0: 5867 0cbf 803d c6be 1e21 59bf 90b0 3abe
000000d0: cc81 08bf 3285 08bf a8a8 55be f864 d1be
000000e0: bd4c 5cbf a473 6fbe b2f3 ecbd 6e88 23be
000000f0: 33c5 75be 66e6 f5be 3f67 13bf af00 0ebf
-0.6194434 -0.30718124 -0.2450129 -0.21832272 -0.18270583 -0.7646938 -0.5715261 0.06676728
-0.5010946 -0.77649087 -0.70936793 -0.28588828 -0.6176641 -0.6178378 -0.22230904 -0.23254785
-0.70270777 -0.45768493 -0.18041044 -0.7967799 -0.46435475 -0.67058825 -0.048221637 -0.38656113
-0.116060674 -0.4617984 -0.14602205 -0.069301836 -0.4206915 -0.39533332 -0.6695926 -0.72434306
-0.26146218 -0.3014212 -0.7662868 -0.18119203 0.004181289 0.06019604 -0.49902406 -0.8101754
-0.106465064 -0.94753456 -0.5617923 0.015372373 -0.7707507 -0.73619926 -0.22692414 -0.053986076
-0.5484519 -0.38718796 -0.8481616 -0.18231416 -0.53323054 -0.5332824 -0.20865119 -0.40897346
-0.86054593 -0.23383957 -0.11569919 -0.15970013 -0.24001007 -0.48027343 -0.57579416 -0.55469793

layer2.1.running_mean f4 [64]
00000000: 2dcb 8c41 9b9f 16c1 f767 d540 e475 6f41
00000010: 1ba7 82c2 f384 15c1 0852 21c2 d4f5 94c2
00000020: ad52 0c41 52b9 60c1 7202 6fc1 8e56 08c2
00000030: 8125 c5c1 6cd3 cfc1 712f 06c2 c9b4 3041
00000040: eb9a acc1 3dc0 dec1 cbb1 65c2 95aa 26c2
00000050: ae57 51c2 6e31 0d41 31df 1e41 3b36 72c2
00000060: a20b 88c2 c996 3641 fc9a 56c2 ec41 ccbf
00000070: b58d c4c1 6178 da3e 3b21 0fc2 8f3c c3c1
00000080: 5a6a 47c2 57c8 23c2 eb75 8b41 f274 e7c1
00000090: cf35 a4c1 2aaa 98c2 1bfa 6e41 baef f1c1
000000a0: 2bd0 47c2 9fa0 9ac1 7d98 46c2 cfc1 49c1
000000b0: 42ac f5c1 0349 32c1 a4f0 66c2 aa80 32c2
000000c0: deed 5cc0 c59e 09c1 4011 97c0 59ef 51c2
000000d0: bb32 c1c1 d2a1 1a42 3a0e 61c2 3647 d2c0
000000e0: d16d 8cc1 78bf 0f40 5b39 24c2 6dcb 2bc1
000000f0: 3177 c841 ea61 afc1 30e2 eec0 f725 8bc1
17.599207 -9.413966 6.668941 14.966282 -65.32638 -9.344958 -40.33011 -74.48013
8.7701845 -14.045244 -14.938097 -34.084526 -24.643312 -25.978233 -33.54633 11.044137
-21.575644 -27.843866 -57.423626 -41.666584 -52.335625 8.824568 9.92949 -60.55296
-68.02272 11.411813 -53.651352 -1.5957618 -24.569193 0.42669967 -35.78245 -24.40457
-49.85386 -40.945644 17.432577 -28.932102 -20.526274 -76.33235 14.936061 -30.242054
-49.95329 -19.328428 -49.648914 -12.609817 -30.70911 -11.142825 -57.735 -44.62565
-3.4520183 -8.601262 -4.7208557 -52.483738 -24.14977 38.658028 -56.263893 -6.5711927
-17.553621 2.2460613 -41.05601 -10.7371645 25.058199 -21.92281 -7.465111 -17.393538

layer2.1.running_var f4 [64]
00000000: a6a0 5044 1722 2844 31e8 7544 77c2 5444
00000010: 6768 9744 3b58 7544 8a41 0644 bcdf 4d44
00000020: 8f9a 3944 d46c 5244 b0e9 3b44 9650 9e44
00000030: 89f1 5f44 0463 5644 7ecf 2144 ccbb 9544
00000040: 191a 3644 242a 8744 5f9d a744 cc02 4b44
00000050: a381 8144 7a0b 8244 edde 3a44 5a78 7444
00000060: b8ab 9344 e149 3a44 aa2b 7c44 f527 0744
00000070: 8d84 7c44 40d4 a744 551c 4244 c549 4c44
00000080: 7c4b 5d44 b8f1 4944 c866 2244 2364 6d44
00000090: d043 5944 e4b7 a344 47a8 9544 171f 3344
000000a0: 3732 7f44 f523 1a44 d72e 4344 108e 7a44
000000b0: 7bcf 8744 0a1a 6d44 f96f 7444 19e8 f044
000000c0: 51dc 2a44 cc71 6844 5aa6 3644 b10d 5744
000000d0: 6270 9444 bdb1 3c44 65e0 bb44 c438 9344
000000e0: 23ad 3744 3e52 6c44 db28 7144 fddb ac44
000000f0: 04db 5344 0b26 1c44 39d0 1144 7ef7 1644
834.51013 672.53265 983.628 851.0385 1211.2626 981.3786 537.02405 823.49585
742.415 841.70044 751.65137 1266.5183 895.774 857.5471 647.24207 1197.8687
728.4078 1081.3169 1340.9178 812.0437 1036.0511 1040.3586 747.4832 977.8805
1181.3662 745.15436 1008.68225 540.6243 1010.0711 1342.6328 776.4427 817.15265
885.17944 807.77686 649.60596 949.56464 869.0596 1309.7466 1197.2587 716.4858
1020.7846 616.5618 780.7319 1002.2197 1086.4838 948.40686 977.7496 1927.253
683.44244 929.7781 730.59924 860.2139 1187.512 754.77716 1503.0123 1177.7739
734.70526 945.28503 964.63837 1382.8746 847.4221 624.5944 583.2535 603.86707

layer3.0.weight f4 [64, 64, 3, 3]
00000000: 0f2e 5b3e 21a7 993d 8c72 b8bb 7472 ab3e
00000010: 32e4 20be 8137 463d 7c9b 4b3e cf8c b7bd
00000020: 4f28 993e 4c13 adbe d838 02be 4986 12bf
00000030: 80f4 06be 0f2c 273d 73d9 8ebe a1a6 133d
00000040: 1c8a 903e 35bf 1c3d 635d 393e 0ed4 3b39
00000050: 17a6 74bd 7a22 b8bd 7a34 5bbd 8f9e fdbb
00000060: 95d8 7c3d b95f 373c 867a 343e 6c38 97bd
00000070: 3bd9 37be 6cc5 3b3d 16ce 3cbe 8fda 5cbd
00000080: d1c8 003d f71c d2be 03c4 70be 0bec 1ebe
00000090: 34e5 1d3e 51b9 ac3e f605 4b3d 8b47 2ebe
000000a0: 056a 663d 2e6c d9be 2f53 8fbe f27e 41bd
000000b0: e597 d2be e3f5 51be ac8d 183e 6032 d63e
000000c0: cf3d 0bbf f1b6 1abe 3b4c babd b33f 29bf
000000d0: 62f3 01bf 873b 08bf 13d6 103e 3ad4 853d
000000e0: 07a8 b5bc b7cb 96be d68a d4be 81c7 d4be
000000f0: 877b 05bf 928b f3be 21ce fabe 779b 8e3e
00000100: 5b87 c4bc 2dce 7abe 1be5 6e3e a5a0 053e
00000110: 98ca 58be 5294 9f3e 12e3 c83e 8f6b 003e
00000120: f74e 793e 9aa8 5d3f 90ac 3b3f d700 aebd
00000130: 211a 8c3e 83f5 ac3e a501 48be 2449 bdbc
00000140: dd6b 583d 7da3 0abf 970f e8be d8db 71bf
00000150: 289f ab3e 3817 6d3e dba1 0abd 5ccf 043f
00000160: 01a1 ee3e 7ddf f03e 97bd 173e 236a a23e
00000170: 980e 183f 5378 d5be c6a7 c2bd 0d24 28be
00000180: a11a febe 951d 6fbe 464b 29bf 8c9e 183e
00000190: cd64 043f 1aef 5c3e e370 37be e5a6 f23b
000001a0: a215 fcbe 2f04 09bf 87d3 96be 174e 73bf
000001b0: 9086 283f 2138 1e3e 8647 77be 6d33 67bb
000001c0: 110a 46be cd41 fbbe 90cf 31bf 464d a1be
000001d0: e682 2ebf c784 59bb 9e1a 173e e1e3 843e
000001e0: 8799 15be e9a0 2b3e ba6e 773d 6af9 e4bd
000001f0: b2c0 c03e 4d1c bf3e d429 d5be 5f5a 6cbe
00000200: df3c 12bf 8157 bfbe 5bdf 37be 59e5 ccbe
00000210: 22a7 04bf f7b4 acbe 005f 10bf 0e1c 1dbd
00000220: 34eb 47be da62 0b38 792e a03e 3253 7a3e
00000230: b399 b53e 42f0 9a3e 4c94 ce3d 6e71 9a3e
00000240: 1fc8 a63e 1c66 76bc 2f7e 06bd d18a 013f
00000250: 7000 733e 09cf 6e3e d037 3e3f f8d3 0e3f
00000260: 8f72 1d3f dd49 5abe 4187 f73d bf62 913d
00000270: 8952 e03d b1b1 813e 16ff 13be 9f7e 60be
00000280: 1d77 d83b 1859 33be 574f 933d aa5a 143e
00000290: cf25 30bf ac94 70bd f969 843e 2798 79be
000002a0: 2601 28be 8698 893e 19bf aa3e f7aa 3e3f
000002b0: a8df 9f3e 3c86 cdbd 501f 013f fec4 2a3e
000002c0: 015c 8ebe 1ae0 eb3e 593c 6d3e 40a7 80be
000002d0: 9dee 9ebe 67d7 d43d 544e 48be aed8 dfbe
000002e0: 1446 093e d576 0a3d ef7e 00be 7acd 873e
000002f0: 9b79 ba3d 36c8 abbe fc8a 9abd 027f 173e
00000300: d668 e4be a093 ffbe a69c f7bd d7ab ecbe
00000310: d97e f0be 9ab0 41be 529f 90bd a10d 143e
00000320: 8daa 423e 961b bd3d 3e6c c83e 1856 443e
00000330: 93a5 34bf bf85 01bf d9e8 dfbe 6577 2c3e
00000340: fcbd 863e eaf7 ad3d ee8d dfbc 33eb e63d
00000350: 115e 8d3d 587a 66be 327e b23b f4bf c1bd
00000360: 38fc 803d 327f b03e d341 233e 8c01 09bc
00000370: c8dc ef3e e454 083e 332a 0f3e c081 fc3e
00000380: bee9 d93e c01c a1be dbad 0b3e 0136 cb3b
00000390: 7d91 3bbe b474 e33d f925 e8be 61b5 d0bd
000003a0: ea4e e63d a9ed c2be 598f e63e 702a bc3e
000003b0: 0225 063f 298d bc3e fabe ae3e 6154 e33d
000003c0: 379c 373d 7a59 403b 1c8a 023d aa2c 17bd
000003d0: 4d67 b5bc 3167 063e dba6 89be 68e9 b2bd
000003e0: 3bc9 adbd aa62 99be 2731 0f3e 6aaa b33d
000003f0: 43b5 ecbe b1ff 463d 2d04 fbbd f496 3dbf
0.21404289 0.075025804 -0.0056288894 0.33485758 -0.1571205 0.048392776 0.19883531 -0.08962404
0.29913566 -0.33803785 -0.12716997 -0.5723615 -0.13179207 0.040813502 -0.27900276 0.03604758
0.2823037 0.038268287 0.1810203 0.00017912706 -0.059728708 -0.08990951 -0.053516842 -0.007739849
0.061729986 0.011192256 0.17624864 -0.073838085 -0.1795396 0.045842573 -0.1843799 -0.05391937
0.031441513 -0.41037723 -0.23512273 -0.15519731 0.15419465 0.33735135 0.04956623 -0.17019479
0.05625345 -0.42465347 -0.27993152 -0.047240205 -0.4113151 -0.20503955 0.14897794 0.41835308
-0.5439119 -0.15108849 -0.09096571 -0.6611282 -0.50762 -0.5321583 0.14144163 0.0653462
-0.022174848 -0.29452297 -0.41512173 -0.4155846 -0.5214161 -0.4756742 -0.4898539 0.27852985
-0.023990324 -0.24492712 0.23329584 0.13049562 -0.21171033 0.31167847 0.3923574 0.1254103
0.24346529 0.8658539 0.73310184 -0.08496254 0.27363685 0.3378106 -0.19531877 -0.023106165
0.05283724 -0.54155713 -0.45324394 -0.9447608 0.33519864 0.23153389 -0.033845764 0.51878905
0.4660721 0.47045508 0.14818417 0.317216 0.5939727 -0.41693363 -0.095046565 -0.16420002
-0.4962969 -0.23351128 -0.66130483 0.14904231 0.5171631 0.21575585 -0.17914157 0.0074051493
-0.49235255 -0.5352201 -0.29458258 -0.9504103 0.65830326 0.15451099 -0.24148378 -0.0035278455
-0.19339778 -0.4907364 -0.6945734 -0.31504267 -0.68168485 -0.0033190714 0.14756247 0.25955108
-0.14609347 0.16760601 0.06040833 -0.111803845 0.37647015 0.3732628 -0.41633475 -0.23081349
-0.5712413 -0.37371448 -0.17956297 -0.40018728 -0.51817524 -0.33731815 -0.5639496 -0.038356833
-0.19523317 3.3232245e-05 0.31285456 0.24445799 0.35468826 0.30261427 0.10086879 0.30164665
0.32574555 -0.015038993 -0.03283518 0.5060244 0.23730636 0.23321165 0.74303913 0.5579219
0.6150293 -0.21317239 0.120863445 0.070989124 0.10953242 0.2533088 -0.14452776 -0.21923302
0.0066059963 -0.17514455 0.07192867 0.1448771 -0.6880769 -0.058735535 0.258621 -0.24374448
-0.16406688 0.2687418 0.3334892 0.7447962 0.31225324 -0.10035369 0.50438404 0.16676709
-0.27804568 0.46069413 0.23167552 -0.25127602 -0.31041422 0.10392647 -0.1956113 -0.4372
0.13405639 0.033804733 -0.12548421 0.26523954 0.09105226 -0.33551186 -0.075460404 0.14794543
-0.44611233 -0.49917316 -0.12090425 -0.46224853 -0.46971777 -0.18915024 -0.07061638 0.14458324
0.19010372 0.09233777 0.39145082 0.19173467 -0.70565146 -0.50594705 -0.43732336 0.1684242
0.26316822 0.084945515 -0.027289357 0.112753294 0.06902707 -0.22507608 0.0054471726 -0.0946044
0.06298107 0.34472042 0.15943079 -0.008362185 0.4684813 0.13313633 0.13980941 0.4931774
0.42561144 -0.31467247 0.1364054 0.006201506 -0.18317218 0.11106244 -0.4534147 -0.10190845
0.112455204 -0.38071945 0.4503124 0.36751127 0.5240022 0.36826447 0.3413008 0.111000784
0.044826712 0.0029350207 0.031869993 -0.03690783 -0.022143984 0.13125302 -0.26885113 -0.08735925
-0.08485647 -0.29958087 0.13983594 0.08772738 -0.46232042 0.04858369 -0.12256656 -0.7405846

layer3.0.bias f4 [64]
00000000: d96d f341 8bea f641 1214 d441 0e24 c741
00000010: beca e841 b42d cf41 21e8 f841 f83e f241
00000020: 6591 b941 6c58 f241 8a2e f241 0c9c e541
00000030: 8164 bc41 ab01 d741 4a58 ea41 6e19 c941
00000040: 7786 e641 06e9 db41 cf31 d641 cc0c 0342
00000050: 706c f141 88c5 fb41 e980 cc41 aa37 ca41
00000060: 076c e741 85da fd41 29e0 e741 9ff3 c441
00000070: 426f cb41 0df0 d741 6ea4 fd41 5903 f641
00000080: 6278 ec41 4eba ef41 994b ee41 d6dc c941
00000090: 4dbc e841 5f5a e141 6087 f341 0034 fb41
000000a0: f2cb df41 619f ea41 d3c4 f641 0706 d941
000000b0: 8dce e041 0d19 f941 49c9 ef41 f405 c941
000000c0: 447e e541 1f2d e941 906c 0342 c095 d041
000000d0: d560 e241 b109 e741 4253 e541 f4dc ef41
000000e0: 9097 dc41 8f9c ea41 f7b5 c941 0613 cd41
000000f0: fcd5 e141 e65f d841 758e e641 966f db41
30.428637 30.864523 26.5098 24.892605 29.098995 25.897316 31.113344 30.280746
23.195993 30.293175 30.272724 28.701195 23.549074 26.875814 29.29311 25.137417
28.815657 27.488781 26.77432 32.762497 30.177948 31.47145 25.562944 25.27718
28.927748 31.731699 28.984453 24.618956 25.429325 26.992212 31.705288 30.751635
29.55878 29.96597 29.786913 25.23283 29.091944 28.169127 30.441101 31.40039
27.974583 29.327822 30.846106 27.127943 28.100855 31.137232 29.973284 25.127907
28.686653 29.147032 32.856018 26.07312 28.297281 28.879732 28.665653 29.982887
27.574005 29.326445 25.21385 25.634289 28.229485 27.046825 28.81956 27.429485

layer3.1.weight f4 [64]
00000000: de91 933f 6642 9d3f d449 753f e835 7c3f
00000010: 8f2b 853f 8bfa 7c3f 6ed3 8d3f 9630 8a3f
00000020: 6005 473f 6882 963f 51d8 8b3f 04b2 823f
00000030: 623b 523f e660 673f 71ad 813f 4964 863f
00000040: f6f1 713f bb88 7f3f 000d 733f b3f5 a13f
00000050: 52a1 873f 7ca6 873f df73 9b3f 1dda 543f
00000060: 0011 8a3f 1125 9a3f 1dfa 723f ccd8 773f
00000070: c388 4b3f 6bd7 7b3f 9a2f a43f 74c3 ab3f
00000080: 2d49 853f ae71 953f dec8 9a3f 51a5 673f
00000090: 85ef 983f 34c7 823f 6e9e 843f af0d 9e3f
000000a0: 578d 8e3f 6363 863f eb4d 9f3f 8148 903f
000000b0: 1600 813f 19b9 a83f 23f9 843f 982c 5c3f
000000c0: 7208 8f3f a8f8 6d3f 51cb 983f 45d5 603f
000000d0: 4a8d 7b3f 0bab 803f f5ab 643f 90a3 bd3f
000000e0: c335 7e3f b6e9 883f 7957 493f f287 823f
000000f0: 7de2 803f 20d3 613f 326f 973f 27e2 733f
1.152889 1.2285888 0.9581578 0.98519754 1.0403918 0.988198 1.1080148 1.0796077
0.77742577 1.1758547 1.092539 1.0210576 0.8212186 0.9038223 1.0131055 1.0499355
0.9450983 0.9981801 0.9494171 1.2653106 1.0596106 1.0597682 1.2144736 0.83145314
1.0786438 1.2042562 0.9491289 0.9681518 0.79505557 0.98375577 1.2827027 1.3419023
1.0412956 1.1675317 1.209255 0.9048663 1.1948096 1.0217042 1.0360849 1.2347926
1.1136883 1.049908 1.2445654 1.1272126 1.0078151 1.3181487 1.038853 0.86005545
1.1174452 0.92957544 1.1937047 0.87825423 0.98262465 1.0052198 0.89324886 1.481554
0.99300784 1.0696323 0.786491 1.0197737 1.0069119 0.88212776 1.1830809 0.95266956

layer3.1.bias f4 [64]
00000000: 6bb8 0fbf d641 84bf b6af 3ebe 5f42 e33c
00000010: 2247 aebe 4eae 54be 3e25 aabf ef76 28bf
00000020: ff31 373e e9bb 04bf b41e 50bf 18cf 68be
00000030: 75de b6bd 651b 8dbe 6033 48bf 8a98 21be
00000040: 2ca9 9dbe ba02 80be ce5a f5be ef35 55bf
00000050: a7bf 6dbf b249 63bf 95e0 49bc b8a2 0dbe
00000060: c50c 0bbe 2de5 f1be ed07 64bf fbec b5bd
00000070: b4db a2be a5c1 a0bd 6fff abbf 4c57 9bbf
00000080: 7034 b1be e8b7 04bf 83b6 25bf 327f b9be
00000090: e285 8ebd 23d6 4c3d d4df 48bf c7aa 8abf
000000a0: aa30 02bf 2b6d 03bf 66cf 84bf 4152 643e
000000b0: 829a aabe c743 6ebf 001c 00bf 854e 4ebe
000000c0: 2bd6 09bf d8d4 9abf 4251 5fbf 1482 163e
000000d0: c3bf 55bf 98f7 dabe da54 a2be eea6 22bf
000000e0: bc35 32bf c96f 26bf b6dd ccbb 456b dc3d
000000f0: 1c77 53bf abbd 1bbe 8c82 00bf 61fb 853d
-0.56140774 -1.0332592 -0.18621716 0.02774161 -0.34038645 -0.20769617 -1.3292615 -0.6580648
0.17890166 -0.5184923 -0.8129685 -0.2273525 -0.08929149 -0.27559963 -0.7820339 -0.15780845
-0.3079313 -0.2500208 -0.4792084 -0.8328542 -0.92870563 -0.88784325 -0.012321611 -0.13831604
-0.1357909 -0.4724516 -0.89074594 -0.08883091 -0.31808245 -0.07849435 -1.3437327 -1.2136016
-0.3461032 -0.5184312 -0.64731616 -0.36229855 -0.0695913 0.050008904 -0.78466535 -1.0833367
-0.50855505 -0.5133845 -1.0375793 0.22297002 -0.33321005 -0.9307217 -0.50042725 -0.2014714
-0.5384242 -1.2096205 -0.87233365 0.14698058 -0.8349573 -0.42767024 -0.31705362 -0.63535964
-0.6961324 -0.6501432 -0.006252016 0.107626475 -0.8260362 -0.15209071 -0.501992 0.06542087

layer3.1.running_mean f4 [64]
00000000: f4b2 b841 8dd0 0442 d376 da41 f672 7141
00000010: ac15 b741 7f86 3041 bd32 c341 db59 9941
00000020: b759 3240 1e94 8a41 2dca ed41 da41 b841
00000030: 94d2 9941 24cd 8241 eede 0242 83f3 6c41
00000040: 668b a741 5dee d341 9763 d341 72f3 ba41
00000050: 732f d541 aa54 cb41 2c0a f940 8d1f bf41
00000060: 675f 8241 3317 be41 1a75 1042 099f 6c41
00000070: a907 1342 1b15 4741 ca0e cd41 c7fe f641
00000080: 642e 8641 ba8a 8f41 ad0d 9941 195c a841
00000090: 9a12 0742 ba9a 9241 7cc8 c541 3e8d 0042
000000a0: 58b7 ec41 72ba b241 979c ea41 bd24 7041
000000b0: 945f 4841 5599 8441 b384 8a41 f396 b841
000000c0: e8f5 aa41 8f8b ec41 cea4 be41 6569 c541
000000d0: e953 b241 74c1 b141 dbdd b341 247a 2142
000000e0: 7ac9 ee41 f23e b141 8fb5 8d41 cf31 8f41
000000f0: 405a 2e42 b03d 8941 0f54 a941 22da af41
23.08738 33.203663 27.30802 15.090567 22.885582 11.032836 24.399775 19.168875
2.7867258 17.322323 29.723719 23.032154 19.227821 16.350166 32.717705 14.809451
20.943066 26.491388 26.423628 23.36887 26.648169 25.41634 7.7824917 23.890406
16.296583 23.761328 36.114357 14.788827 36.75748 12.442653 25.632221 30.874403
16.772652 17.942738 19.131678 21.04497 33.768166 18.32555 24.722893 32.13793
29.589523 22.341038 29.32646 15.008969 12.5233345 16.57487 17.314795 23.073706
21.370071 29.568144 23.830471 24.676462 22.290972 22.21946 22.483328 40.369278
29.848377 22.155735 17.713652 17.89932 43.588135 17.15512 21.166044 21.98151

layer3.1.running_var f4 [64]
00000000: 219e 9a42 1e02 8742 361f ab42 7b4a fe42
00000010: f8f5 da42 ddc0 d942 834a 3542 4403 a642
00000020: 58a8 ee42 b09a bd42 14c7 6e42 0ea9 da42
00000030: 099b 0143 4aaf 8c42 ad07 8542 668d f442
00000040: a408 9f42 e04c 9442 6a00 b542 350d 8342
00000050: 368b 7642 a064 5042 320b 4343 4287 f842
00000060: ba45 e842 397b b142 1ab6 9342 8a0f 2243
00000070: 7e8a dc42 f280 c942 648b 8642 b40f d342
00000080: 86e5 8b42 4bc4 f442 0b54 c042 27fa af42
00000090: a254 0543 cce9 ca42 6a01 9442 d107 8b42
000000a0: e538 b742 38e8 a042 1427 a442 1da7 2943
000000b0: 03f2 a142 df99 9b42 e2c0 7542 be18 ea42
000000c0: d6a2 a742 76ac 4a42 e3c9 8742 1359 d042
000000d0: ce10 8c42 fb19 8942 08fd 8142 a4ce 2343
000000e0: b36a b142 d16b af42 a3e8 db42 5b48 fd42
000000f0: f842 a842 14e9 c642 6d98 f542 8dfc d042
77.308846 67.504135 85.56096 127.14547 109.48041 108.876686 45.322765 83.00638
119.3288 94.802124 59.694412 109.330185 129.6056 70.34236 66.51499 122.27617
79.51688 74.15015 90.50081 65.525795 61.63595 52.098267 195.04373 124.264175
116.136185 88.74067 73.85567 162.0607 110.27049 100.75185 67.27225 105.53067
69.94829 122.383385 96.16415 87.98858 133.3306 101.456635 74.00276 69.51527
91.61112 80.45355 82.076324 169.65279 80.97268 77.80053 61.438362 117.048325
83.81804 50.66842 67.89431 104.17397 70.03282 68.55074 64.9942 163.80719
88.7084 87.71058 109.95437 126.64132 84.1308 99.45523 122.79771 104.49326

layer4.0.weight f4 [64, 64, 3, 3]
00000000: b787 80be 8a01 8ebd e350 a1be 5959 88be
00000010: 914b 463d 0d23 413d 5153 f5be 87aa a5be
00000020: dd89 8ebe da91 edbd eaea 4fbd 61a2 06be
00000030: af6b 25be 8b53 c9bd a2f6 83be 9daf e7be
00000040: 6d52 46be 97d6 c5be 1654 5c3e 41b2 133e
00000050: 5d3d 643e 7491 f6be ba50 fabe 3c5c a2be
00000060: ce0a 17bf d2b4 07bf a9c3 afbe 3885 e8be
00000070: 71a2 aebe 1ac8 bebe 2d9c 05bf 77cf 47be
00000080: d833 9abe 3018 53bf f8eb 19bf 7023 34bf
00000090: dcab 12be e18c babe 34f1 9abe b2d6 d6be
000000a0: 292a 11be 87b1 a0be 185f 62be 1a15 a5be
000000b0: ad11 dfbd d38d 23bf 1359 17bf 9102 f9be
000000c0: 2134 c8bd dbe8 39bd 7dcd 1cbe 8add b53c
000000d0: cb98 21bc 54d7 c23e de19 c0bd 2c8b b63d
000000e0: 7cc5 b33d 91f6 a93d 54c0 323d ed83 133e
000000f0: 4f14 58bc d760 89bd db54 c03d 001a 65be
00000100: f1d2 80be 885c eebe 368a abbe 8de1 05be
00000110: 8f92 adbe 8796 52bf 6a37 f8be b827 f0be
00000120: e217 41bf 4b48 1abf 4bae 0cbf 53f2 93be
00000130: bd5c 8dbe eee5 b5be af2d 62be a91b d0be
00000140: bee9 0dbf 820f a4be a67e 51be f0a7 92be
00000150: adfd ee3c a6b7 213e ab32 c53d 6541 13be
00000160: 64cf 1abd 132d 423d 16ee b33d 21ac b83d
00000170: 219e 583e 7d9e 26be 10ce 23be ae32 b1be
00000180: 9fb6 a83e d8e6 8f3c ca39 053b ae2b 1ebf
00000190: 4827 20bf 3bb6 47bf 7b47 1cbf 9948 4bbe
000001a0: 182f 8bbe 9c79 52bf c8f4 d2be 0a87 e8be
000001b0: 6441 c8bd 5965 173d 3850 03bd 56be 173e
000001c0: c0e3 4c3e f396 62bd 61e6 eb3e 9c19 a73e
000001d0: f394 a93e f1b6 e73d cd86 223d f529 00be
000001e0: e828 913e 2017 583e cb04 2f3d 9350 d43e
000001f0: cd0d 223d caaf 2f3e 9a85 e0be 3a16 e7be
00000200: 6014 0dbe b01a cdbe fe9c 27be ae0a 0d3e
00000210: fab7 5ebf 4968 f5be 7f3e f6be f28a 7ebe
00000220: a61f c1bd bbad f7bd a8bd 943e 4a16 bd3d
00000230: 65c9 503d 2ca2 33bd cf1f 63be 5d85 edbb
00000240: ef87 f0bd 7e18 8bbe 09d6 86bd 25fb a93e
00000250: 7791 2d3e 9ef6 e83e 5b80 67be bbd8 25be
00000260: 52a5 3e3b d07d 66be 7f5f 48be 221e 86be
00000270: efd4 303e 1aef cbbd b352 c7bd 3024 9ebd
00000280: c4da aebe aada 05be e9ff 0ebf 51a3 cbbe
00000290: 8b17 fcbe cd01 dabd 4529 a33d 8ace 703c
000002a0: 076b 42be 59e9 30be 6af3 9a39 f261 49bf
000002b0: 9a83 65bf d095 21bf de9b c8be 0f71 82be
000002c0: 0c10 ffbd 6bde 12bf 26f1 babe 7ccc bfbd
000002d0: 3dd1 1fbe 6447 0abb 7d4d af3b 4d48 75be
000002e0: 0823 143a 8aca b5bd 4160 a1bd 8e1c 8fbd
000002f0: b123 43be 7d45 753e 76fe c73e 1f9e ce3e
00000300: 9b7b 563e f2f1 6e3e f287 d23e db95 e6bc
00000310: 3719 a83e 5407 313e b54c 5f3f 60bd 0e3f
00000320: 7a9b 3c3f 884e fa3e e51a 953e ac6e bc3e
00000330: f8de 403e ac9f 32be 6c7e bebd a167 ce3e
00000340: 16da 0b3f 44ff 3a3f eae0 f63e 9a85 153f
00000350: b02c 1a3f e9b4 0cbe 6095 94bc 98b0 e73c
00000360: d3d9 06bf 54f1 0dbf b486 0cbf 98e4 a4bd
00000370: 216e 40bc 4238 8dbc 87a0 e8be cc9c e5be
00000380: b190 a2be f5c0 903d 9ccf 96bd e9a5 70be
00000390: 11bc ae3e f247 893e 2882 cd3d 8d76 b63e
000003a0: e3a2 8d3e b410 953e e4ee 39bc 8372 983d
000003b0: 5f87 363d a28a fb3e e820 993e 2f16 ca3e
000003c0: 9623 d93e 582c 723d 7478 013f d6ff 40be
000003d0: b0b2 48bd 20b6 193e 32dd 2dbe 0e46 49bd
000003e0: c9a6 923d 4d04 03bf 01e5 66be e6c2 d5bd
000003f0: 9f1e afbd 277e 933e 5928 cb3c cbca 133e
-0.25103542 -0.06933887 -0.31507024 -0.26630667 0.04841191 0.047152568 -0.47915128 -0.32356665
-0.27839556 -0.116000846 -0.05076114 -0.1314788 -0.1615436 -0.09830388 -0.25774103 -0.4525117
-0.1936738 -0.38640282 0.21516451 0.14423467 0.22289033 -0.48157847 -0.48889714 -0.31710994
-0.5900086 -0.53010285 -0.34328964 -0.45414138 -0.34108308 -0.3726204 -0.5219143 -0.19512735
-0.3011768 -0.8245878 -0.60125685 -0.70366573 -0.14323372 -0.36435607 -0.30262148 -0.41960675
-0.14176239 -0.31385443 -0.22106588 -0.32242662 -0.10892043 -0.6388828 -0.5912029 -0.4863477
-0.09775568 -0.045388084 -0.15312763 0.022200365 -0.009863089 0.38054907 -0.09379934 0.08913264
0.087779015 0.08298982 0.04364045 0.14405794 -0.013188436 -0.06707924 0.09391185 -0.223732
-0.25160936 -0.4655497 -0.33503884 -0.13074322 -0.33900878 -0.82260936 -0.48479778 -0.46905303
-0.7542707 -0.6026656 -0.5495345 -0.28895816 -0.27609816 -0.35526985 -0.2208774 -0.40646103
-0.5543479 -0.32043082 -0.20458469 -0.2864375 0.029173696 0.15792713 0.09628805 -0.14380415
-0.03779544 0.047406267 0.08785646 0.09017206 0.21154071 -0.16271396 -0.15996575 -0.34608978
0.3295183 0.01756613 0.0020328634 -0.617854 -0.6255994 -0.78012437 -0.6104657 -0.19851913
-0.27184367 -0.8221681 -0.41202378 -0.45415527 -0.09778097 0.036961887 -0.032058924 0.14818701
0.20008755 -0.055319738 0.46074203 0.32636726 0.33121452 0.1131419 0.039679337 -0.12516005
0.28351521 0.21102571 0.04272918 0.41467723 0.039563943 0.17156902 -0.4385193 -0.45134145
-0.13777304 -0.40059423 -0.16368482 0.13773605 -0.86999476 -0.47931126 -0.48094556 -0.24857691
-0.094298646 -0.12093683 0.29050946 0.09232767 0.050973315 -0.04385583 -0.22180103 -0.007248564
-0.11744677 -0.27167124 -0.06583793 0.3319942 0.16950022 0.45500654 -0.22607557 -0.16195957
0.0029090238 -0.22508931 -0.19567679 -0.26194865 0.17268728 -0.099577144 -0.097325705 -0.07721746
-0.3415128 -0.13071695 -0.5585924 -0.39773038 -0.49236712 -0.10644875 0.07966856 0.01469768
-0.1898614 -0.17276515 0.00029554527 -0.7866508 -0.89653933 -0.6311922 -0.39181417 -0.25476882
-0.124542326 -0.5737063 -0.36512107 -0.09365174 -0.15607162 -0.002109968 0.0053498135 -0.23953362
0.0005650972 -0.08876522 -0.07879687 -0.06987868 -0.19056584 0.23952289 0.39061326 0.40355012
0.20945589 0.23334482 0.41119343 -0.028147629 0.32831737 0.17287952 0.8722642 0.55757713
0.7367474 0.4888804 0.2912208 0.36803186 0.18835056 -0.17443722 -0.09301457 0.40313438
0.5462965 0.73045754 0.4821847 0.58406985 0.6022444 -0.13740887 -0.018137634 0.028282449
-0.52676123 -0.5544636 -0.5489304 -0.08051413 -0.011745007 -0.01723874 -0.45434973 -0.4484619
-0.31751016 0.07068054 -0.07363817 -0.2350079 0.34127858 0.26812702 0.10034591 0.35637322
0.27663335 0.29114306 -0.01134846 0.074437164 0.044562694 0.49129206 0.29907918 0.3947005
0.42409962 0.05912432 0.5057442 -0.18847594 -0.048998535 0.15010881 -0.1697891 -0.049139075
0.07160718 -0.5117844 -0.22548296 -0.104375646 -0.085507624 0.28807184 0.024799513 0.14432828

layer4.0.bias f4 [64]
00000000: 4cdc cd41 3e45 e941 2a34 c241 5a81 c941
00000010: 6124 bc41 f235 ba41 830d a941 a5bd aa41
00000020: 8783 af41 c839 ab41 01f6 b741 63da ac41
00000030: c338 b741 c419 b441 93a7 c941 c679 a541
00000040: 974c bf41 aac2 ba41 1742 b941 b40c ae41
00000050: bb94 b141 cd77 a241 d8f3 b141 a4c9 af41
00000060: fd1d ba41 e54a b241 7e0c a341 ae7a b441
00000070: 8856 b741 b606 b841 e6f3 a941 a3d7 9d41
00000080: 58c4 b641 303d ad41 472d a941 c4c8 be41
00000090: 2abf b841 ae2d 9a41 5e46 ad41 3b74 ac41
000000a0: 1fd9 9e41 2c06 9541 24f4 b341 c854 c841
000000b0: 9c9a 9541 098f b741 a5f4 ae41 c3e1 a541
000000c0: 0d72 a841 0f7a bc41 038b ba41 4893 ba41
000000d0: 6964 b341 fa64 af41 f0cd b541 b48f b741
000000e0: 1250 ac41 f0bc ad41 89f0 ca41 feff ae41
000000f0: 6ac1 d241 62cd e541 6662 f241 3765 ce41
25.732567 29.15881 24.27547 25.18816 23.517763 23.27634 21.131598 21.3426
21.939222 21.403214 22.99512 21.606634 22.902716 22.51258 25.206823 20.68446
23.912397 23.34505 23.15727 21.756203 22.197622 20.308496 22.244064 21.973457
23.264643 22.28657 20.3811 22.559902 22.917252 23.003277 21.244091 19.730291
22.845871 21.654877 21.147108 23.84803 23.093342 19.272305 21.659359 21.556753
19.856016 18.628014 22.49421 25.041397 18.700493 22.944841 21.869455 20.735235
21.055689 23.559599 23.317877 23.321915 22.424028 21.924305 22.725555 22.945168
21.539097 21.717255 25.367449 21.874996 26.34444 28.725285 30.298046 25.799421

layer4.1.weight f4 [64]
00000000: 8119 933f aec7 ad3f 69fb 7f3f 2d6c 753f
00000010: 5e88 643f 312d 4b3f 92b0 443f 2c35 383f
00000020: 3d00 3f3f 695e 3d3f 63c3 3c3f fb32 323f
00000030: b6c9 513f f191 2c3f f87d 803f 1fba 1a3f
00000040: 8971 673f 4506 513f f711 533f ecad 663f
00000050: fdf9 693f a83d 413f 882d 333f c3e9 593f
00000060: 755f 653f 5738 4a3f ff2f 303f c5c7 3d3f
00000070: a98e 573f 29bf 653f 0787 493f cceb 373f
00000080: 17fb 573f a3b8 333f fb10 473f e3e1 413f
00000090: 10a6 5a3f 9806 233f 1dc1 393f 2220 533f
000000a0: caaf 453f 46fe 0d3f 9a48 343f 2ec4 6d3f
000000b0: a6c9 193f cba8 513f 72ad 2f3f 2a19 373f
000000c0: 3ee6 253f a453 3f3f 6f5d 5c3f 9fba 473f
000000d0: 4bd7 533f 2762 3a3f 3ddd 4e3f 0616 4c3f
000000e0: 4e7a 353f 484d 323f e943 653f 1653 3f3f
000000f0: 6c7e 593f 4d98 883f 5373 cb3f e281 a23f
1.1492158 1.3576562 0.99992996 0.9586819 0.8927058 0.7936583 0.76831925 0.71956134
0.7460974 0.73972183 0.73735636 0.6960904 0.8194841 0.6741019 1.0038443 0.6044025
0.90407616 0.8165019 0.8244929 0.90109134 0.91397077 0.75484705 0.6999135 0.8512232
0.8959878 0.7899222 0.68823236 0.7413295 0.8420206 0.8974481 0.7872166 0.7184417
0.8436751 0.7020361 0.77760285 0.757353 0.8540964 0.63681936 0.7256029 0.82470906
0.7722136 0.55466115 0.7042328 0.9287747 0.60073316 0.8189818 0.6862403 0.7152277
0.64804447 0.74737 0.8608007 0.78019136 0.82750386 0.7280602 0.8080633 0.79721105
0.7088975 0.6964917 0.8955675 0.74736154 0.8495853 1.0671479 1.5894569 1.2695887
