miniImagenet/SalNet_InterClass/miniImagenet_background_encoder_5way_1shot.pkl (torch_old, 458878 bytes, 24 tensors)

layer1.0.weight f4 [64, 3, 3, 3]
00000000: a3c5 b5be 0936 81be d773 0a3c b4e3 0dbe
00000010: 3356 953e d071 e33e 4338 373d ed65 873e
00000020: d443 e83d a673 25bf c286 e6be 7156 39bd
00000030: 4604 8cbe 9cc0 363e 9bfc 7a3e 99b1 c43d
00000040: fa98 bf3e a8c3 df3d 138a 11bf af4a c8be
00000050: 6e41 1f3c b814 86be e89a 283e c0a3 b13e
00000060: 35d5 733e 118c 053f b0b7 223e b8ff e73f
00000070: dfb4 ce3f 0a8c 863f c8a5 e73f e219 b43f
00000080: b12a b73f 7196 f33f 4d0f c83f 99a3 c93f
00000090: 7015 313f d33c 3b3f 1c1c 7abd ab1e 863f
000000a0: 125c 613f 5c58 ec3e 5e86 883f ccdb a23f
000000b0: e444 3a3f d668 23be 71f6 7c3d 1b72 aebe
000000c0: cc46 8d3d b097 b93d c451 06be cf05 813b
000000d0: 10d8 713e bba0 0bbc 6c26 253e 2305 a63e
000000e0: 401a cfbe d0f4 db3d bbdc db3e 025e c9be
000000f0: 8efc 79bd baa0 dc3e 1374 fcbe 0b4c 63bd
00000100: 8d46 883e 4435 b0be ca9c df3b 6bfb b03e
00000110: a5f0 f6be c176 a6bd b612 ec3e 8a71 bfbe
00000120: cdb5 bb3d a376 783e 8e23 7dbe c6c1 1d3d
00000130: 2689 b33e 97ea c5be 8482 0a3d 9722 913e
00000140: 2df0 9fbe dc3f 0cbe a7fb 353e 0e85 b83e
00000150: 20b6 02bf 8b94 dbbe 66cb 3dbe 0d11 72bd
00000160: 13a2 523e 1f5d ca3e c3b2 3cbd f9ee b53e
00000170: 01c7 063f a87c 8abe a8c9 e4be c85d d2bd
00000180: 774f 7a3d f254 643e 4f21 943e 0bd2 cb3d
00000190: 95d4 773e 501c d83e 9c03 91be fbaa ecbe
000001a0: bf24 a0be 7b03 7cbd 2ba1 d03d cad6 ea3d
000001b0: f435 273e 1011 463e 95a7 5c3e a4ab b43c
000001c0: f791 083c c849 fd3d f61a d6bd 8d3d 44bd
000001d0: 1cf6 02be 4b31 9e3e 1e4a 8a3e fcf0 af3e
000001e0: c48f 5dbd 5022 953d 017b d93c 9c85 dabd
000001f0: 0bb2 8abd 83f0 babd 9143 a33d f4dd 69bd
00000200: efca 533c 0035 5fbf e0cc 78bf e538 f5be
00000210: 9bb2 3bbf c563 5fbf fb30 48bf e9a0 593f
00000220: bcdf 813f 8c86 023f 4e70 813f 49a9 6e3f
00000230: 989f 5c3f 9993 7b3f 93ac 813f 9f6a 193f
00000240: 8187 853d 25e2 a63e 21eb 413d 587b a53e
00000250: 5b4a b13e 4e9c 073e 150e 473e 23bd b93e
00000260: 679e 223e bb53 ecbc 4cfd c5bc a8c6 24be
00000270: 71a9 ff3c bb7c c43d e023 843b 34b7 21bd
00000280: 765c ba3c c0b0 b0bc 30e7 e4be 807d 3ebe
00000290: 00fb 39be a1d1 67be c650 25be d601 5cbe
000002a0: a70d 243d b47e d4be a8a5 c3be 04c3 763e
000002b0: 8a27 dc3e fa96 073f 080a b03e 3972 b83e
000002c0: 8c54 8d3e f904 143f b4c2 8f3e 15f9 413e
000002d0: c389 6bbe 3e9a 4b3d 163b c53d 0486 733d
000002e0: c17b 3cbe 9506 2cbe 4c01 df3d ad19 3dbe
000002f0: db58 d4be bab0 aa3e 01dc 083f 581a d73e
00000300: 16f2 61be 1c09 02bf 8a09 92be 712b 1abe
00000310: 037f a9bd 6d4c 6bbe 26e7 c33e 1a34 173f
00000320: e6dc b43e fc61 6ebe a8b1 bfbe b29b dfbe
00000330: 7c52 f2bd 4d9d 33be d0ea 20be 5ffd 513e
00000340: 2bbb ad3e 4bf1 8e3e c5e5 2fbe 201b 89be
00000350: 99aa 41be 98d1 523d 0e78 bcbc ae23 183d
00000360: ccc3 343d b463 db3c 8f2d 8abc 59c8 c53e
00000370: cb47 213e 5fee 1ebf c068 d13e 27ab b4bd
00000380: 8432 d7be 4c07 263e 60d5 383d 08d3 1cbe
00000390: 2f6c d33e 391d 363e 69c4 01bf ef5a f83e
000003a0: 1e8f 08be ee2f d8be 9bb0 973d 6b54 f83d
000003b0: 3ddd e2bd 0add c23e 8577 033e dd97 f0be
000003c0: 7b6b b43e 6152 adbc 6459 c5be e426 943e
000003d0: 3abc a53e 66d5 ac3e 776b ab3d afb8 d43d
000003e0: 5833 873d ee16 dabe 59d7 12bf 55ed 0abf
000003f0: 1ec7 893e a431 983e df28 863e b6ee 3e3c
-0.35502347 -0.25236538 0.00845047 -0.13856393 0.29167327 0.4442277 0.04473139 0.2644495
0.11341062 -0.6462959 -0.45024687 -0.045248453 -0.2734701 0.17846912 0.24510424 0.096041866
0.374214 0.1092599 -0.5685131 -0.3911948 0.0097201895 -0.26187682 0.16465342 0.34695244
0.23811801 0.5216685 0.15890384 1.8124914 1.6148947 1.0511487 1.8097467 1.4070399
1.4309903 1.9030286 1.562967 1.5753051 0.69173336 0.73139685 -0.061061963 1.0478109
0.88031113 0.46161163 1.0666006 1.2723327 0.7276137 -0.1595796 0.061758462 -0.3407143
0.06898269 0.09062135 -0.13117129 0.00393746 0.23617578 -0.008522208 0.16127938 0.32425794
-0.40449715 0.10740054 0.4294184 -0.39329535 -0.06103187 0.43091375 -0.49307308 -0.055492442
0.26616326 -0.34415638 0.0068241106 0.34566817 -0.48230472 -0.08128119 0.46108025 -0.3739131
0.09165535 0.24264006 -0.24720594 0.038514875 0.35065573 -0.3865554 0.033815876 0.28346702
-0.31237927 -0.13696235 0.17771779 0.36039013 -0.5105915 -0.42886767 -0.18534622 -0.059098292
0.20569639 0.3952417 -0.046068918 0.35533884 0.52647406 -0.2704823 -0.44685102 -0.102717936
0.06111094 0.22298029 0.28931662 0.09952172 0.24202187 0.422091 -0.28323066 -0.46224198
-0.31278035 -0.061526757 0.1018699 0.11466749 0.16329175 0.19342446 0.21548302 0.0220545
0.008335582 0.12367588 -0.10454361 -0.047910262 -0.12789196 0.30896983 0.27009672 0.34363544
-0.054092184 0.07281935 0.02654791 -0.10670015 -0.0677224 -0.09127905 0.07971872 -0.057096437
0.012926801 -0.87190247 -0.97187614 -0.4789497 -0.73319405 -0.8726161 -0.7819974 0.85011154
1.0146403 0.5098655 1.0112398 0.9322706 0.8618102 0.9827209 1.013079 0.59928316
0.06519986 0.3259441 0.047343377 0.32320666 0.3462704 0.1324322 0.19438966 0.36277112
0.15880738 -0.02884852 -0.024168633 -0.16091406 0.031208726 0.09594103 0.004032597 -0.039481357
0.022749167 -0.021568656 -0.44707632 -0.18602562 -0.18162155 -0.22638561 -0.16144094 -0.21485075
0.040052082 -0.41502917 -0.38212323 0.2409783 0.42998916 0.52964747 0.34382653 0.36024645
0.27603567 0.5782009 0.28078234 0.18942674 -0.2300177 0.049707644 0.096304104 0.05945398
-0.18406583 -0.16799386 0.10888919 -0.18466826 -0.4147404 0.33337957 0.534607 0.42012286
-0.22065005 -0.5079515 -0.28522903 -0.15055634 -0.08276179 -0.22978373 0.3826229 0.59063876
0.35324782 -0.23279566 -0.37440228 -0.43673474 -0.11832139 -0.17540474 -0.15714574 0.2050681
0.3393186 0.27918467 -0.17177494 -0.26778507 -0.18912734 0.051469415 -0.023006465 0.0371434
0.04413204 0.02678094 -0.016867427 0.38629416 0.15750043 -0.62082475 0.4090023 -0.08821707
-0.42030728 0.16213721 0.045125365 -0.15314877 0.41293475 0.17784585 -0.50690323 0.48506877
-0.13335845 -0.42224067 0.07406732 0.121254764 -0.11077354 0.38059264 0.12838562 -0.46990862
0.3523825 -0.021157445 -0.38544762 0.2893592 0.32370168 0.3375656 0.08370107 0.10386788
0.0660159 -0.4259562 -0.57359844 -0.5426839 0.26909727 0.29725373 0.26203057 0.011653593

layer1.0.bias f4 [64]
00000000: d80a 89c2 d4bb 16c2 ebaa 8ac2 d7a1 83c2
00000010: 0e1b 6fc2 509c 4ec1 2ba3 83c2 308a 86c2
00000020: 0f55 88c2 a6d6 81c2 a89e 81c2 692b 85c2
00000030: 90fd 80c2 fd66 7bc2 8243 d8c0 189a 6dc2
00000040: 0abb 88c2 825e 6fc2 666b 78c2 f0b8 7ec2
00000050: 4d74 25c2 cd81 87c2 43ab 80c2 f7bd 71c2
00000060: b109 7ac2 8468 7ac2 0682 88c2 0a2c 86c2
00000070: bc21 89c2 49ab 80c2 63a9 84c2 9dae 89c2
00000080: 1f83 87c2 8494 4ac2 d693 89c2 d770 96c1
00000090: b32e 85c2 462b 83c2 0fee 2ec1 6c33 89c2
000000a0: b98d 80c2 70c4 75c2 63cf 80c2 d679 8ac2
000000b0: 91c8 77c2 303f 89c2 96fa 8ac2 f1e9 70c2
000000c0: 5272 88c2 270c 86c2 ee6d 5dc2 86cc 87c2
000000d0: 7f80 76c2 a8df 89c2 0131 82c2 3937 f6c1
000000e0: 94dd 84c2 fd80 88c2 b314 85c2 4ecc 74c2
000000f0: 8925 69c2 1cd3 80c2 6285 8bc2 aa7e cac1
-68.52118 -37.683426 -69.333824 -65.81609 -59.77642 -12.913162 -65.81869 -67.2699
-68.16613 -64.919235 -64.809875 -66.584785 -64.49524 -62.850574 -6.7582407 -59.400482
-68.36531 -59.842293 -62.10488 -63.680603 -41.363575 -67.75352 -64.334496 -60.435513
-62.509464 -62.602066 -68.25395 -67.08601 -68.56589 -64.33454 -66.33083 -68.84104
-67.756096 -50.645035 -68.78874 -18.805098 -66.59121 -65.58452 -10.93312 -68.60043
-64.2768 -61.441833 -64.40505 -69.23796 -61.945866 -68.62341 -69.489426 -60.22846
-68.22328 -67.023735 -55.357353 -67.89946 -61.625484 -68.93683 -65.09571 -30.776964
-66.43277 -68.25193 -66.54043 -61.199516 -58.286655 -64.41232 -69.76051 -25.311848

layer1.1.weight f4 [64]
00000000: 8d0f b73f a336 f83e 15a2 d03f 868f 243f
00000010: 0c11 293f 5c76 433e 253e 083f 7422 343f
00000020: 0f9a a43f 7489 d23e c6a8 163f 814e 053f
00000030: 25c4 343f dd45 3c3e 4e2d 6a3e 049f 223f
00000040: ebd7 b73f d09a be3e 1c45 243f 0f1a fa3e
00000050: 0f6c e33e 85bf 8c3f 65f6 f73e b4c2 f63e
00000060: 392c 193f ae7c da3e 76f9 c63f 4f7c 333f
00000070: cbb7 cb3f fb80 4d3f 4166 1e3f 69f6 ae3f
00000080: 5abb 7a3f 5803 283f 50af 8b3f e1f4 4f3e
00000090: 62dd 233f 3c15 f53e a096 743e 975b d33f
000000a0: 785d 4d3f bdad 1c3f 66b3 d83e c164 2c40
000000b0: cccf 3e3f 9e65 e73f 6631 0440 a8a3 243f
000000c0: 785a bd3f 5770 573f d3d7 db3e b859 903f
000000d0: 2243 a73e 5e70 cc3f 7288 1f3f 1e47 f33e
000000e0: 1aa2 2f3f cba5 983f 8a7a 3f3f 3ab0 143f
000000f0: 79a8 163f cbc4 303f 27c2 1e40 d782 193e
1.4301621 0.48479185 1.6299464 0.642815 0.66041636 0.1908812 0.53219825 0.7036507
1.2859515 0.41120493 0.5885128 0.5207291 0.7061179 0.18386026 0.22868845 0.6352389
1.4362768 0.37227488 0.6416795 0.48848006 0.4441838 1.0995947 0.48430172 0.48195422
0.59833103 0.42673248 1.554488 0.70111555 1.5915464 0.80274934 0.6187478 1.3668948
0.97942126 0.656301 1.0912876 0.20308258 0.6400968 0.47867763 0.23885584 1.6512326
0.80220747 0.61202604 0.4232437 2.6936495 0.7453582 1.8077886 2.065515 0.6431222
1.4793234 0.8415579 0.42938098 1.127738 0.32668406 1.5971792 0.62317574 0.47515196
0.6860672 1.1925596 0.74796355 0.580814 0.5885082 0.6905028 2.4806 0.14991318

layer1.1.bias f4 [64]
00000000: 1a39 2f3f 79f5 1cbf b11e 4b3e 7c7c 49bf
00000010: 586e c4be d13a 36bf 201b 99be 10ba 6a3e
00000020: 4acc 293f 42f5 633d bdb9 f4be 1241 bebd
00000030: 9293 c6be 866a ed3c 769e 57bf e95b 0abf
00000040: 7c3b 3d3f b8c1 e53d b49b 25bf ca85 843e
00000050: 1ca2 0fbf 9acd 0b3f 1ae8 34bf 3658 01bf
00000060: 6812 aabe 413e 17bf 4e74 863f 8d48 7f3e
00000070: 16bb cc3e a65c 4ebf 0265 20bf f322 7ebd
00000080: 47fc 1c3f 8edb a1be 77d2 71be f55e 40bf
00000090: 39f9 723e a316 b53e fb16 56bf 82ef 5a3e
000000a0: 1950 dabe 0a83 5ebf 99d3 5f3f eb51 aa3f
000000b0: d58f 49be 5d19 743f 8caa 993f 7601 fbbe
000000c0: dbe4 573f 5ce3 023f e2dd 8fbe 0bc5 81bf
000000d0: ba41 afbe 4267 bfbd 37e6 cebe f1fd 19bf
000000e0: f23c 803d ecfe 87be e224 babe f15f 2fbf
000000f0: 2e3c 33bf 0828 d33d 0afa 913f f2cb 1abf
0.68446505 -0.6131206 0.19835927 -0.78705573 -0.38365436 -0.71183497 -0.29903507 0.2292254
0.66327345 0.055653818 -0.47797957 -0.09289755 -0.38784462 0.028981458 -0.8422617 -0.54046494
0.7391889 0.112185895 -0.6469071 0.25883323 -0.56106734 0.546106 -0.7066666 -0.50525224
-0.33217168 -0.59079367 1.0504243 0.2493002 0.39986485 -0.8061012 -0.62654126 -0.06204505
0.61322445 -0.3161282 -0.23615442 -0.7514489 0.23727883 0.35368833 -0.83628815 0.21380427
-0.42639235 -0.869187 0.8743225 1.3306249 -0.19683774 0.953512 1.2005172 -0.49024552
0.8433358 0.5112817 -0.2809897 -1.0138258 -0.34229833 -0.09345867 -0.40410015 -0.6015311
0.062616244 -0.26561677 -0.36356264 -0.6850577 -0.700137 0.1031037 1.1404431 -0.60467446

layer1.1.running_mean f4 [64]
00000000: 6934 8bc2 db85 e2c2 9e5e 8ac2 1c3f 85c2
00000010: 5dbe 36c2 199a 40c2 9fe8 82c2 91da 85c2
00000020: 3d5b 88c2 cdb7 7ec2 8abd 83c2 8b66 87c2
00000030: d9d2 87c2 54b4 77c2 7033 ccc1 49af 82c2
00000040: 7367 88c2 a07d 84c2 63b2 5fc2 0fbe 80c2
00000050: 3b43 c7c2 7193 85c2 85c8 85c2 b0b9 8cc2
00000060: a6ab 8bc2 b5a0 81c2 044a 89c2 0416 88c2
00000070: 04bd 88c2 daa6 64c2 669a 86c2 b56d 8ac2
00000080: 5e38 87c2 9203 afc2 9794 8ac2 4397 93c2
00000090: f350 87c2 353f 85c2 c786 1dc2 0a1a 88c2
000000a0: 2cff 8ec2 8033 5fc2 e393 82c2 e367 89c2
000000b0: f00d 47c2 05c8 8ac2 c651 8cc2 825f 3bc2
000000c0: c83c 89c2 a018 87c2 d6e9 89c2 5e55 86c2
000000d0: 86b2 7cc2 b8be 89c2 bf44 87c2 bbda 08c3
000000e0: 4954 85c2 b9ab 87c2 8213 7ac2 66be 90c2
000000f0: 9938 3ec2 348b 89c2 70a1 8bc2 079c 2ac2
-69.60236 -113.26144 -69.1848 -66.62326 -45.6859 -48.150486 -65.45434 -66.92689
-68.1782 -63.679493 -65.87019 -67.70028 -67.91181 -61.9261 -25.525116 -65.342354
-68.20205 -66.24536 -55.924206 -64.37121 -99.63131 -66.78797 -66.89164 -70.36267
-69.83525 -64.81388 -68.64456 -68.043 -68.36917 -57.16294 -67.30156 -69.21427
-67.61009 -87.50697 -69.290215 -73.79543 -67.658104 -66.62345 -39.38162 -68.05086
-71.49838 -55.800293 -65.28884 -68.7029 -49.76361 -69.39066 -70.15971 -46.84327
-68.61871 -67.548096 -68.95671 -67.16673 -63.17434 -68.8725 -67.63427 -136.85442
-66.66462 -67.835396 -62.51905 -72.37187 -47.55527 -68.77188 -69.81531 -42.65237

layer1.1.running_var f4 [64]
00000000: 4bc3 c041 77d4 6245 e6aa 8b41 bc84 2041
00000010: 10ff 3443 6db0 4844 6d82 8241 e5e8 5141
00000020: 8ca1 ee41 fc2e b441 0a80 3b41 fb41 2141
00000030: e50d 1342 86e5 8e41 886b 6f43 3a8f 9c42
00000040: 7c7e da41 023a d242 d734 2242 0e1f 5042
00000050: df05 2d45 adbf f041 fe48 dc40 8348 b842
00000060: 5503 1e42 8b62 2641 8a9d cd41 9dfc 1a41
00000070: 0e9d 8141 917e 5e42 5a2a b840 aa2c 1b41
00000080: 321e 0442 91e6 8b44 1e01 e340 1b0d 0245
00000090: eb19 c741 5ee2 9341 59c5 1c44 7458 9741
000000a0: 44ab 6d42 bafc 1142 4098 4241 33b8 0a42
000000b0: 9653 e042 8e4d 9741 ae8d 9341 373a 0043
000000c0: 052d a541 0419 8b41 33e0 3c43 6a54 2441
000000d0: 5942 1a42 2ac6 8140 7add 3341 a292 0146
000000e0: 60d9 e941 2850 b240 fd2a a341 962f cd42
000000f0: ea8a 0543 95f6 8a42 830b 3741 a21e 3f43
24.095358 3629.279 17.458447 10.032406 180.99634 802.75665 16.313684 13.119359
29.82888 22.522942 11.71876 10.0786085 36.76357 17.862072 239.42004 78.27974
27.31176 105.1133 40.5516 52.030327 2768.367 30.093592 6.88391 92.141624
39.503254 10.399058 25.701923 9.686673 16.201687 55.6236 5.75517 9.698404
33.029488 1119.2052 7.0938864 2080.819 24.887655 18.48553 627.08356 18.91819
59.41725 36.496803 12.16217 34.679882 112.16325 18.912868 18.44418 128.2274
20.646982 17.387215 188.87578 10.270609 38.564793 4.05544 11.241571 8292.658
29.23114 5.5722847 20.39599 102.59294 133.54263 69.481606 11.4403105 191.11966

layer2.0.weight f4 [64, 64, 3, 3]
00000000: 3a82 5a3e 15c2 e5bc d439 103e 9c07 9cbd
00000010: 0e24 eabe 85d7 ccbd 6bc2 af3d 7a9d a3bd
00000020: 0926 9ebd bb72 b6ba 88a3 5d3d 4ab5 98bc
00000030: d867 063e fbf0 183e c4cc ee3c 37fd 293e
00000040: 206b bf3e 97d9 2f3d bf3d f3be b79b 42bf
00000050: bc1c b83e 64d3 54be 3ce2 85be 784a 853e
00000060: 966c 0a3e 30f9 083f a4a2 6f3e 1273 89be
00000070: 9aec b2be aac4 46be 50e4 00be 3a73 56be
00000080: 0dcd 2dbf 1f88 bebe 9c21 203e e067 89be
00000090: 3f19 adbd ec0a b73d 6860 013e fa85 4b3e
000000a0: 78fb 553d 2cca 9d3d ccb3 4e3e 5c81 6b3e
000000b0: 4db9 ec3e 8623 663d 67a9 643d 45e7 c3bc
000000c0: 4a8f 343d b2af d9bc 6c3a 6c3d 4dbb 513e
000000d0: b9a2 c83d b2d9 3f3d 3d6b 5abf 9e23 26bf
000000e0: 839b 0ebe 2c9e 2fbf 443d 2cbf 6619 053e
000000f0: f6e2 efbe e47b 61bd ceee 843e f628 583e
00000100: 7b3e 48bd bf70 54be 1b37 00bf 567c f3be
00000110: e238 34bd 2009 6fbe 643d b9bc b909 e63e
00000120: 67a1 61be e007 40bf e99c 963e 813e 05bd
00000130: 04dd 06bf 0cad 193f 1926 473e 4f87 d23e
00000140: bdda 013f 0e3e cb3d 1c63 d5bd 14ed 7cbe
00000150: 5c67 b1be 1896 89be f806 513e 25f1 16be
00000160: 86ea 0f3e fd01 e23e aef3 47be c3f0 66be
00000170: 80ea ecbd 7629 3ebd 9c74 48be aa81 85be
00000180: adce b83d 8847 64bd 7cb6 49bd 3610 d1be
00000190: 78d7 e8be 6e28 6e3e 17bd aa3d 2083 b9be
000001a0: dbc8 273e ca8f 8d3d 70ca a73e d567 73bd
000001b0: 2577 e4be d142 22bf b5ca cfbe bd38 a8be
000001c0: 94a0 23bf bf0e 48be 4ca1 b4bc dca7 28be
000001d0: d7ab 463e 8650 743e fe31 cfbe 8ec5 abbe
000001e0: d0e8 cdbc 955d 95be 8e56 36be 6ca0 a7bc
000001f0: 6e2d 033e 5b57 843e a973 513e e2a3 6d3e
00000200: f7f5 883d 915c 373e c013 3a3e e959 ef3d
00000210: 24e6 513e 9b96 753e aaad 423d f0de 2b3e
00000220: 3fd9 47be 7d42 91bd 3efa 28bb 208c 30bd
00000230: 61f1 1f3e b930 37bd 60e4 903e edfd a63e
00000240: 71b0 393e 5b81 acbe b3e2 c6be 14b3 0f3e
00000250: 71e8 babe 74b6 d3be d4a0 f23d fbe9 04be
00000260: 1333 883e 4193 21bf ac08 0ebf 9c9d b9be
00000270: a6c8 15bf 9f54 cdbe fa69 34be c088 abbe
00000280: 2e50 4fbe f17a 12be 5140 1ebf 2ea4 06bf
00000290: aa1e aa3d 8d16 14bf adcf 7bbe 8087 863e
000002a0: 7ace c9bb e300 c03e bbe0 2b3f a8b3 a8bd
000002b0: f635 38be 2a6f cd3d 2d8d c53d af3f 33be
000002c0: 6c91 2d3e 663a 48be 8dda 09bd b434 353d
000002d0: 247e a83d 5b8f 403d 1baf b33d 7e10 2d3e
000002e0: dc38 643e f2a1 193e 5e38 dc3e 869c ec3e
000002f0: 2e86 2b3e b534 a2be 2d4f 56bf f786 2d3e
00000300: 9d15 92bd 1863 f4be 7897 083f 4b2e ca3e
00000310: 5421 103f d8b5 2c3f 8736 e3bd 9b4b 30be
00000320: 264d e0bd 0385 1abd 0475 38be dc69 5abe
00000330: bbdc 3e3e 2947 5a3e ee0f 663e 34ff 01be
00000340: eb45 22be cef2 f6bd fe0c cebc c053 eb3c
00000350: e90a c3bc 55d1 303e acf7 513e 8ba1 8c3d
00000360: 3a28 1ebe 21d1 31be 5107 a7bd cf57 69bd
00000370: 3b84 d4bd 3658 583d 47eb c43d f2d0 15bd
00000380: d11f d93c 8eed 913e a873 81bb e032 babc
00000390: 40e4 0a3e fd51 293e ebae c4be bfb1 d03e
000003a0: 6a50 873d c376 6abc 1095 ba3e d1bc 78be
000003b0: 0f83 6dbe 2f7e 3abc 11c4 cebe 2eed 843d
000003c0: 311c 88bd 21fb a1be ceb7 303e 2b91 1a3e
000003d0: 22bc 913e 3ecf 253e dbc7 f63d 9afa 5fbe
000003e0: 0486 4bbe ef0c c6bd f194 17be 4899 a6be
000003f0: 697a 253d 85d1 1ebe 5f82 43be 5b03 d5be
0.2133874 -0.028046647 0.1408456 -0.07618639 -0.45730633 -0.100020446 0.08582004 -0.07989021
-0.077220984 -0.001391969 0.054111034 -0.018641133 0.13125551 0.14935677 0.029150374 0.166005
0.37386417 0.04293212 -0.47508046 -0.7601885 0.35959423 -0.20783764 -0.26149166 0.26033378
0.13517985 0.5350523 0.23401886 -0.26845604 -0.34946138 -0.19410959 -0.12587094 -0.20942393
-0.6789101 -0.37213227 0.15637821 -0.26837063 -0.08452081 0.0893763 0.12634432 0.19875327
0.052241772 0.07704577 0.20185775 0.22998565 0.46235123 0.05618622 0.055825617 -0.023913989
0.044081964 -0.026573036 0.057672903 0.20481606 0.09796662 0.04683847 -0.8531988 -0.648981
-0.1392651 -0.68600726 -0.67280984 0.1299797 -0.46852845 -0.055049792 0.25963444 0.21109375
-0.04888771 -0.20746134 -0.50084084 -0.47555798 -0.04399956 -0.23343325 -0.022612281 0.44929293
-0.22034226 -0.75012016 0.29416588 -0.03253031 -0.52680993 0.60029674 0.19448127 0.41118857
0.50724393 0.09923945 -0.10419294 -0.24699813 -0.3464917 -0.26872325 0.20412815 -0.14740427
0.14054307 0.44142142 -0.1952655 -0.22552781 -0.11568165 -0.04642626 -0.19575733 -0.26075488
0.09023795 -0.05573228 -0.049246296 -0.4083268 -0.4547689 0.2325761 0.08336847 -0.36232853
0.16385214 0.06912191 0.32771635 -0.059425194 -0.4462215 -0.63383204 -0.4058434 -0.32855788
-0.639169 -0.19536875 -0.022049569 -0.16470283 0.19401489 0.23858842 -0.4046783 -0.3354916
-0.025135428 -0.2917296 -0.17806455 -0.020462237 0.12810299 0.25847897 0.20454277 0.23207048
0.06687539 0.17906405 0.18171597 0.11687071 0.20497948 0.23983233 0.0475289 0.16784263
-0.19516467 -0.0709276 -0.0025783922 -0.043102384 0.15619422 -0.0447242 0.28299236 0.32615605
0.18133713 -0.3369244 -0.38844833 0.14033157 -0.36505464 -0.41350138 0.11847082 -0.12979881
0.26601467 -0.63115317 -0.5548198 -0.3625306 -0.5850929 -0.40103623 -0.17618552 -0.3350277
-0.2024543 -0.14304711 -0.6181689 -0.5259427 0.0830663 -0.5784691 -0.24590941 0.26275253
-0.006158647 0.37500677 0.67139786 -0.08237392 -0.17989334 0.100309685 0.09646068 -0.17504762
0.16950005 -0.19553527 -0.033655692 0.044239715 0.082271844 0.047011714 0.08773633 0.16900823
0.22287315 0.15003183 0.43011755 0.46213168 0.16750404 -0.31680837 -0.8371456 0.16946016
-0.07133029 -0.47731853 0.5335612 0.39488444 0.56300855 0.6746497 -0.11094385 -0.17216341
-0.10952215 -0.037724506 -0.18013388 -0.21329445 0.1863889 0.21316208 0.22467014 -0.12695009
-0.15846984 -0.1205803 -0.02515268 0.028726459 -0.023808913 0.17267354 0.20504636 0.068667494
-0.15445033 -0.17364933 -0.08155692 -0.056968506 -0.103767835 0.0528185 0.09615188 -0.03657622
0.026504429 0.28501552 -0.003950555 -0.022729337 0.13563633 0.16535182 -0.38414702 0.4076061
0.06607135 -0.014310542 0.3644185 -0.24290778 -0.23194526 -0.011382624 -0.40383962 0.06490551
-0.06646002 -0.3163691 0.17257616 0.1509444 0.28463846 0.16192338 0.12049838 -0.2187294
-0.19875342 -0.09670436 -0.1480291 -0.3253882 0.040399943 -0.15509613 -0.19092701 -0.41604123

layer2.0.bias f4 [64]
00000000: 0433 3442 1c5c 2542 29c6 1f42 c9c2 3142
00000010: ab34 3942 75a4 0442 845f 2842 32a0 0842
00000020: 6615 2c42 9476 1e42 c9b4 3442 9414 2342
00000030: f9a8 0e42 e0f9 3242 ca73 2342 40cf 3242
00000040: 5288 2542 afb9 2342 4327 2f42 cc70 4042
00000050: f39f 3642 e05d 2742 3654 2e42 c62b 3842
00000060: 9a13 3842 e84a 4242 cd58 2a42 e414 4042
00000070: 94b3 2a42 756e 3942 e678 2942 aaa0 2342
00000080: 4b85 4042 ce85 2e42 d710 4542 3922 3942
00000090: 5bbc 3442 c712 2942 a1ed 2a42 e75b 3d42
000000a0: bd4f 3242 2ad1 4442 0ac4 2542 cc26 2c42
000000b0: fcc3 2b42 736e 3342 163d 2542 e247 2342
000000c0: cc2f 0942 af10 3b42 3d03 3542 8ab8 2c42
000000d0: 79b4 2842 663b 2d42 3d8b 0242 d776 3642
000000e0: c494 2a42 fc9b 3e42 0611 3042 d659 2f42
000000f0: 462b 2842 5caf 2f42 621e 2c42 6edf 2c42
45.04982 41.33995 39.943516 44.44022 46.301434 33.160603 42.093277 34.15644
43.020897 39.6158 45.176548 40.770096 35.665012 44.74402 40.863075 44.702393
41.383125 40.93133 43.78834 48.110153 45.6562 41.841675 43.582237 46.042747
46.019142 48.57315 42.58672 48.0204 42.67537 46.35787 42.368065 40.9069
48.13017 43.63067 49.266445 46.28342 45.18394 42.268337 42.73206 47.33975
44.57787 49.20426 41.441444 43.037888 42.94139 44.85786 41.309654 40.820198
34.296677 46.766293 45.253162 43.180214 42.176243 43.308006 32.635975 45.616055
42.64528 47.65233 44.016624 43.83773 42.04226 43.92125 43.02967 43.218193

layer2.1.weight f4 [64]
00000000: a981 a23f 506a 253f 0263 2b3f 1a15 913f
00000010: bf3d 773f 1f52 913f c7e7 a03f d0d4 873f
00000020: adab 433f 9756 493f 38a0 2d3f f159 813f
00000030: 1202 903f ae7d 903f a1bf 303f 8b68 983f
00000040: eafc 4c3f e583 443f 9d94 313f 62fb aa3f
00000050: 15e2 7b3f 12b8 913f 3b5c ad3f 5159 973f
00000060: 3530 833f 3ba0 a23f 85fd a03f ae0e bd3f
00000070: 73ac 373f 5469 a73f 61e1 253f 6788 1e3f
00000080: 0359 a43f 1887 ad3f cbfb a53f 9374 b53f
00000090: eea7 b63f 1ec1 413f bea5 9c3f 15c9 993f
000000a0: b7a5 6d3f 0cc9 923f 0baa 7d3f 4c16 273f
000000b0: ebcb 7f3f 25f3 ad3f 8eec 9c3f 3fb0 913f
000000c0: a361 713f c9cb 923f 5151 6e3f a13f 7f3f
000000d0: 04e9 413f 7b97 703f 1bdf 793f e8fe 863f
000000e0: fed5 8a3f 1323 cd3f 10c7 693f 089b 833f
000000f0: 0440 8b3f d3d8 873f 7505 ad3f de0b 7e3f
1.2695819 0.64615345 0.6694795 1.1334565 0.9657859 1.1353186 1.2570733 1.061182
0.7643383 0.7864775 0.678226 1.0105573 1.1250632 1.1288354 0.690424 1.1906904
0.80073416 0.76763755 0.6936739 1.3357966 0.9839185 1.1384299 1.3543772 1.1824132
1.0249087 1.2705148 1.2577368 1.4770105 0.7174751 1.3079019 0.64797026 0.61926883
1.2839664 1.3556852 1.2967466 1.4176201 1.4269998 0.756853 1.223808 1.201449
0.92830986 1.1467605 0.9908759 0.652684 0.9992053 1.3589827 1.2259691 1.1381911
0.94289607 1.146844 0.9309283 0.99706465 0.7574618 0.9398114 0.97606057 1.0546541
1.0846555 1.6026329 0.9131937 1.0281687 1.0878911 1.0613045 1.351729 0.9923686

layer2.1.bias f4 [64]
00000000: e742 18bf 0547 9dbe 0110 89be 244d 07bf
00000010: f3be 4cbe 6960 cfbd 0262 89be d978 c5be
00000020: fb1a b6be 8ca2 b0be 7214 aebe 2edc 61bd
00000030: 6acf a1be cbe3 79be 8dc7 bebd ed15 98be
00000040: 234a 20bf cdcd 9cbd ffc7 d5be cec6 ccbe
00000050: ffce f5be e50d 0d3e 52d5 f9be b28b b9be
00000060: 4037 2bbe 0f73 b3be cadf a0be 7208 bfbe
00000070: dcdb 72be 98db 54be 9c9e 23be 9e9b 6bbe
00000080: c420 9abe 4cfb d7be 58e5 b2be ce77 7fbe
00000090: a850 4abf d168 8ebe ab3b d1be ac0a 69be
000000a0: d8a2 08bf dc05 71bf 79ee 7fbe 95f3 c5be
000000b0: 70e7 86be 08e6 babe 910b 06bf ede2 d7be
000000c0: 076a 0fbf 9ffe 53bf 6a8b 04bf 7498 cdbe
000000d0: bea0 94be 3bd0 43be b5b4 e4be b326 0ebf
000000e0: e1f9 dabe 1611 25be a766 9ebe 6d01 01bf
000000f0: bb5e a5be ea95 08bf 9771 a6be b6c3 e6be
-0.59477085 -0.30718246 -0.26770023 -0.5285208 -0.19994716 -0.10125811 -0.26832587 -0.38568762
-0.3556746 -0.34499013 -0.33999974 -0.05514162 -0.31603557 -0.24403302 -0.09315405 -0.29704228
-0.62613124 -0.07656441 -0.41754147 -0.39995426 -0.48009488 0.13774832 -0.48795563 -0.36239392
-0.16720295 -0.3504872 -0.31420738 -0.3731113 -0.23716682 -0.20786893 -0.15978473 -0.23008582
-0.30103123 -0.42183912 -0.349406 -0.24948046 -0.7902932 -0.27814344 -0.40865836 -0.22757977
-0.5337348 -0.94149566 -0.24993314 -0.386624 -0.26348448 -0.36503625 -0.523614 -0.42165318
-0.5602116 -0.82810396 -0.5177523 -0.40155375 -0.29028887 -0.19122402 -0.4466912 -0.555278
-0.42768767 -0.16119799 -0.30937693 -0.503928 -0.32298836 -0.5335375 -0.32508537 -0.4507119

layer2.1.running_mean f4 [64]
00000000: 1896 e441 27a2 2f42 6635 0d42 c976 1042
00000010: 0e3a 1542 aa02 91c1 8ea8 c241 3c22 75bf
00000020: 514d d641 f289 0942 8243 5f42 29ca a441
00000030: ecda bec0 65ff f941 f774 1942 4dcc d541
00000040: e246 6c42 cd79 8a41 fb3e 3f42 5c8a 0042
00000050: 654c 0842 d38d db41 ef60 7941 8fb3 fb41
00000060: 7e12 0442 1f6a 1c42 6d6f f741 10aa 0f42
00000070: 64ea 4942 87c7 e741 8bba 2b42 0d3e 0a42
00000080: 7b4b 1242 c5bd c441 dfca 1742 036e fe41
00000090: 6a69 f041 1777 0142 7e07 5841 5e58 0642
000000a0: b76e 0742 0aa6 1342 79d7 be41 dffb 2742
000000b0: d271 0342 7359 d041 e866 9641 659e 8341
000000c0: 08fa 1240 359f 1642 4b0c 0f42 ae92 f841
000000d0: 6104 fb41 316f 2142 d3d0 6ec1 2220 2b42
000000e0: 5d73 c341 89cd 0a42 4f4b 0742 b9a1 1042
000000f0: 9cc0 e941 c5f0 0f42 30bd fb41 c7e7 ac41
28.573288 43.90835 35.302147 36.116 37.306694 -18.1263 24.332302 -0.9575536
26.787752 34.384712 55.815926 20.598711 -5.964224 31.249704 38.364223 26.724756
59.06922 17.309473 47.811504 32.135117 34.074604 27.44425 15.586165 31.462675
33.01806 39.103634 30.929407 35.916077 50.478897 28.972425 42.93217 34.560596
36.57371 24.59266 37.948116 31.803717 30.051472 32.3663 13.501829 33.586296
33.85812 36.912148 23.855211 41.995968 32.861153 26.043676 18.800247 16.452341
2.2965107 37.655476 35.762005 31.07162 31.377138 40.358585 -14.925982 42.78138
24.43133 34.700718 33.823544 36.157932 29.219048 35.985126 31.467377 21.613173

layer2.1.running_var f4 [64]
00000000: 15db b343 d4cb f242 bd79 c042 7667 4343
00000010: 663c 7243 9d72 a044 2f5d f743 1d91 4944
00000020: 32b8 f942 3dd0 2f43 6de5 0043 9662 db43
00000030: 9b73 4444 6344 8743 35dc 2a43 602d ae43
00000040: c3bb 5743 6376 6043 b169 c442 492d 2b43
00000050: f0d2 1243 40b9 e443 290f ee43 dd60 8b43
00000060: 80ab 1443 a448 1143 6b3f c543 8183 8343
00000070: fc16 1043 e409 8c43 8983 2f43 746a 0243
00000080: a725 2943 32bc d243 8261 7d43 b028 c943
00000090: 1258 c843 6d5e 5343 e8ce ed43 3b3c 5043
000000a0: 5169 4743 3cd5 1743 f4e5 9243 1653 e042
000000b0: cd05 a043 c795 f443 e1e7 0e44 151c 0d44
000000c0: dd07 1844 f99d 3a43 ece7 4843 612b 8e43
000000d0: 66aa 1c43 b71f 7b43 b1f6 4c44 cf8e f842
000000e0: cfe5 9743 beb4 5943 1f9a 0043 a49e 3e43
000000f0: 0442 c843 6a5a 5443 cef1 0744 6b41 a843
359.71158 121.3981 96.23777 195.40414 242.23593 1283.5817 494.728 806.2674
124.85976 175.81343 128.8962 438.7702 785.80634 270.53427 170.86018 348.3545
215.73344 224.46245 98.20643 171.1769 146.82397 457.44727 476.11844 278.75674
148.66992 145.28375 394.49545 263.02737 144.08978 280.07727 175.51381 130.41583
169.14708 421.47028 253.38089 402.31787 400.68805 211.36885 475.61646 208.23528
199.41139 151.83295 293.7965 112.16228 320.04532 489.17014 571.6231 564.4388
608.12286 186.61708 200.90594 284.3389 156.66562 251.12389 819.85455 124.27892
303.79538 217.70602 128.60204 190.61969 400.51575 212.35318 543.7782 336.51108

layer3.0.weight f4 [64, 64, 3, 3]
00000000: b9b5 aa3e 3ba9 713e b2bc 063e ab76 993c
00000010: e360 133f c65d f93e 062a 89bf a506 b93e
00000020: 43ab eb3c 4951 96bd 7b09 b1be 48f0 11bf
00000030: a493 06bf 23ef 32bf 65e3 08bf 73c1 fcbe
00000040: 3b96 e9be 7781 f0be 9b47 d1be 10b3 b5be
00000050: d606 babe b9ac 36bf 54f3 68bf d179 26bf
00000060: d251 1fbe 4e83 4abe 1e2b 9c3e 2864 253f
00000070: 9fea f83d 26f5 c0bd 0b64 083e 0e86 37bd
00000080: f784 5cbd ebe2 7d3e 67a8 223d 6fba bf3e
00000090: ae51 3bbe 7f0e a1bd 4200 8f3e 0d62 883d
000000a0: 15a7 933e 4aa1 b73d ddb6 46be 1b0a 653e
000000b0: 00af b9be 73af 36be 6d83 253e 1d65 593e
000000c0: ad8b 81be f8ef eabd 6d55 3ebc 3986 64be
000000d0: f2db 8ebe ea63 cdbc fdbb 403e 47f8 a8bd
000000e0: c32b 0a3e 47cc 233f 7057 553e a195 94be
000000f0: 9b02 893e 8657 4b3e 0f4b aebe 0184 b03d
00000100: eabb 243e 8970 533e 911a 04be 0ede 97bd
00000110: 4421 8f3d 15a7 633e 402a 103c c961 923e
00000120: 8211 51be 3cee b4bd dac1 0cbc 4d64 993d
00000130: abfd ae3e af22 80bd 9a8f 5c3e 8ff5 b13e
00000140: 5b20 143d be40 ff3e 53d7 813e 76ec a8bd
00000150: a623 503e 0d08 b93e 67e9 203f c79f 13be
00000160: edfe e93d fd72 f63d 094a df3e 2545 393f
00000170: 0eac b83b 0993 a13d 244b 9a3e 27d1 81be
00000180: ef0f a0be 36eb 84be 1722 ebbe f613 4e3e
00000190: d05f ad3e 743a 53be 0e85 c2bc cdf5 873d
000001a0: 631c 09be d9b7 acbe 3d59 0fbe 2775 b1be
000001b0: 0629 113e 61fc 3ebe f4b3 91be 1775 e13c
000001c0: 61f0 b2bc 9719 adbe ce17 b4be ecde ccbe
000001d0: eea0 f7be 91c7 18be 22d0 d0bd 6bb8 073f
000001e0: 7dde 033d 0ca6 b13d 2f70 ff3e d658 fd39
000001f0: fb89 94bc ebd2 0c3f 3b24 84bd d738 c73e
00000200: b527 8e3d 25dc 37be 5ef9 fbbb 8490 0e3e
00000210: d81d 99bc 6f79 ac3e c2cd 6f3e 5875 623e
00000220: 5a47 4a3e 28d4 e6be cf34 c83e c20b a33e
00000230: 6705 53be 9561 113f 5466 c43e e8ac 0fbf
00000240: 1dac 14be c042 f43d d9db 473c be75 723d
00000250: 0540 023c 4df4 d3bd 3a18 87be 68b7 8bbe
00000260: ae6e 2cbe 03d4 1ebe 98ef f03d 1f35 8a3c
00000270: 1d35 0c3e 4699 2d3e e4ef 003e 777b bf3e
00000280: 4fa9 b33e a963 be3e 0584 29be d275 303e
00000290: 27f5 053d 1af5 17be 5009 61be 81f9 08be
000002a0: e7c7 00bd 013b 223e 29ad 513e fd76 dfbe
000002b0: 4c6b d23e 8b92 f03e f9f9 60be 13e1 333f
000002c0: 8916 f03e d4e2 2bbe 7f90 bc3e fb1d b43e
000002d0: 9206 0fbe 7c02 bebd 7fb1 adbd 60af 503e
000002e0: 470b 303e d21e 303d 4de1 9e3e 39f0 ed3e
000002f0: 8fad b63e c02d 003f d997 0fbd 7c82 103d
00000300: 18c6 a53e afe5 9f3d 3da6 3e3d 8d40 84bd
00000310: f376 94be e80c acbe 89c8 443e 1868 f13e
00000320: 1d92 c63e 8af0 51be 372c ce3e 464d 9a3e
00000330: 67c0 71be 4692 29be 7182 b3be 1c65 873e
00000340: 3f55 4e3e 89a0 033e eade f3bd c2c4 dbbd
00000350: 9a47 1ebe 70a8 1cbe de4a 3cbd 014e dfbe
00000360: c4ba fabe 2372 69be 8a53 8f3e a273 db3d
00000370: eea2 aa3e d5b8 07be 7c97 1cbe 9b81 173f
00000380: 0e34 01be d7d8 8d3e f222 ba3e 0929 1a3d
00000390: 3da2 373e 2ec7 b43e 13be e6bd 18c5 6e3e
000003a0: 69b3 16bf 01fd f3bd a81b 13bd 1710 b5be
000003b0: 3e6d d53d cb97 dabc bfd8 c7bd 800f 403d
000003c0: 4c1e 2a3c 7365 7a3e 4d94 063e 4dd3 ed3e
000003d0: eb2c 003d d723 5d3e b6a8 aa3e 5a50 923d
000003e0: 68aa e33e ce82 f1be 88a5 92be 3d56 3dbe
000003f0: 4c27 efbe 8b77 c3be daa5 13bf 115b c0be
0.33341768 0.23599713 0.13157919 0.018733343 0.5756971 0.48704356 -1.071595 0.36137882
0.028768187 -0.07339723 -0.34577546 -0.57007265 -0.5256903 -0.69896144 -0.53471977 -0.4936634
-0.4562243 -0.46973774 -0.40874943 -0.35488176 -0.3633334 -0.71357304 -0.9099629 -0.6502963
-0.15558556 -0.19776651 0.30501646 0.6460595 0.121541254 -0.09421758 0.13319413 -0.04480558
-0.053837743 0.24793594 0.039711382 0.37446925 -0.18292877 -0.07864093 0.27929884 0.06659327
0.2883841 0.0896631 -0.19405694 0.22367136 -0.36266327 -0.17840366 0.16163416 0.21229978
-0.25301877 -0.11471552 -0.011617047 -0.22316827 -0.2790218 -0.025072057 0.18821712 -0.0825048
0.13493256 0.6398358 0.20834136 -0.29020408 0.267598 0.19857606 -0.3404164 0.08618928
0.16087309 0.20648398 -0.1290076 -0.074154004 0.06988767 0.22231705 0.008799136 0.2859023
-0.20416835 -0.08834502 -0.00859114 0.07489834 0.34177908 -0.06256615 0.21539155 0.3475766
0.03616367 0.49854082 0.25359592 -0.08248226 0.20326099 0.36138955 0.62856144 -0.14416419
0.11425576 0.12033651 0.43611172 0.7237113 0.005635745 0.07889373 0.30135453 -0.25354883
-0.31262156 -0.25960702 -0.45924446 0.20124802 0.33862162 -0.20627767 -0.023745086 0.0663868
-0.13389735 -0.33734015 -0.13998885 -0.34659693 0.14175805 -0.18650962 -0.28457606 0.027521653
-0.021843137 -0.33808586 -0.35174412 -0.40013826 -0.48364967 -0.14919879 -0.10195948 0.53015774
0.032194603 0.08674249 0.49890277 0.00048322108 -0.0181322 0.55009335 -0.06452223 0.38910553
0.06941167 -0.17955072 -0.007689639 0.13922316 -0.018690988 0.33686396 0.23418334 0.22115076
0.19753781 -0.45083737 0.3910279 0.31844908 -0.2060753 0.56789523 0.3835932 -0.5612321
-0.14518781 0.11926794 0.012198412 0.05919432 0.007949834 -0.10349331 -0.2638567 -0.27288365
-0.16839096 -0.15510564 0.11764449 0.016871033 0.13692136 0.16953 0.12591511 0.37398884
0.3509011 0.3718541 -0.16554268 0.17232445 0.0327045 -0.14839593 -0.21976209 -0.13376428
-0.03144064 0.1584282 0.20476212 -0.43645468 0.41097486 0.46986803 -0.21970357 0.7026531
0.46892193 -0.16785747 0.36828992 0.35179123 -0.1396735 -0.092778176 -0.0848112 0.203794
0.17191802 0.042998143 0.31031266 0.46472338 0.3567929 0.5006981 -0.035056923 0.03528069
0.32377696 0.078074805 0.046545256 -0.064576246 -0.28997 -0.33603597 0.19217123 0.4714973
0.3878335 -0.20501915 0.40268108 0.3013708 -0.23608552 -0.16559705 -0.35060456 0.26444328
0.20149706 0.12854208 -0.11907752 -0.10730888 -0.15457001 -0.15298629 -0.045969836 -0.436142
-0.48970616 -0.22797446 0.27993423 0.107154146 0.3332743 -0.13254102 -0.15292162 0.5918214
-0.12617514 0.27704498 0.36354786 0.03763679 0.17932983 0.35308212 -0.112667225 0.23317373
-0.5886751 -0.11913491 -0.035915047 -0.35363838 0.10421227 -0.026683709 -0.09758138 0.046889782
0.0103832 0.24452762 0.1314251 0.46450272 0.031292837 0.21595703 0.3333184 0.07144232
0.44465947 -0.4717011 -0.28641915 -0.18489929 -0.4670967 -0.38177142 -0.57674944 -0.37569478

layer3.0.bias f4 [64]
00000000: 42b3 e441 2fe3 0342 a154 0a42 4cf4 d741
00000010: 91b9 e241 2d2f c841 007f ff41 6db5 e841
00000020: 882a f941 63ae e141 d842 f041 c215 cc41
00000030: 80c9 eb41 b8e8 d641 4d9d da41 1a47 c441
00000040: 24b8 0842 ce1c eb41 c63c cf41 6117 fa41
00000050: c36a ec41 ec03 e641 e9b0 0842 beda d541
00000060: 346c ea41 5b1f e241 9047 0642 1dd8 db41
00000070: 71ae ee41 cda6 ec41 d4b7 0042 26b8 fc41
00000080: cbd9 0742 e519 e741 05c0 fe41 3613 0642
00000090: 773e 0d42 44b2 0042 68b5 e841 0083 cf41
000000a0: 4b43 f241 dc13 0242 ed5c d741 5c23 0042
000000b0: ffe7 dd41 40e0 da41 547c e441 b5d8 cc41
000000c0: fbea 0142 6cb7 d541 d9c8 e641 48d7 e541
000000d0: bebd fe41 5e42 df41 bbb8 0642 1a55 f841
000000e0: df46 fb41 6616 fa41 c2a8 eb41 f402 0b42
000000f0: 1335 0442 6f60 e141 5365 f641 1a14 e441
28.587528 32.97186 34.582645 26.994286 28.340609 25.023035 31.937012 29.088587
31.145767 28.21015 30.032639 25.510624 29.473389 26.863632 27.326807 24.534718
34.179825 29.389065 25.904675 31.261415 29.55213 28.751915 34.172764 26.731808
29.302834 28.26531 33.569885 27.480524 29.835176 29.581446 32.17952 31.589916
33.96269 28.887644 31.84376 33.51876 35.311 32.174088 29.088577 25.938965
30.282858 32.519394 26.920374 32.03453 27.73828 27.359497 28.560707 25.605814
32.479473 26.714561 28.84807 28.730118 31.842648 27.907406 33.6804 31.041553
31.409605 31.260937 29.457401 34.752884 33.05183 28.172087 30.799475 28.509815

layer3.1.weight f4 [64]
00000000: cd81 4d3f a8b1 8e3f b2a5 a83f 791d 5d3f
00000010: a739 6c3f acfd 8b3f c6ea 813f 9f1f 883f
00000020: df4a 7b3f 036c 643f 063b 903f 6ea7 8a3f
00000030: a90e 6a3f b2ae 853f 2990 813f c848 4b3f
00000040: cfb1 823f 93ad 5b3f 3939 803f 96d3 943f
00000050: 890a 893f 8412 9b3f df7d 953f 1621 533f
00000060: 56ec 883f d942 703f fb0c 8a3f 9d74 843f
00000070: 906f 843f 9f0f 733f 6bc7 813f 47c8 663f
00000080: e727 883f 27f7 5f3f 0633 893f 645f 9b3f
00000090: 6b8a 943f 5124 813f 044f 803f 3411 5c3f
000000a0: 1055 8a3f 3491 883f 356d 973f ef2f 7a3f
000000b0: 4524 803f 8fdd 683f a8fb 543f 15a1 7d3f
000000c0: 5f59 953f c481 853f 0634 513f 2bca 643f
000000d0: 0b38 7b3f cb52 523f bbf9 9c3f c979 8b3f
000000e0: 5878 9a3f 4387 7c3f b12d 803f 9173 963f
000000f0: c082 963f 7fc0 453f d51c 673f 066d 8a3f
0.80276185 1.1147966 1.3175566 0.86373097 0.9227547 1.093679 1.0149772 1.063465
0.9816112 0.8922731 1.1268013 1.0832345 0.9142862 1.0443938 1.0122119 0.7940793
1.0210513 0.8581173 1.0017463 1.1627071 1.070634 1.2115026 1.1679038 0.8247236
1.0697124 0.93852 1.0785211 1.0348088 1.0346546 0.9494571 1.0138983 0.9014935
1.0637177 0.874865 1.0718696 1.2138486 1.1604742 1.0089208 1.0024114 0.8596375
1.0807209 1.0669312 1.1830202 0.9772939 1.0011069 0.9096307 0.83196497 0.99073917
1.1667899 1.0430226 0.81720006 0.89370984 0.9813239 0.8215758 1.2263712 1.0896541
1.2067976 0.98643893 1.0013944 1.1754018 1.1758652 0.7724685 0.9027837 1.0814521

layer3.1.bias f4 [64]
00000000: bb0c 1dbf 9318 d8be 2713 debe c85a 02bf
00000010: 4c90 dabe 3aa5 d4be 42a1 d5be b64e fcbe
00000020: 3b7e 0bbf 1212 56be 9b8d 93be cf17 a6be
00000030: 1a87 67be cb9f d3be edaa 9bbe 411d 97be
00000040: b4a5 cebe d264 cdbe 6bdf 8ebe d2ca c7be
00000050: 9949 0ebf 822a ecbd 269d 1cbf 7424 15bf
00000060: 5766 92be 189c 1abf 7b58 16bf 0028 5cbe
00000070: fa30 11bf 9b72 f3be 510b 36bf 7730 08bf
00000080: 913c f6be 82e7 17bf 3f68 4cbf 5c7e e2be
00000090: 9eb2 1abf 74a9 d0be 23d2 a7be 5243 eabe
000000a0: 3faa 08bf 7c82 dcbe ad26 a9be 03f8 31bf
000000b0: 9a12 f6be 3bb6 f8be cab7 92be 0f27 c8be
000000c0: af6e 10bf 2ad7 debe 2e7e fcbe 13f7 b3be
000000d0: 4c7a 03bf 8980 fdbe 81b5 53be be56 c4be
000000e0: 4837 cabe e343 1dbf 001e b6be c86f 05bf
000000f0: 1101 e8be ba59 9fbe fee3 d9be 799b 0fbf
-0.6134755 -0.4220625 -0.43373987 -0.5091977 -0.42688215 -0.41532308 -0.41724592 -0.49278802
-0.5448949 -0.20905331 -0.28818974 -0.3244004 -0.22610131 -0.4133285 -0.30403844 -0.29514506
-0.40360796 -0.40115982 -0.2790483 -0.39021927 -0.5558105 -0.11531545 -0.6117729 -0.5825875
-0.28593704 -0.6039443 -0.5872876 -0.21499634 -0.5671536 -0.47548375 -0.7111102 -0.5319895
-0.48093084 -0.5933763 -0.79846567 -0.4423703 -0.604288 -0.40754282 -0.3277751 -0.45754486
-0.53384775 -0.43068302 -0.3303732 -0.6951906 -0.48061067 -0.4857653 -0.28655845 -0.390923
-0.5641889 -0.43523532 -0.49315017 -0.3514944 -0.51358485 -0.49512127 -0.20674707 -0.3834743
-0.394953 -0.6143171 -0.35569763 -0.5212369 -0.45313314 -0.31123143 -0.42556757 -0.5609661

layer3.1.running_mean f4 [64]
00000000: a818 0b42 5a5e ec41 d2ac ed41 bbda 7941
00000010: 5f34 ce41 1dff 5041 dec0 de41 fc45 5041
00000020: db38 bb41 a8dc c341 6aaf af41 c626 e440
00000030: f8e9 ae41 d822 8041 c436 8941 3665 7b41
00000040: 2e3e e641 87f5 d341 9471 6941 2f75 d941
00000050: b4ac bb41 a1ee 9741 83e5 f041 f737 ec41
00000060: 6088 a741 7d26 c941 a6d0 f241 ede0 a041
00000070: 69ad a941 8be6 9a41 7ea0 0242 3f25 c541
00000080: 2a53 e441 50f8 d341 dac9 df41 5cc8 c741
00000090: 79e2 f641 f6be ee41 4257 9541 c7ee 6d41
000000a0: ef70 af41 0802 df41 3405 8a41 1f8f dd41
000000b0: 8c33 9641 0405 8141 4b20 ae41 fd3d 9041
000000c0: 47f1 b741 9f97 9441 7c0f d741 d367 b241
000000d0: 0740 df41 061f e041 bd75 f241 8d00 d941
000000e0: f296 d341 ab91 ea41 e70a aa41 3444 f741
000000f0: b79b cf41 a467 be41 e1e7 df41 e92b c241
34.77408 29.54607 29.709385 15.615901 25.775572 13.0622835 27.844173 13.017086
23.402761 24.482742 21.960651 7.129733 21.864243 16.017014 17.151741 15.71221
28.780361 26.494886 14.590229 27.182219 23.459328 18.991518 30.112066 29.527327
20.94159 25.143793 30.35188 20.109827 21.209673 19.36257 32.65673 24.643187
28.540607 26.496246 27.97356 24.972832 30.860582 29.843243 18.667606 14.870795
21.930143 27.875992 17.25254 27.694883 18.77517 16.127449 21.765768 18.030268
22.992811 18.574034 26.88256 22.300695 27.906263 28.015148 30.30749 27.125269
26.448704 29.321127 21.255323 30.908302 25.951033 23.800606 27.988222 24.27144

layer3.1.running_var f4 [64]
00000000: 65b0 1742 f989 2a42 9585 5742 7ac1 ac42
00000010: 307d 6342 af03 0a43 243b 3d42 59d9 c042
00000020: 0aa9 1842 0a78 9642 b1e1 b042 a591 0543
00000030: c32e 3542 d7e5 aa42 4d60 d742 8cb8 8a42
00000040: 9ae7 3a42 a739 3142 e490 c442 3b7d b442
00000050: 8cd4 c742 4c7e 0043 b87c 0942 4f8f 7342
00000060: 4251 b742 0e75 9942 a1f7 2142 82f4 eb42
00000070: 653d 3942 067b 5242 e759 2f42 ae14 0c42
00000080: f1a5 4042 72bc 2642 12e3 5342 806e 7942
00000090: 4f54 0242 9d39 5542 951e 7842 01cb a642
000000a0: 7aa9 a142 f2c1 3342 f40b 0e43 3ecb 0842
000000b0: e570 9c42 383f 6842 4fcd 4d42 730c d942
000000c0: ecb5 6242 dce9 b342 7a47 3742 df0a 4242
000000d0: 383e 2942 7421 7542 af05 4842 8264 6542
000000e0: 60d9 a842 757e 4742 fc29 c442 1dfe 2942
000000f0: 094e 7742 91e1 4142 8fe3 5042 16ee 9642
37.92226 42.63474 53.88045 86.377884 56.872253 138.01439 47.307755 96.42451
38.165077 75.23445 88.4408 133.56892 45.295666 85.448906 107.68809 69.36044
46.726173 44.3063 98.28299 90.24459 99.91513 128.49335 34.371796 60.88995
91.65871 76.72862 40.491825 117.977554 46.309956 52.62014 43.837795 35.020195
48.162052 41.68403 52.97175 62.35791 32.582333 53.306263 62.029865 83.39649
80.83101 44.9394 142.04669 34.19848 78.2205 58.061737 51.450497 108.524315
56.677658 89.95676 45.8198 48.510616 42.31076 61.28267 50.00555 57.348152
84.42456 49.873493 98.082 42.498158 61.826206 48.47028 52.222225 75.46501

layer4.0.weight f4 [64, 64, 3, 3]
00000000: db38 c03d 29a6 9d3e c4ff 883d 1b30 063f
00000010: 02e3 323f 0ccb 7c3d f4cf b83e c304 ce3e
00000020: 64c1 4e3e d5b0 083e 7c67 9cbe edec 0a3e
00000030: de0b 01bc 29fb e23c 5a08 983e 1cce 2dbe
00000040: 28a2 31bd cf33 2f3e f1f6 6d3e 8890 a0be
00000050: 7cb9 d13e 4ff3 bebd f2bd e2be 035d a53e
00000060: bab8 453f c65c dd3d 9deb 203f b629 9ebd
00000070: 937d e03e 523b d83e 1493 84bd 3a01 5e3e
00000080: d238 ca3e 681d 7ebe 0f76 06bd c923 863d
00000090: f2c6 c4be 1029 a2be 3473 c1be 2f65 8fbe
000000a0: ee60 f6bd 288c f0bd e710 0bbd 389d 4a3e
000000b0: dc0e 163d fcaf 4e3f 2dd2 943e ea3d 87be
000000c0: df8e 8a3e 0d45 cebd 21ba 1cbf c244 173c
000000d0: adf6 263e c9c9 85bd df69 a9bf b31e 95bf
000000e0: a77d 45bf 4840 003c 878f 90be 4b02 6bbc
000000f0: 9f93 403e f846 6bbd ca20 d1be 0660 403d
00000100: 4a23 6f3d 31af 873e 00eb c13e 1f23 e23d
00000110: 9971 393f 21d7 203f 7878 503d 4a7b 843e
00000120: 41db 56be 73e9 b13d da5a 00be 31f6 1d3f
00000130: 45a5 473e 12d8 843e 455b 013f 6713 91bd
00000140: f43c 2bbe 4cc4 bdbe 3a97 8dbe e7fe fc3c
00000150: f5a9 a43d a83e a1be 5a13 97bd 3fad 173f
00000160: 289e 893e b6f4 323e 28e0 02bf 8944 5abe
00000170: 2e0e b8be a763 bcbe f7f2 a4be d977 92be
00000180: fd2f 54be e5ff 95be 08d1 8fbe 0add c9bc
00000190: 7bcf 7dbd 4a21 87be 4e30 11bd 3d6a febd
000001a0: eb7f f5be 22c6 a5bd 3a21 893d 8bec 37be
000001b0: 531f 773e 3373 b93e 276b 2a3e d123 b93d
000001c0: b252 323e d7a0 86bd 0bf8 823d 46cc 863e
000001d0: fdc1 dbbd 6505 cabc 954a 073e 325c a93e
000001e0: 94af 6f3e 28e3 003e 9467 c53e f03c c33e
000001f0: a10b 663e f9dc 843e 08ab c83e f6c4 0f3f
00000200: 55f0 5f3d 8fd2 b63e bec8 e63e da6b d03d
00000210: 1708 bbbe ec75 8abe 77b2 c1bd 3a57 813e
00000220: 5538 0dbe ca7f f5be 9281 363e 7043 ff3d
00000230: 715e 11bc 9f6e 183c 31f3 993c ccc9 153e
00000240: ebe7 24be 4869 5f3e 82e9 00be c292 c03c
00000250: 4541 993c 859a c03e fbd9 103d b1a6 52be
00000260: 56ea 3cbd 1fc1 89be 9a3e edbe fb8d cfbe
00000270: 90b9 073f c6ec 593b 8a2e e43e ffed 283e
00000280: 867c cfbd 7c9e 2b3d b36c 9f3c d0eb c7bd
00000290: fc06 05be 62b0 643e b14c d7bc 21fc a6bd
000002a0: a516 3a3e dd6f 1bbe 9da7 35be 4ba1 c93e
000002b0: 06fc 0f3e d134 9ebe 41ec a8bd 1f3a 80be
000002c0: fa80 a1be 6cff 24bf 35d5 79be b871 04bc
000002d0: 1a11 173e 5d6d febe d933 983e fafb aa3c
000002e0: 6373 1dbf 47d8 cfbe c5a8 27bd 6a77 20bd
000002f0: 670d 493e ad54 113f 6a08 e03e 9b7c f7be
00000300: 4d9f cf3d c7f1 b93e 5500 a0be f9cf 493e
00000310: 380b c93e 0919 0cbe 3480 5a3e d835 983e
00000320: cc3c 1fbe d2fa 8e3d 562f 013e 2599 66be
00000330: ff80 393c 71ce af3e 20f2 b73b c350 7e3e
00000340: 121e d4bd 6855 a7be d1af 743e 4da4 93bd
00000350: 83ef f5be 4e0b 983d 4d69 15be 4893 06bf
00000360: 93d1 483e cfd4 42be 0618 09bf ecd6 1b3e
00000370: 81bb 223b e025 59bf b804 1dbe 3897 a4be
00000380: 8751 42bf c9c1 d03d 5971 15bf c16d 4abf
00000390: 9e75 743d 556d 0bbf 0de0 92be dc5a cd3e
000003a0: 88d5 2ebe 680a f3bd 371c a0be 9e58 f03e
000003b0: f9d7 bd3d f4ec a4be d687 b33e 1b8f 0f3f
000003c0: 5971 b93e 9ddc 993e 01bf 893e 808a db3e
000003d0: 41d5 1e3f 649c 4fbe 5d3d d33d c277 903e
000003e0: 1701 abbc 17ee 29be eb39 673d e0f5 f2be
000003f0: 1609 883e 4b84 413e b4e7 d2be 5010 623c
0.09385844 0.30790833 0.066894084 0.52417153 0.69877636 0.061717078 0.36096156 0.40238008
0.2019096 0.13348706 -0.30547702 0.13566943 -0.0078763645 0.027707653 0.29693872 -0.16973156
-0.043367535 0.17109607 0.23238732 -0.3136027 0.40961826 -0.09323751 -0.44285542 0.32297525
0.77234995 0.10808711 0.6285952 -0.077227995 0.43845806 0.42232758 -0.064733654 0.21680155
0.39496475 -0.24815905 -0.032827433 0.06549794 -0.38433033 -0.31671953 -0.37783206 -0.28006884
-0.120302066 -0.11745483 -0.033951666 0.19786537 0.036635265 0.8073728 0.290666 -0.26414424
0.27062127 -0.10071764 -0.6122151 0.009232702 0.16305037 -0.06532628 -1.3235434 -1.1649994
-0.77144855 0.007827826 -0.28234503 -0.014343808 0.18806313 -0.057440728 -0.4084533 0.046966575
0.058383264 0.26500848 0.37874603 0.11041855 0.7243896 0.6282826 0.050896138 0.25875312
-0.20982076 0.08687105 -0.12534657 0.61703783 0.19496639 0.259461 0.5052989 -0.07083779
-0.1672247 -0.37063825 -0.2765444 0.030883266 0.08040229 -0.31493115 -0.07376738 0.5924873
0.26878476 0.17476162 -0.51123285 -0.21315207 -0.35948318 -0.3679478 -0.32216617 -0.28607062
-0.20721431 -0.29296795 -0.28089166 -0.024641532 -0.061965447 -0.26392585 -0.035446458 -0.12422607
-0.47949156 -0.080944315 0.066957906 -0.17961328 0.24133043 0.36220703 0.16642438 0.090400346
0.17414358 -0.065736465 0.06394967 0.26327723 -0.1073036 -0.024660775 0.13212045 0.33078152
0.23406821 0.12586653 0.38555586 0.3813243 0.22465374 0.2594984 0.39192986 0.56159914
0.054672558 0.35707518 0.4507503 0.10176821 -0.3652961 -0.27043092 -0.094578676 0.2526186
-0.1379102 -0.47949058 0.17822865 0.124640346 -0.008872614 0.009303718 0.01879272 0.1462776
-0.16104095 0.21817505 -0.12589076 0.02350748 0.01870788 0.3761789 0.035364132 -0.205714
-0.046121918 -0.26905152 -0.46336824 -0.4053801 0.5301752 0.00332527 0.44566756 0.16497038
-0.10131173 0.04189919 0.019461012 -0.097617745 -0.12990946 0.2233291 -0.026281686 -0.081535585
0.181727 -0.15179391 -0.1773972 0.3938087 0.14060983 -0.3089967 -0.08248187 -0.25044343
-0.31543714 -0.6445224 -0.24397738 -0.008083753 0.14752617 -0.49692813 0.29727057 0.020872105
-0.6150419 -0.40594694 -0.040932436 -0.039176382 0.19634019 0.5676983 0.4375642 -0.48337254
0.10137806 0.36317274 -0.31250253 0.19708242 0.39266372 -0.13681425 0.21337968 0.2972858
-0.15550536 0.06981434 0.12615713 -0.22519358 0.011322259 0.3433719 0.0056135803 0.24835496
-0.10357298 -0.32682347 0.23895194 -0.07209072 -0.48034295 0.07424031 -0.1459095 -0.52568483
0.19611196 -0.19026493 -0.5355228 0.15218705 0.0024831 -0.8482342 -0.15333831 -0.3214662
-0.7590565 0.101932116 -0.5837608 -0.7907372 0.05968248 -0.544637 -0.28686562 0.40108383
-0.17073643 -0.11867219 -0.31271526 0.4694261 0.09269709 -0.3221203 0.35064572 0.56077737
0.3621929 0.30051127 0.26903537 0.42879105 0.6204415 -0.20274502 0.103144385 0.28216368
-0.020874543 -0.1659473 0.05645172 -0.47453213 0.26569432 0.18898122 -0.411924 0.0137978345

layer4.0.bias f4 [64]
00000000: 5f99 3b42 ab52 4742 7570 3d42 b568 2c42
00000010: 5874 3442 80bb 3642 b5cf 3642 4090 2f42
00000020: 6a3c 4242 a525 3842 cc05 3942 28e5 3042
00000030: f9d1 3f42 20cf 3c42 d27d 3842 440a 3c42
00000040: d811 4a42 c9c0 3742 62e8 4242 ea51 2e42
00000050: eb78 3942 4a5c 3942 29f7 3342 f727 3c42
00000060: b6a5 3042 31ab 3542 d548 4c42 473c 3842
00000070: 2b14 3842 d7eb 3f42 d6b5 3042 7932 4142
00000080: e6c3 3c42 febe 3642 e692 2b42 5fb8 3742
00000090: 44c3 3442 c347 2942 68f2 4242 7c57 2f42
000000a0: 785a 4742 edb6 3a42 b7d9 3442 d3db 3c42
000000b0: bf8e 4542 df1a 4042 2be1 4242 44c6 3a42
000000c0: f318 3c42 ab1d 3f42 e425 3d42 09a8 3a42
000000d0: c39c 4842 13fa 3e42 8cb7 3542 4fee 3642
000000e0: e3ea 3842 6974 4242 668f 4142 e5bd 3542
000000f0: 4e6c 4342 ecfa 2642 8bef 3642 20bc 3f42
46.899776 49.83073 47.35982 43.102253 45.113617 45.683105 45.70284 43.89087
48.559 46.036762 46.25566 44.223785 47.95505 47.20227 46.12287 47.010025
50.517426 45.938267 48.726936 43.579994 46.368084 46.340126 44.991367 47.03903
44.161827 45.41718 51.071125 46.058865 46.019695 47.980312 44.177574 48.29929
47.191307 45.686516 42.893456 45.93005 45.19069 42.32008 48.736725 43.835434
49.83835 46.67864 45.212612 47.214672 49.3894 48.02624 48.71989 46.69362
47.024364 47.778973 47.287003 46.664097 50.153088 47.744213 45.429245 45.732723
46.22938 48.61368 48.390038 45.435444 48.855766 41.74504 45.73393 47.933716

layer4.1.weight f4 [64]
00000000: e075 1040 8015 6140 969f 1e40 86b9 e33f
00000010: a059 0940 9d5c 1040 c9b9 2040 5d23 0740
00000020: 6ac1 2f40 c590 0140 487d 1640 0ca6 1840
00000030: 0ac6 1a40 0d4f 1040 d2a9 1540 020f 2140
00000040: fefb 7240 9d0f 1740 0899 4940 3182 f73f
00000050: 5bec 1f40 fcf8 1040 a8ec 0c40 a7db 2240
00000060: 010b 0a40 ed12 f63f e43b 8840 ac7c 0e40
00000070: d837 0940 2f14 2740 91e6 f73f c826 4e40
00000080: 2f6c 2240 a6ea 0440 331f 0c40 7082 1540
00000090: f63f 0640 7746 d93f b623 5640 ad15 e83f
000000a0: 9fb9 6d40 3790 1840 ca24 2040 e49d 1140
000000b0: d0ad 3540 2e44 2c40 625d 4e40 152f 2a40
000000c0: ba93 0140 48c3 2740 4649 1840 fe73 0a40
000000d0: 80d6 8040 6389 3040 6f71 1040 5ee1 1340
000000e0: 97e8 1f40 e097 3540 fa2a 2540 2b8a 0140
000000f0: 31fc 3040 ad01 d23f b7b0 1340 948b 2040
2.2571945 3.5169373 2.4784904 1.7790992 2.1460953 2.2556527 2.5113394 2.1115334
2.74618 2.024461 2.3513966 2.3851347 2.4183373 2.2548249 2.33849 2.516541
3.7966304 2.360328 3.1499653 1.9336606 2.498801 2.2651968 2.2019444 2.5446565
2.1569216 1.9224526 4.257311 2.2263594 2.1440334 2.610607 1.9367238 3.221117
2.537853 2.0768218 2.1894042 2.3360863 2.0976539 1.6974629 3.3459296 1.8131615
3.7144544 2.3838022 2.5022454 2.2752619 2.8387337 2.6916614 3.2244496 2.6591237
2.0246415 2.621294 2.3794723 2.1633296 4.026184 2.7583854 2.2569234 2.3106303
2.4985712 2.8373947 2.580748 2.024058 2.7653925 1.6406761 2.3076608 2.5085192
