miniImagenet/SalNet_IntraClass/miniImagenet_relation_network_5way_1shot.pkl (torch_old, 527491 bytes, 33 tensors)

layer1.0.weight f4 [64, 2, 3, 3]
000000 c4 4b 14 bf 15 56 d8 3d de da dc bc 50 f4 07 3e
       -0.5792811 0.10563294 -0.026959833 0.13276792
000010 d2 0b 93 3e 47 61 65 be d3 7b 9b bc ad 4d 4e 3e
       0.28719956 -0.2240039 -0.018979942 0.20146818
000020 9d 8c e0 bd 6d 83 f1 be 43 7a c3 3e f6 84 02 3f
       -0.1096432 -0.47170582 0.38179216 0.5098413
000030 6a dd 50 3e a6 17 f9 be 87 c5 e0 3b 40 c7 88 3c
       0.20396963 -0.48650855 0.0068594846 0.016696572
000040 54 43 d0 be 30 82 6f 3d c2 64 b5 be 04 45 82 3e
       -0.40676367 0.058473766 -0.35428435 0.2544328
000050 8f fd fb bd a6 e4 58 bd 7f 89 48 bd 81 bf 44 3d
       -0.12304222 -0.05295243 -0.04895925 0.048034195
000060 bd 9a e4 3e f5 7f ca be 52 67 ea 3d d6 1c cc be
       0.44649306 -0.39550748 0.11445488 -0.3986575
000070 96 f4 10 3f 86 8c 08 3c 95 d8 03 3e cb a5 c6 bd
       0.5662321 0.008334285 0.12875588 -0.09699591
000080 b2 d4 84 bc a2 42 22 3f 01 cc 72 be fc d0 7c 3e
       -0.016214702 0.63382924 -0.23710634 0.24689096
000090 a0 90 64 be 67 51 ae bd 17 12 d3 3d 77 1f 8a 3e
       -0.22320795 -0.0851162 0.10306185 0.2697713
0000a0 b0 66 36 bf aa e7 69 3e 4c 68 97 3e 9b bd 07 3e
       -0.7125044 0.22842279 0.2957176 0.13255922
0000b0 3f 23 8f 3e 0a 8a 14 be 27 7f 04 bb 25 4b 8b 3b
       0.27956578 -0.14505783 -0.002021739 0.0042509013
0000c0 e7 74 34 be 46 19 85 3e 16 98 c2 3c f9 c5 0b be
       -0.1762272 0.25995845 0.02375416 -0.1364974
0000d0 4c 11 b4 3d aa 43 6c bf aa 04 61 3e 2d 20 13 3f
       0.087923616 -0.9229075 0.21974435 0.5747097
0000e0 8f a3 85 3e 88 3f f0 bd f4 45 15 be ce c5 5f bd
       0.26101348 -0.117308676 -0.14577466 -0.054632
0000f0 11 d5 ce be 50 13 1f be da 87 38 be 97 4e ae 3e
       -0.40396932 -0.15534711 -0.18020573 0.34044334
000100 de 43 bb 3e fc 94 50 3c 0d 4b af be cb c4 86 be
       0.36575216 0.012730833 -0.34236947 -0.26322016
000110 4d d6 02 3d 01 1c 1a bf 8c 1d 9b be 5b f2 2e bd
       0.031942654 -0.6019898 -0.3029598 -0.042711597
000120 8a 6e a2 be 49 bd ab 3c c0 1d b0 3e ef ab a5 3e
       -0.3172496 0.020964282 0.34397697 0.32357737
000130 9b f2 2d 3e a3 eb 55 be 69 59 37 be ea 78 69 be
       0.16987078 -0.2089067 -0.17905201 -0.22800031
000140 4d 48 dd 3d cf 3c 32 3f 12 f2 59 be 17 10 fa be
       0.10804806 0.69624037 -0.21283749 -0.488404
000150 d4 b1 10 be 65 45 24 3e c3 ca 8f 3e ef ac a1 bd
       -0.14130336 0.16042097 0.28084382 -0.078943126
000160 80 88 01 3e a5 22 44 3e 51 94 c5 3e c8 c4 89 3d
       0.12649727 0.19153841 0.3858972 0.06726986
000170 b4 75 d8 bd 53 06 83 3e 6f 7b b2 be 9a ef d7 bd
       -0.10569325 0.25590762 -0.34859797 -0.10543747
000180 50 30 f5 bd 41 20 99 be f3 2d 09 3f 38 29 9b 3e
       -0.119721055 -0.2990742 0.5358574 0.30304885
000190 ab 08 aa 3c f8 2a de bd 29 40 94 3e 35 0c 19 bf
       0.020756086 -0.108480394 0.289552 -0.5978425
0001a0 b4 9f 98 be 0f b3 ce 3c 9f b7 99 be 71 e4 c5 3e
       -0.29809344 0.025231866 -0.30022904 0.3865085
0001b0 ab 2c d0 be 1d ae 03 3e 9f 9e 9b be f9 90 e0 3c
       -0.4065908 0.12859388 -0.30394456 0.027412878
0001c0 d7 e5 57 3e 3f a3 bc bc 51 cb 84 3e ed 03 18 3f
       0.2108377 -0.02302706 0.25936368 0.5938099
0001d0 a3 7c 65 3e 7c a6 90 3e a4 8b 8a 3e 57 3b b1 3d
       0.22410826 0.28252017 0.27059662 0.08653896
0001e0 8a 10 05 3e 18 ee aa bd f8 38 93 bd 4b 07 b4 be
       0.1299459 -0.08346194 -0.071886 -0.35161814
0001f0 00 e8 4a bf 91 03 f9 bc f2 65 17 be 4c 17 88 be
       -0.79260254 -0.030397208 -0.14784983 -0.26580274
000200 65 4e 41 be ff 5b 6f be 05 da c8 3e 12 7e c0 3e
       -0.18877561 -0.23374937 0.39228836 0.37596184
000210 ed 9c c4 3e b6 f1 de 3c 64 e1 67 be 18 0f cd 3c
       0.38400975 0.027214866 -0.22644573 0.025031611
000220 4f 90 62 be c3 08 9f be e5 b7 85 be 39 98 e9 3e
       -0.22125362 -0.31061372 -0.26116863 0.4562395
000230 12 70 d5 3e 25 10 cd 3e f7 e1 07 bd dc ad 7b be
       0.41687065 0.4005138 -0.03317448 -0.24578041
000240 03 8e ab 3e da ee 83 3d 06 4a a3 be 82 15 51 be
       0.33506784 0.06442042 -0.31892413 -0.20418361
000250 ee 70 1d 3e 62 e2 23 bd 5e 7e c0 3e 62 4b a7 bd
       0.1537511 -0.040010817 0.3759641 -0.08168675
000260 ca 31 22 bf 96 50 9f 3e d8 20 d2 3d 0d b1 de be
       -0.6335722 0.3111617 0.10260171 -0.43494454
000270 3e 02 af be 07 db cd 3d 21 0a be bd e2 41 a0 3e
       -0.34181398 0.10051542 -0.09279276 0.31300265
000280 65 19 6a be 86 83 17 bf c9 14 8a 3e 6b c1 14 bd
       -0.2286125 -0.59185064 0.26968983 -0.03631727
000290 56 d6 bb be 06 4d a9 3e 19 e5 8c be 81 bc 8b be
       -0.36686963 0.33066577 -0.27518538 -0.27292255
0002a0 44 99 0a be ae 0e 38 3f 34 c8 89 3e db f3 0f 3c
       -0.13535029 0.718974 0.26910555 0.008786167
0002b0 38 01 9d 3e 91 77 e8 bc 32 2b c4 be 04 9c 04 be
       0.30664992 -0.028377326 -0.38314205 -0.1295014
0002c0 3e 36 55 3b 61 a1 c8 be a6 72 45 be 38 0e 15 3e
       0.0032533552 -0.39185622 -0.19282016 0.14556205
0002d0 ae 32 c3 3e 74 0e fb be 71 4f 3f be 78 ec 94 3e
       0.38124603 -0.49034464 -0.18682648 0.2908666
0002e0 f2 76 ce bd 10 41 fa 3d 44 ca 32 be 5e d8 7e be
       -0.10081281 0.12219441 -0.1745997 -0.24887225
0002f0 4c ad f8 3d b5 17 05 3d 24 5c a6 3e d5 a2 b7 be
       0.12142429 0.032493312 0.32492173 -0.35866418
000300 3c a2 83 be 92 39 01 3f f2 96 69 3e 81 93 6e be
       -0.25709713 0.5047847 0.22811487 -0.23298456
000310 4b b7 0a 3f 68 e4 35 be 75 17 da be dc e9 88 bd
       0.5418593 -0.17762911 -0.4259602 -0.0668523
000320 3a 06 c2 be 1f a7 8c be 34 85 7a be 87 d4 b8 be
       -0.37895375 -0.27471253 -0.24464875 -0.36099645
000330 1d 8b e8 be e2 d6 8a bd 7c c8 14 be 2e ca 9b 3e
       -0.45418635 -0.06779267 -0.14529604 0.30427688
000340 67 08 a7 3d a2 c5 f5 3e ae 2e bc 3c d4 ac da 3e
       0.081558995 0.48002344 0.022971477 0.42709982
000350 f6 ac ac 3e b6 80 93 3e e2 db ec bd 4b e7 01 3e
       0.3372571 0.28809136 -0.11565377 0.12685888
000360 48 8a 8d bb e4 53 6f be cc c4 a8 be 2f 59 1b 3e
       -0.004319463 -0.23371845 -0.32962644 0.1517074
000370 4b 50 a2 bd 5b 81 e9 bd d3 46 20 3f 07 95 77 3e
       -0.07925471 -0.11401626 0.6260807 0.24177943
000380 5a c3 05 3f dc 64 1e bd e2 45 b1 be 1c bb 8e be
       0.5225121 -0.038670406 -0.3462363 -0.27877128
000390 4b 77 f3 3d 1d a5 2d be b8 57 39 bd bb 3c d1 3e
       0.11887988 -0.16957517 -0.04524967 0.40866646
0003a0 f4 ca 88 3e 2b 93 c7 3e 5f 75 0f be 88 bd 22 be
       0.2671734 0.38979468 -0.14009617 -0.15892613
0003b0 55 4c 39 bc 37 51 f6 be 59 2d 63 3d b7 54 19 bf
       -0.011309703 -0.48108837 0.05546317 -0.5989489
0003c0 5d 1f d6 be 7d dd 83 bc 6d 52 0c bf 88 8f c8 bd
       -0.41820803 -0.016096825 -0.5481327 -0.097930014
0003d0 ab 07 f7 bc 38 f0 1a 3e 8b 59 11 bf 46 b7 0f 3d
       -0.030155024 0.15130699 -0.56777257 0.035086893
0003e0 ef d8 fc be 07 d8 95 be 50 31 a7 3d f9 c6 03 bf
       -0.49384257 -0.29266378 0.081637025 -0.51475483
0003f0 b0 16 24 3f 41 2d d7 bd bf c5 51 be d6 5e f1 3e
       0.6409712 -0.105066784 -0.2048559 0.47142667

layer1.0.bias f4 [64]
000000 45 19 ec bd 0c 74 64 3e c4 46 06 40 08 59 37 3d
       -0.11528257 0.22309893 2.0980692 0.04476264
000010 2a 80 e4 3d e4 51 3d be 5f d5 37 3d 95 a5 a5 3e
       0.11157258 -0.1848827 0.04488122 0.32352892
000020 c7 e5 e6 3d b0 c8 8b be e9 a3 12 be 32 c6 36 be
       0.11274295 -0.2730155 -0.1432034 -0.17849043
000030 d7 c0 37 3e 9b 3f b2 3d 21 eb 06 be 1b e8 2d 3c
       0.17944656 0.08703538 -0.13175632 0.01061442
000040 08 b9 b4 3d 6b 2c c9 3c 47 49 fc 3f cc f4 4b 3d
       0.088243544 0.024557313 1.9709862 0.049794003
000050 05 d1 29 be 1a 5e 50 bc 74 0b 4e bc 5f 85 85 3e
       -0.16583641 -0.012717748 -0.012575973 0.26078317
000060 7f b0 8c be b2 8e 66 be da 93 08 3e 67 73 a1 bd
       -0.27478406 -0.22515371 0.13337651 -0.078833394
000070 48 ef b9 3d 5c 19 17 be f9 8a fa 3d 87 52 ef 3f
       0.090788424 -0.14755768 0.12233538 1.869706
000080 b0 a6 85 3e 0a 84 2c 3b 48 d2 fc bb 9d c6 c6 3c
       0.26103735 0.0026323819 -0.007715497 0.024264628
000090 b5 ea 05 3e 30 21 57 be b8 00 5f 3e 0d 61 e3 3f
       0.13077815 -0.21008754 0.21777618 1.7763993
0000a0 4c c4 e3 bc 01 d1 52 3d 1e 8a 2c bd 5b 06 b8 3d
       -0.027803563 0.051468853 -0.042123906 0.08985587
0000b0 d4 83 24 be cc ae 9f 3d dd e1 88 3e ac c8 4b 3f
       -0.16065913 0.07797012 0.2673482 0.79603076
0000c0 cf 32 20 3e 9c 6a fd 3d 25 e2 37 3b 36 f4 1a 3e
       0.15644382 0.1237385 0.0028058377 0.15132222
0000d0 e1 fa b2 3d 99 f6 e7 bc df e4 19 3d 60 b2 a8 3e
       0.087392576 -0.02831583 0.037571784 0.3294859
0000e0 eb 34 29 be e0 c3 05 3e 42 cf 38 40 1d c6 ee 3d
       -0.16524093 0.13063002 2.88765 0.11658881
0000f0 30 ac 99 be 31 cd 05 3e a0 41 a0 bd 43 48 4f 3e
       -0.3001418 0.13066556 -0.07825017 0.2024241

layer1.1.weight f4 [64]
000000 19 7d 3f 3f 7c c7 84 3f 26 2f 02 3e 22 32 9a 3f
       0.7480026 1.0373378 0.12713298 1.2046549
000010 bf 94 62 3f 80 b7 81 3f bf 53 ae 3f 52 b2 e4 3f
       0.8850822 1.0134125 1.3619307 1.7866919
000020 d3 16 83 3f 68 f5 6e 3f 2a 41 90 3f 89 d4 75 3f
       1.024134 0.9334321 1.1269886 0.9602743
000030 66 5d 99 3f f6 97 9e 3f 06 4e 60 3f 80 38 91 3f
       1.1981628 1.2390125 0.87619054 1.1345367
000040 45 2d 86 3f 10 cb b6 3f 2e 31 6c 3f e4 f7 5a 3f
       1.0482565 1.428072 0.9226254 0.855345
000050 e4 b5 82 3f f7 5a 5b 3f e0 69 6d 3f ff f3 9f 3f
       1.0211759 0.85685676 0.9273968 1.2496337
000060 3a 40 74 3f e0 bd b7 3f dd 93 85 3f fb 66 4a 3f
       0.954105 1.435482 1.0435749 0.79063386
000070 e5 a8 5c 3f f4 52 87 3f f5 5d b8 3f 9e 92 4b 3f
       0.8619521 1.057219 1.4403673 0.79520595
000080 5d 32 99 3f 47 60 d8 3f e5 41 85 3f 71 c0 90 3f
       1.1968495 1.6904382 1.0410734 1.1308728
000090 85 03 9d 3f 5a d5 8e 3f 22 df 75 3f 3b b0 56 3f
       1.2266699 1.115886 0.960436 0.83862656
0000a0 5a 33 ad 3f 30 d0 00 3f c8 dd 87 3f 7f b8 8a 3f
       1.3531296 0.5031767 1.0614557 1.0837554
0000b0 72 c2 85 3f 02 94 97 3f ab c8 96 3f 36 df 32 3f
       1.0449965 1.1842043 1.1779989 0.6987184
0000c0 8d 79 ad 3f 98 e1 76 3f b4 4d 7d 3f 7c c9 99 3f
       1.3552719 0.9643798 0.9894669 1.2014613
0000d0 52 08 9e 3f 47 5d f1 3f bd e9 7e 3f 4f 69 bd 3f
       1.2346289 1.8856591 0.99575406 1.4797763
0000e0 f0 48 3f 3f 1d 1a 9a 3f 21 d7 25 3f 21 c5 89 3f
       0.7472067 1.2039219 0.64781386 1.0763284
0000f0 db 62 bc 3f da 4a af 3f 33 ca 4e 3f cd c9 ad 3f
       1.4717668 1.3694718 0.8077728 1.357721

layer1.1.bias f4 [64]
000000 2d f2 92 be 4a 97 fd be 42 d9 77 42 22 49 6b bf
       -0.2870039 -0.49529487 61.962166 -0.91908467
000010 28 c7 ac be e2 df 97 3f 01 02 38 bf 6f 38 01 bd
       -0.33745694 1.1865199 -0.7187806 -0.03154796
000020 ff f8 16 bf 7a 20 e7 bd ec 52 10 be 19 93 08 bf
       -0.5897369 -0.11285491 -0.14094132 -0.53349453
000030 6e 50 5c be 31 3e 02 bf 2f e9 69 bf 35 47 48 be
       -0.21515056 -0.50876147 -0.91371435 -0.19558413
000040 9d 2a c6 be c9 60 f1 be 13 5b 44 42 1d 67 ac be
       -0.38704386 -0.47144154 49.08894 -0.3367242
000050 52 e6 ce be 7b bc d5 be f8 4d 73 be 37 5a 82 bd
       -0.40410095 -0.41745362 -0.23760211 -0.06364863
000060 9e 3a 0e bf f1 26 f1 bc 9a a4 fb 3e e9 84 b9 be
       -0.5555819 -0.029437514 0.4914902 -0.36234215
000070 00 b1 af be a6 73 89 be 20 2a a4 be 03 ee 1f 42
       -0.34314728 -0.26846045 -0.3206339 39.982433
000080 5e 79 1a bf dd 3e ae 3e 46 a3 80 be 98 04 89 be
       -0.6034144 0.34032336 -0.25124568 -0.26761317
000090 84 31 10 3f 00 92 15 bf 1d 76 b8 be 6a 89 0b 42
       0.56325555 -0.58425903 -0.36027613 34.884193
0000a0 fb 17 04 bf 3b f4 d1 bd 86 6c 32 bd b6 2f 6d bc
       -0.5159909 -0.102516614 -0.043560527 -0.014476707
0000b0 48 83 24 bf 3b 2a 8a 3e 15 e4 1b bf 6b 57 a3 41
       -0.6426282 0.26985344 -0.608949 20.417685
0000c0 b9 97 f6 3e 90 3c 0f bf 07 b4 04 3f ee a5 29 bf
       0.4816263 -0.55951786 0.518372 -0.66268814
0000d0 75 81 f4 bd fb b5 d7 3e f6 74 35 3f 4f ad 5d be
       -0.119387545 0.42131028 0.70881593 -0.21648143
0000e0 13 02 fd be 1c 89 86 3d f6 19 53 42 97 98 eb be
       -0.49415645 0.0656912 52.775352 -0.46014854
0000f0 b0 6e 4e 3d 25 9e b9 be be 44 97 bd 75 f5 bf 3f
       0.05039853 -0.36253467 -0.073861584 1.4996783

layer1.1.running_mean f4 [64]
000000 93 82 80 be 54 56 e9 3e c5 03 ef 3f 58 08 5b be
       -0.2509962 0.45573676 1.8673025 -0.21389902
000010 eb b3 96 3e 9f 0c 40 be e9 66 c4 3d 69 57 de 3e
       0.29434142 -0.18754815 0.09589941 0.43426064
000020 6a a3 8e be ef 1f a5 be 02 cf 2a bd e2 08 ad be
       -0.2785905 -0.32250926 -0.041701324 -0.3379584
000030 c3 50 08 3f fd bc 9c bf 51 13 7f 3d 41 62 fb 3c
       0.5324823 -1.2245175 0.06227428 0.0306865
000040 d3 eb bb 3f 46 7c 40 bf 14 ac 0e 40 1f a4 26 be
       1.4681343 -0.75189626 2.2292528 -0.16273545
000050 ca b3 8c be 6a 81 a1 3d aa 43 7b be d0 ea d2 bd
       -0.27480918 0.07886012 -0.2453753 -0.10298693
000060 04 26 d5 be d8 7c b1 be 4d e0 6a 3e c2 2a 9b be
       -0.41630566 -0.3466556 0.22937126 -0.3030606
000070 cd 43 22 be 04 7c 0a be c3 4b 23 be 4e a7 e8 3f
       -0.15846176 -0.1352387 -0.1594687 1.8176057
000080 1e 26 18 be 55 49 dc be fd fa 9e 3f ac 06 e7 3c
       -0.1485829 -0.43024698 1.2420346 0.028201424
000090 39 19 bb bd 94 93 c7 be 90 96 6a 3e be 78 d8 3f
       -0.0913567 -0.3897978 0.22908998 1.6911848
0000a0 ec 14 d3 3c 8a f4 16 3e b3 3c 04 be ef c9 eb 3c
       0.025766812 0.14741722 -0.1291378 0.028782813
0000b0 64 71 1d 3e cc 6b 40 bf e1 89 e1 3e 35 38 89 3f
       0.15375286 -0.75164485 0.44050506 1.0720278
0000c0 79 e5 25 3e 49 8a 47 ba 31 19 05 3e d4 d6 24 3e
       0.16200818 -0.00076118537 0.12997891 0.16097575
0000d0 f9 54 25 3e 44 1b 6d be bd ca 8e 3c cb 1a 61 bd
       0.16145696 -0.23154932 0.017430658 -0.054957192
0000e0 60 9b 35 be 4f cb ac 3d 31 c4 22 40 c8 01 da 3d
       -0.17735052 0.084372155 2.5432246 0.10644871
0000f0 97 94 11 bf 54 be 1c bd 8b a6 43 bd 48 83 31 bd
       -0.56867355 -0.03826745 -0.04776625 -0.04333809

layer1.1.running_var f4 [64]
000000 d3 78 7e 3d 0e 04 88 3d d1 70 95 3d c5 70 e3 3d
       0.062126946 0.06641398 0.07296909 0.111054935
000010 2c bd ed 3c 0a a5 ac 3d 5c b5 8a 3d 42 02 90 3d
       0.029020868 0.08429916 0.06772873 0.07031681
000020 5f bb e1 3d fe 17 6c 3d 57 6f 8d 3d ea 41 ae 3d
       0.11022066 0.05764007 0.06906002 0.08508666
000030 67 60 00 3e 3a 5a 75 3e b2 cc f8 3d 9c 46 73 3d
       0.12536775 0.239602 0.121484175 0.05939351
000040 43 4a 60 3e 7d 74 2a 3e 95 d6 e4 3d 19 98 a9 3d
       0.21903329 0.16645999 0.11173741 0.082809635
000050 7a a0 74 3d 4b 96 78 3d 01 06 92 3d e8 61 b9 3d
       0.059723355 0.060690206 0.071300514 0.09051877
000060 df 0e 8e 3d 0b 4f c3 3d 00 b1 b7 3d 78 41 8d 3d
       0.0693643 0.095365606 0.08969307 0.06897253
000070 cf df 86 3d 9f b4 8d 3c 89 f5 ec 3d 7b 34 e9 3d
       0.06585657 0.01729804 0.115702696 0.11386963
000080 b3 38 f4 3d 56 97 df 3d 1c 1f 4a 3e 54 d5 8a 3d
       0.11924877 0.10917537 0.1973843 0.0677897
000090 19 bf 05 3e 0b 66 89 3d 41 cd 63 3d 7c c6 93 3d
       0.13061179 0.06708916 0.055615667 0.07215592
0000a0 a3 44 93 3d 84 e0 b2 3d 6c 27 e7 3d 9e a7 93 3d
       0.07190826 0.08734229 0.11286816 0.07209705
0000b0 9d 88 9a 3d 14 1d 31 3e 30 23 8d 3d 97 68 8d 3d
       0.07545588 0.17296249 0.06891477 0.069047146
0000c0 15 26 a0 3d 86 ad be 3d ba 9d 82 3d a3 e3 7e 3d
       0.078197636 0.09310441 0.0637774 0.06222881
0000d0 a4 fa 8d 3d 57 31 97 3d 7b 2f 03 3e a0 d4 09 3e
       0.069325715 0.07382458 0.12811081 0.13460016
0000e0 df 60 9f 3d a5 37 ad 3d 2b a9 ad 3d d5 43 86 3d
       0.077821486 0.08457879 0.08479532 0.06555907
0000f0 31 df 91 3d bf b1 d7 3d 6e db 88 3d 69 b8 ef 3d
       0.071226485 0.10531949 0.06682478 0.11705095

layer2.0.weight f4 [64, 64, 3, 3]
000000 d3 96 86 be c7 91 98 3d 66 0e 06 bf cf 50 fc 3e
       -0.26286945 0.0744968 -0.5236572 0.49280402
000010 e5 c3 ae 3d 94 e4 cb bd 6d 3e 52 be 39 a2 70 3e
       0.08533458 -0.09955707 -0.20531626 0.23499383
000020 39 f9 08 be f5 9c 3e be d3 4d 83 3d 89 6e ce 3d
       -0.13376321 -0.18614562 0.06411328 0.10079677
000030 ab 74 9c be f6 fa b5 be 9e 17 8a be 8d 5b 90 be
       -0.3055776 -0.3554303 -0.26971143 -0.28194848
000040 1a ca 2f be bd 9a 34 bc 36 31 59 c0 22 61 36 c0
       -0.1716694 -0.011023221 -3.3936286 -2.8496785
000050 5b 89 80 c0 59 a3 46 c0 00 c8 1a c0 52 46 56 c0
       -4.016767 -3.10372 -2.418457 -3.348042
000060 bc 32 1f c0 6e 7f 25 c0 bc 15 57 c0 ac 27 88 3d
       -2.4874716 -2.5859027 -3.3607016 0.06648192
000070 c7 81 9e 3e 7e 9d 75 3e 67 e6 31 bc 5d 7d 5a 3e
       0.30958387 0.2398586 -0.010858155 0.21336885
000080 d8 f1 c7 3e d7 cb ab 3d 71 38 0b bf 27 39 c9 3e
       0.390517 0.08388489 -0.54383 0.39301416
000090 6e 79 aa bd b5 0e a6 bb df 10 7c 3c 87 63 fb be
       -0.08323942 -0.005067671 0.015384882 -0.4909937
0000a0 ea 7e 2b 3e c7 df fb be 63 76 a5 3e 80 91 4a 3e
       0.16747633 -0.49194166 0.32316884 0.19782066
0000b0 c5 a0 e9 3d c5 70 48 bc bb d2 f4 bd 0a 70 2d be
       0.114076175 -0.012233918 -0.11954256 -0.16937271
0000c0 55 99 1c bf 6e 71 08 3e dc 67 85 3e c9 6c 71 b8
       -0.61171466 0.1332452 0.260558 -5.756019e-05
0000d0 03 aa c0 3c 19 86 04 bd 33 e1 15 be 13 18 58 be
       0.023518568 -0.032354448 -0.14636688 -0.21102934
0000e0 4e 9d cd 3c 68 8d 59 3e e9 88 08 3f 4a 15 86 3e
       0.025099423 0.21245348 0.5333391 0.26188117
0000f0 8e 12 0e bf e8 c4 aa be 99 94 d5 be e3 aa aa 3e
       -0.5549706 -0.33353353 -0.41714934 0.333335
000100 19 80 82 3e 5e 56 d5 be 42 81 f7 bc c8 15 c2 3e
       0.25488356 -0.41667455 -0.030213002 0.37907243
000110 75 aa fd be 63 bb 8c be 7b 69 fa 3b c2 ca a3 be
       -0.4954411 -0.27486715 0.007641969 -0.3199063
000120 1a ef 45 3d 65 5c 88 3e 8a c0 e3 be 3c 19 ca 3e
       0.04832373 0.2663299 -0.44482833 0.39472377
000130 43 fa d2 3e fa f7 07 be 15 13 43 3e 7c a8 8a 3e
       0.4120656 -0.1327819 0.19050248 0.27081668
000140 57 61 7c 3e 23 0b 61 3e 6c e2 19 bc 05 6f 4c be
       0.24646507 0.21976905 -0.009392362 -0.19964226
000150 85 61 d1 3e ad bf 58 3e ad 0b dd 3e b5 8c cb bd
       0.40894714 0.21166869 0.4317297 -0.09938947
000160 45 ac ba 3c e7 6c 12 be 07 5e f7 be b5 9e 06 3f
       0.022787223 -0.14299355 -0.48313925 0.5258592
000170 5b 6a 2b 3d 36 01 00 bf 89 c1 2b bd 96 07 d8 be
       0.041849475 -0.5000185 -0.041932616 -0.42193288
000180 7d 59 83 be 63 0d 4d 3f d5 4c 9c be 90 6f 68 3d
       -0.25654212 0.8009855 -0.30527368 0.05674702
000190 f2 60 a9 3e 9d d8 01 be 51 30 20 3c 06 16 61 be
       0.33081776 -0.12680288 0.0097771445 -0.21981058
0001a0 03 de 12 3e 83 6a 14 3e 47 d4 cc 3e ca fb 3e be
       0.14342503 0.14493756 0.40005705 -0.18650737
0001b0 88 8c a4 be c2 0a 0e 3e 41 d5 2f 3e a2 dc 59 be
       -0.32138467 0.13871291 0.17171194 -0.21275571
0001c0 0a 5c 8e be 00 40 2a bd aa 32 d2 be 8c 8e 98 3e
       -0.27804595 -0.04156494 -0.4105428 0.29796255
0001d0 b1 28 dd bd 5a e2 0b be b0 b5 9f 3e 44 74 78 3e
       -0.10798777 -0.13660565 0.31193304 0.24263102
0001e0 27 3b 8e 3e ce 4b 30 3e 07 ea 09 3e d6 bd 9f 3d
       0.27779505 0.17216417 0.1346818 0.0779988
0001f0 49 82 72 bd 80 cd bc 3e 95 42 4d be ad f1 1d be
       -0.05920628 0.36875534 -0.2004493 -0.15424223
000200 f8 22 30 bf f5 42 94 be 0e 12 5b bd 43 6f 1f bf
       -0.6880336 -0.28957334 -0.053484015 -0.62279147
000210 98 34 ce be c4 65 91 bd 92 b1 b9 be d4 d1 ae 3e
       -0.402745 -0.070994884 -0.36268288 0.3414446
000220 a8 bc 77 3e 73 f4 66 3e 37 12 87 be 66 13 71 be
       0.2419306 0.22554187 -0.26381084 -0.23542556
000230 b0 ee 99 be 94 2f 90 bd 5f 28 05 bd 3d c5 cc 3e
       -0.30064917 -0.07040325 -0.032509204 0.3999423
000240 b4 e1 91 be c1 42 34 be fa 38 98 3e 62 17 c8 bd
       -0.2849251 -0.1760359 0.2973097 -0.09770085
000250 99 68 69 bd 53 43 db 3e 03 46 9f be b2 c4 62 be
       -0.056984518 0.42824802 -0.31108102 -0.22145346
000260 3a 15 1d 3e 2f 8a 1d 3e 9a bf ba 3e 33 a6 d3 3d
       0.15340129 0.15384744 0.36474305 0.10334434
000270 5e cd 7c be c4 20 9e bd 94 f3 1d bd e8 8c a2 3c
       -0.24687716 -0.07721093 -0.038562372 0.01984258
000280 a9 07 c3 be 29 ba 92 3e 78 11 50 be 6e 6f a2 3c
       -0.38091782 0.28657654 -0.20319164 0.019828524
000290 10 e4 b8 be 92 64 e2 be bb 50 1b bf 4d 64 8b be
       -0.36111498 -0.44217354 -0.6067006 -0.2722496
0002a0 22 a0 be be f1 07 e2 be 43 ca dd be 74 b5 1b bd
       -0.37231547 -0.44146684 -0.43318376 -0.038014844
0002b0 93 90 2d bf 7f 56 08 3e 14 fb 03 bf 84 15 0f bf
       -0.6779873 0.13314246 -0.5155499 -0.55892205
0002c0 18 4c 13 be 43 d9 c9 3e 04 2e d6 3e 60 35 4c 3f
       -0.14384496 0.3942357 0.41831982 0.79768944
0002d0 a3 3d 21 3d 74 ef 88 3d 80 59 d3 be 63 1e ae 3d
       0.039365422 0.06686297 -0.4127922 0.085018896
0002e0 61 21 d0 bd c9 0a 35 bf c8 ff b5 3e a0 cb 40 3e
       -0.101626165 -0.7071958 0.35546708 0.18827677
0002f0 64 17 90 bd 11 11 1c 3f e5 3b d0 3e 5b 8f b6 be
       -0.070357114 0.6096354 0.40670696 -0.35656247
000300 08 59 6d 3e 42 f7 4c 3b 8b cd 47 bf 7e 7b 0a 3e
       0.23178494 0.0031275307 -0.7804801 0.13523671
000310 e4 68 0f 3f af 2f ea bd f3 7a 0a bf 44 b3 5b be
       0.56019425 -0.11434876 -0.54093856 -0.21455103
000320 7f d1 0e bf 6a 6c b1 bd e4 bd a5 be 63 87 12 bf
       -0.55788416 -0.086632565 -0.32371438 -0.57237834
000330 19 bd 91 3e ad e2 62 3f a5 c4 97 3d f5 df 0a bf
       0.28464583 0.8862713 0.07410554 -0.5424798
000340 e9 c1 fc 3e a8 4e d4 be fe c1 26 3e 9d a0 ea 3e
       0.49366692 -0.4146626 0.1628494 0.45825663
000350 5e 0b b3 be 91 92 0a bf da a1 35 be 82 3c 05 bf
       -0.3496961 -0.5412989 -0.17737523 -0.5204545
000360 41 e5 a8 bc d9 e8 93 3d ff ed 1f be ba d2 f3 be
       -0.02061713 0.072221465 -0.15618132 -0.4762171
000370 93 58 a9 3d f7 a4 fa be 79 21 d8 bc 2f f9 db 3e
       0.08268847 -0.48953983 -0.026383149 0.4296355
000380 15 d4 a7 3e 7d ee 80 be 63 28 fc 3d 59 d6 dc 3c
       0.32778993 -0.25181952 0.12312391 0.026957678
000390 9a 7e 4e 3c 20 e8 0a 3d 2f cf 4d 3e 58 27 47 3e
       0.012603426 0.033912778 0.20098566 0.19448602
0003a0 82 fa 02 3f 4d 1e a9 3e 69 38 b0 bd 9d cf 10 3e
       0.51163495 0.3303093 -0.086045094 0.14141698
0003b0 d1 17 6b be 02 e1 91 be de 91 39 be 42 e3 90 bd
       -0.22958304 -0.2849198 -0.1812205 -0.07074596
0003c0 52 16 4b be 3d 6f 24 3e 41 c5 18 bf cf 14 67 3d
       -0.19832733 0.16058059 -0.59675986 0.05641633
0003d0 31 72 c5 3c 04 56 fe be 58 bc 12 be b2 d6 a4 be
       0.024102302 -0.49675 -0.1432966 -0.3219505
0003e0 b1 5f 7b bd 74 2b 6e 3d 22 4d 9f 3d e1 db ff bd
       -0.061370555 0.05814691 0.07778384 -0.124931104
0003f0 5a 16 90 3e 7f 88 89 be de 85 55 be fe 18 ae be
       0.28142053 -0.2686195 -0.20851848 -0.34003443

layer2.0.bias f4 [64]
000000 3f 48 d2 c1 5a e2 db c1 12 f6 d3 c1 e6 a4 de c1
       -26.285276 -27.485523 -26.495152 -27.830517
000010 ee fb d9 c1 fa 6d d5 c1 6b d8 da c1 ce ff d7 c1
       -27.248013 -26.6787 -27.355673 -26.999905
000020 74 92 d3 c1 9b c4 d9 c1 6c 3a d6 c1 17 48 d2 c1
       -26.44651 -27.220999 -26.778526 -26.2852
000030 a2 9a df c1 cc dc d6 c1 75 2d db c1 47 e0 d8 c1
       -27.950504 -26.857811 -27.397196 -27.10951
000040 0d 5c d6 c1 2e 0b cc c1 71 a4 d0 c1 3e 72 d2 c1
       -26.794947 -25.505459 -26.080294 -26.305782
000050 f4 31 d6 c1 14 c9 da c1 3c 5e c6 c1 41 f1 d9 c1
       -26.774391 -27.348183 -24.796013 -27.2428
000060 70 73 d4 c1 5d fb c7 c1 f8 db da c1 a8 4e db c1
       -26.556366 -24.997736 -27.357407 -27.413406
000070 af f2 dc c1 95 48 c3 c1 0d 0a db c1 eb 2e d8 c1
       -27.618498 -24.41044 -27.379908 -27.02291
000080 1e fa db c1 cc 2c db c1 2c d2 c6 c1 36 0e d5 c1
       -27.497128 -27.396873 -24.852623 -26.631939
000090 95 e3 d0 c1 bc 4a d3 c1 85 6e d3 c1 ba d8 ca c1
       -26.111124 -26.411491 -26.428965 -25.355824
0000a0 58 da d2 c1 15 a3 cc c1 8b 9a d6 c1 59 a3 cc c1
       -26.356613 -25.57963 -26.82546 -25.57976
0000b0 4c 50 d8 c1 21 22 ce c1 a8 b2 d4 c1 94 a3 d6 c1
       -27.039207 -25.766665 -26.587234 -26.829872
0000c0 00 6e cd c1 e7 09 d3 c1 4b e1 d4 c1 52 50 d9 c1
       -25.67871 -26.379835 -26.610006 -27.164219
0000d0 82 e2 c9 c1 e0 17 d7 c1 ab 70 d6 c1 8b fa d5 c1
       -25.2356 -26.886658 -26.805014 -26.747335
0000e0 42 36 c5 c1 8d 43 d5 c1 d9 08 dc c1 d7 d5 dc c1
       -24.651493 -26.657984 -27.50432 -27.604414
0000f0 91 eb e7 c1 b7 f9 d3 c1 78 b7 d7 c1 dd 86 d4 c1
       -28.990023 -26.496931 -26.964584 -26.565851

layer2.1.weight f4 [64]
000000 8b e9 7e 3f 7f 50 a2 3f 88 04 91 3f fb 2e 8c 3f
       0.9957511 1.2680815 1.1329508 1.0951837
000010 6d 4b a1 3f 48 36 85 3f 7c b6 99 3f fb c0 80 3f
       1.2601143 1.040719 1.2008815 1.0058893
000020 fb eb 87 3f 60 39 8b 3f 98 8e 85 3f bd 2b 7f 3f
       1.061889 1.0876884 1.0434141 0.99676114
000030 76 49 a7 3f c2 86 5d 3f d3 32 ac 3f ef 8e 9f 3f
       1.3069293 0.8653375 1.345301 1.2465495
000040 55 53 a3 3f 1f fa 62 3f ca 85 7f 3f 42 5d 94 3f
       1.2759806 0.88662905 0.9981352 1.159096
000050 fe 78 86 3f d0 b4 a2 3f 6f 08 4f 3f 96 08 92 3f
       1.0505674 1.271143 0.80872244 1.140887
000060 9d 6c 6e 3f 51 18 31 3f 4f 92 9e 3f a0 a3 9d 3f
       0.9313448 0.6917773 1.23884 1.2315559
000070 32 33 96 3f 08 00 48 3f 47 2c 9f 3f 30 4f 81 3f
       1.1734374 0.7812505 1.2435387 1.0102291
000080 79 e3 94 3f 2c 72 96 3f 2d e2 82 3f 17 97 8e 3f
       1.1631919 1.1753592 1.0225273 1.1139859
000090 70 25 96 3f c9 aa 7d 3f eb 5d 67 3f b5 89 80 3f
       1.1730175 0.9908872 0.9037768 1.0042025
0000a0 59 e1 69 3f 6d 59 51 3f d7 d8 58 3f dd 12 6e 3f
       0.9135948 0.8177708 0.8470587 0.92997533
0000b0 99 8e 83 3f 8b 95 4e 3f 9e fa 8b 3f be 00 8b 3f
       1.0277892 0.80696934 1.0935857 1.0859601
0000c0 83 ce 46 3f 62 a9 88 3f a7 12 73 3f f2 35 73 3f
       0.7765886 1.0676692 0.94950336 0.9500419
0000d0 28 9d 56 3f a5 ec 99 3f 24 5d 80 3f 43 d6 5a 3f
       0.8383355 1.2025343 1.0028424 0.8548319
0000e0 be 92 70 3f 3d e4 75 3f a2 64 a9 3f 63 9e 99 3f
       0.9397391 0.9605139 1.3233836 1.2001461
0000f0 2c a7 91 3f 21 b0 54 3f 9e 98 96 3f 74 60 61 3f
       1.1379142 0.8308125 1.1765325 0.880378

layer2.1.bias f4 [64]
000000 4c c8 42 3e 7b c4 df be 4a 19 b8 bd 80 88 d2 3d
       0.1902172 -0.4370459 -0.089891985 0.102799416
000010 cf 86 00 bd f7 98 fe be a2 ec e5 bd 81 d8 f8 be
       -0.031378563 -0.49726078 -0.11226775 -0.4860268
000020 08 6d 7e bd 4f 07 ac be f4 36 16 bd 2b 89 26 3e
       -0.0621157 -0.33599326 -0.0366735 0.16263263
000030 cc 68 3f 3f 7f 4b 38 bf ab 98 32 3f 3c 3e 32 3e
       0.7476928 -0.719902 0.697642 0.17406553
000040 7c df 13 be b1 a4 71 3d dd 3c 75 3e a6 1d 0e bf
       -0.14440721 0.058994953 0.23948999 -0.5551399
000050 a0 71 d8 bd b8 9f d7 bc 0d 1f ef be 58 ac c4 bd
       -0.10568547 -0.026321277 -0.46703377 -0.096031845
000060 d0 98 73 be b6 28 1c bd d4 56 4e 3f a1 4d b3 3c
       -0.23788762 -0.038124762 0.8060124 0.021887602
000070 3c 28 8e be 48 da 8f be ff 43 18 3d 93 a8 23 bf
       -0.2776507 -0.28096223 0.03717422 -0.639291
000080 ee 03 0c bf 65 f5 97 bd a1 cf 52 be 33 c0 12 bf
       -0.54693496 -0.07419852 -0.20587017 -0.5732452
000090 84 8b 2a be 3d bc 35 be 92 a1 39 be a6 7f 9e bd
       -0.16654783 -0.17747588 -0.1812804 -0.07739191
0000a0 17 c5 01 bb b0 e3 0f 3e 17 02 8e be 63 96 cc bd
       -0.0019801313 0.140517 -0.2773597 -0.099896215
0000b0 c0 c6 c5 be 6b 8c 94 be c7 3f 84 be 28 39 8f 3e
       -0.38628197 -0.2901338 -0.25829908 0.27973294
0000c0 b6 63 2d bd 4e a7 94 be 92 5e 33 be 95 29 05 3d
       -0.04233142 -0.29033893 -0.17516544 0.03251036
0000d0 f7 a1 b1 bd 98 22 ab be 16 ee cf 3e 5a 4b 52 be
       -0.086734705 -0.3342483 0.40611333 -0.20536557
0000e0 67 1d 2a bf f3 cf 20 3d 95 b0 11 3f 3d 53 07 3e
       -0.66451114 0.039260816 0.5691007 0.13215347
0000f0 ee aa 96 bc 45 6f 13 be 79 90 5c bd 83 85 3f 3e
       -0.018392053 -0.14397915 -0.053848717 0.18703274

layer2.1.running_mean f4 [64]
000000 bf c8 21 c5 f2 c3 08 c5 a6 77 10 c5 8b ff 0a c5
       -2588.5466 -2188.2466 -2311.478 -2223.9714
000010 60 2f 18 c5 69 ca 19 c5 ef 00 14 c5 1c 02 1b c5
       -2434.961 -2460.6506 -2368.0583 -2480.1318
000020 a6 a7 05 c5 04 09 eb c4 ce 29 1d c5 02 f8 23 c5
       -2138.478 -1880.2817 -2514.6128 -2623.5005
000030 e2 f6 12 c5 a5 01 e6 c4 ed 84 f9 c4 df eb 03 c5
       -2351.4302 -1840.0514 -1996.1539 -2110.742
000040 f8 89 0d c5 ec f4 11 c5 71 44 09 c5 99 4a b6 c4
       -2264.623 -2335.3076 -2196.2776 -1458.3312
000050 d0 e3 16 c5 e9 25 1a c5 e1 e0 4f c5 64 50 00 c5
       -2414.2383 -2466.3694 -3326.055 -2053.0244
000060 4a 81 db c4 83 08 14 c5 a8 4e e5 c4 cb 4b 2f c5
       -1756.0403 -2368.532 -1834.458 -2804.737
000070 70 0b 1b c5 6e 0b 48 c5 d8 04 f1 c4 31 9b 13 c5
       -2480.7148 -3200.7144 -1928.1514 -2361.6995
000080 48 87 28 c5 42 9f 1c c5 d9 9b 4e c5 65 58 d1 c4
       -2696.455 -2505.9536 -3305.7405 -1674.7623
000090 e4 f1 22 c5 1e a9 09 c5 b9 29 1a c5 9a 7f 13 c5
       -2607.1182 -2202.5698 -2466.6077 -2359.975
0000a0 95 78 19 c5 ea e9 d9 c4 7c 90 37 c5 9d 05 31 c5
       -2455.5364 -1743.3098 -2937.0303 -2832.3508
0000b0 ee f8 db c4 a7 2e 2a c5 37 62 1d c5 cd dd e4 c4
       -1759.779 -2722.9158 -2518.1384 -1830.9313
0000c0 ae 60 e5 c4 db cf fb c4 6a a0 20 c5 6b 81 11 c5
       -1835.0212 -2014.4955 -2570.026 -2328.0886
0000d0 33 0d ff c4 16 a5 1b c5 82 c6 0d c5 01 b8 f1 c4
       -2040.4125 -2490.3179 -2268.4067 -1933.7501
0000e0 d9 98 27 c5 ec 4c 18 c5 f0 e7 0d c5 a3 64 03 c5
       -2681.553 -2436.8076 -2270.496 -2102.2898
0000f0 ad 46 15 c5 96 08 13 c5 18 75 24 c5 33 f0 18 c5
       -2388.4172 -2352.5366 -2631.3184 -2447.0125

layer2.1.running_var f4 [64]
000000 41 53 ec 42 d9 cb 84 42 82 f2 ee 42 1b 25 ae 42
       118.162605 66.39814 119.47365 87.07247
000010 3a c7 e8 42 1d 6f 9f 42 fa 87 9e 42 fd b7 9c 42
       116.389114 79.71702 79.26558 78.35935
000020 96 06 ff 42 59 d5 dc 42 da 08 df 42 a5 65 be 42
       127.51286 110.416695 111.51729 95.198524
000030 dc 09 a6 42 05 3c a6 42 2c 7d e3 42 8e 89 99 42
       83.01926 83.117226 113.74448 76.76866
000040 00 52 01 43 02 27 1b 43 e6 9f cd 42 27 dd d8 42
       129.32031 155.15237 102.8123 108.43194
000050 79 a9 00 43 89 b5 98 42 8e b1 2c 43 af 0c a7 42
       128.662 76.35456 172.69357 83.52477
000060 03 1d bb 42 5c 00 b2 42 74 cd c3 42 7c cc ff 42
       93.55666 89.0007 97.901276 127.89938
000070 57 1b c2 42 96 29 41 43 2d 2b c3 42 96 53 b8 42
       97.0534 193.16245 97.58433 92.16325
000080 ea 01 bd 42 4b 3e e1 42 ea 0d 16 43 e1 37 03 43
       94.50374 112.621666 150.05435 131.21828
000090 72 3a 08 43 03 43 d1 42 2b 6b 9e 42 1e a9 33 43
       136.2283 104.63088 79.20931 179.66061
0000a0 7d 24 dd 42 10 12 06 43 73 8a a4 42 96 32 1d 43
       110.571266 134.07056 82.27041 157.1976
0000b0 ed 14 b0 42 45 29 e6 42 7c 75 ba 42 0f b2 f2 42
       88.04087 115.080605 93.22946 121.34777
0000c0 5d 7b f0 42 df 09 e1 42 e1 88 d9 42 fd 44 81 42
       120.240944 112.51928 108.76734 64.63474
0000d0 7a 7e c4 42 fc fe c2 42 e8 60 92 42 bd 84 80 42
       98.247025 97.49802 73.18927 64.259254
0000e0 28 8b 36 43 17 5d 03 43 6f 87 d0 42 bf 97 b6 42
       182.54358 131.36363 104.26452 91.29638
0000f0 c3 57 72 42 8b e6 fc 42 f9 4c d8 42 d0 62 87 42
       60.585705 126.45028 108.15034 67.69299

layer3.0.weight f4 [64, 64, 3, 3]
000000 74 a1 9a 3e b4 a5 85 3e 9a 3e cf 3e 04 0d d5 3e
       0.30201304 0.26102984 0.4047745 0.41611493
000010 3e c6 3c 3d f3 51 b7 3e 8b 54 ce 3e 79 11 2d be
       0.046087496 0.3580471 0.40298876 -0.16901197
000020 fd 00 04 3f e4 e2 8b bd fb 6e 89 be 68 a0 97 3e
       0.5156401 -0.06830385 -0.26842484 0.29614568
000030 17 af 5b be 6e 79 13 bf ed ed b5 3d 82 bf a5 3e
       -0.2145351 -0.5760716 0.08883271 0.3237267
000040 8b 02 19 be a1 18 19 3f 30 a5 a3 3d 33 b5 e2 3d
       -0.14942376 0.59803206 0.079904914 0.11069717
000050 00 1a 9f 3e 14 0b b4 bd 6f da 38 3e 19 9b b6 3e
       0.31074524 -0.087911755 0.18052076 0.35665205
000060 43 93 72 be fe 0c 73 3e 35 58 2b 3f 4e f8 e9 3d
       -0.23688988 0.23735425 0.6693147 0.114243135
000070 91 57 66 be 21 c0 88 bd b1 37 5e 3d 3d 79 32 3e
       -0.22494341 -0.06677271 0.05425233 0.17429061
000080 d7 5a f6 3c d1 72 ac bd f4 cc 82 3e 89 61 d8 bd
       0.030072613 -0.08420337 0.25546992 -0.10565478
000090 18 34 f8 3d b5 f3 f3 be b5 f8 4e bd 17 2f f5 3e
       0.12119311 -0.4764687 -0.050530154 0.4788749
0000a0 bf 4f 83 3d 14 6d ed 3c 31 b5 bd be 1f 9b 6a be
       0.06411695 0.028982677 -0.370523 -0.22910737
0000b0 09 d7 08 3e 1b 1f 83 bd 19 b4 91 3e 9e 21 29 3f
       0.1336328 -0.06402417 0.28457716 0.6606692
0000c0 3b be 54 be e0 3f 61 be 1c a2 8f 3c 64 fa 2e bd
       -0.20775692 -0.21997023 0.017533354 -0.04271926
0000d0 6c 5a 4d 3e d0 f0 65 3f bd 4b d2 be 75 6b 38 3e
       0.20054024 0.89820576 -0.4107341 0.18009742
0000e0 35 d8 49 be ca 66 a4 be f7 8c c0 3d b1 0e 9c be
       -0.19711383 -0.32109672 0.09401887 -0.3047996
0000f0 7f f1 36 bd 5c 5b b1 3e 58 74 b4 be 86 82 b6 3c
       -0.044663902 0.34640014 -0.35245013 0.022279035
000100 98 1b 0e 3e db 03 b3 be 7c 3c d8 be d6 08 a2 3e
       0.13877714 -0.3496388 -0.42233646 0.31647366
000110 65 0c d6 be 5a 21 92 be b8 29 65 3e fc 8d 07 3e
       -0.4180633 -0.2854107 0.22379196 0.13237756
000120 3d 3b f1 3d e7 7a ff bd 42 f9 05 3e 0f e9 5f 3d
       0.11778877 -0.12474614 0.13083366 0.05466562
000130 47 7a c3 be e2 94 c1 3e 61 6a e2 be 91 f6 b5 be
       -0.38179228 0.378089 -0.44221786 -0.35539678
000140 91 6f 80 be d1 9e fc 3d 34 16 8b 3d 8d c9 15 be
       -0.25085118 0.12334979 0.06791344 -0.14627667
000150 55 fc 48 be c6 6b cd be e8 16 de be 11 8c ae bc
       -0.19627507 -0.40121287 -0.4337685 -0.021307023
000160 17 40 a2 be b7 c1 05 bf c6 f9 95 bd 49 66 bd 3e
       -0.31689522 -0.5224871 -0.07323031 0.369921
000170 fd a1 71 be f5 51 8b 3c 1e 50 f4 3d 8b 20 57 bf
       -0.2359695 0.017006854 0.11929344 -0.8403403
000180 16 ec 49 bd c2 67 a4 bd 94 8e c6 be 0e ca b4 3d
       -0.049297415 -0.08027603 -0.38780653 0.088276014
000190 b3 b5 3e 3e 6c 8e 2c be 1e e5 1c 3e af ad 5a 3d
       0.18624 -0.16851205 0.15321776 0.053388294
0001a0 48 20 86 3d 3f 18 bb bc b9 b4 0d bd dc 10 8b 3e
       0.06549126 -0.02283871 -0.03459618 0.271613
0001b0 05 71 39 bd fd e7 a3 39 40 fa 8e 3e 44 d1 44 be
       -0.0452738 0.00031262627 0.279253 -0.19220454
0001c0 bb 65 b2 3e 90 98 0b 3f 98 bb 94 be 67 89 48 3e
       0.3484324 0.54529667 -0.29049373 0.19583665
0001d0 00 62 3e 3e c5 91 60 3e 1d c1 a9 3d 1a b5 4a be
       0.18592072 0.21930607 0.082887866 -0.19795647
0001e0 9d 29 27 bd 5a cd ba be 22 a4 ef be ca a8 2c be
       -0.04081117 -0.36484796 -0.4680491 -0.16861263
0001f0 5f a9 1d bf 11 9b 12 bf 2e 74 f4 be 00 b9 77 be
       -0.61586565 -0.5726786 -0.47744888 -0.24191666
000200 32 c9 4d 3e 75 cc c4 3d a7 53 04 3f a4 59 02 3f
       0.20096281 0.096093096 0.51690143 0.5091803
000210 2b 74 67 bd 54 bc f9 bc 07 da c1 3e 5c 69 68 be
       -0.05650727 -0.03048531 0.37861654 -0.22696441
000220 47 4a b8 bd 6c 6f a9 3e 6d b8 87 be c6 b0 f2 bd
       -0.08998542 0.3309282 -0.26507893 -0.11850123
000230 a3 33 bd be da 13 f6 be f9 0a bb 3e 42 ee f9 3e
       -0.36953458 -0.4806202 0.3653181 0.4881459
000240 24 36 a0 be bd 3b e0 3e be a6 44 3e 5b bf 8a 3e
       -0.31291306 0.43795577 0.19204232 0.27099118
000250 35 ec 73 3e 99 7e 69 3d 25 11 f7 3d 27 e4 bb 3e
       0.23820575 0.0570055 0.12063817 0.36697504
000260 c0 57 17 bf af 2a 11 3e a3 01 4f bd 99 55 3e 3e
       -0.5911827 0.14176439 -0.05053867 0.1858734
000270 3b ca fc 3d 92 a6 c0 bd 62 4d 26 3e 68 d2 bb bd
       0.1234326 -0.09406771 0.16240457 -0.09170991
000280 65 ce 50 3e db e2 1d 3f cd 10 71 3d 94 52 12 3c
       0.20391233 0.6167428 0.058853913 0.008930821
000290 c5 54 e9 3e 96 77 95 bd 93 20 83 be 76 5e 4c 3e
       0.45572487 -0.072982 -0.2561079 0.19957909
0002a0 2d 7c 83 3e d3 8a fd bd 08 7b a9 3e 06 4e 8b 3c
       0.25680676 -0.12379994 0.33101678 0.017004978
0002b0 f0 b2 25 be 63 5b f1 bc cb 46 84 3e bb 77 1b be
       -0.1618154 -0.029462522 0.2583526 -0.15182392
0002c0 d8 7e 02 3f ae 4a ba 3e 3b b9 a9 3d 80 ea 98 3e
       0.509748 0.363851 0.08287283 0.2986641
0002d0 8d a9 b2 bd 05 ab 5c be 46 54 ba be eb 35 6b bd
       -0.087237455 -0.21549614 -0.3639242 -0.057424467
0002e0 8b c8 07 3e 09 61 de be 31 ed 7e 3d 65 1b 40 3c
       0.13260095 -0.43433407 0.062237922 0.011725281
0002f0 55 80 86 bd 94 3e d5 be 09 24 f0 3e 71 d3 24 3d
       -0.06567446 -0.41649306 0.46902493 0.04024071
000300 db 2d f5 be af 6b 6f 3d 70 8b c9 be e0 3b 32 be
       -0.47886547 0.058452304 -0.39364195 -0.17405653
000310 8b 6f 87 bf 09 b7 9f be 30 f6 fe be 10 62 98 3e
       -1.0580915 -0.31194332 -0.497972 0.29762316
000320 16 5b aa be 51 ca cd be 4d e0 83 be fe 07 9a be
       -0.33272618 -0.40193418 -0.25757065 -0.30084223
000330 8b 62 ef bd 08 35 81 3e ce c1 9c be 0d 46 15 be
       -0.116887175 0.25235772 -0.3061661 -0.14577504
000340 7e 12 b8 bd 1b 1f 4c bd b2 56 9f bc 98 e8 07 3f
       -0.08987902 -0.049834352 -0.01945052 0.53089285
000350 13 07 2b be 16 84 26 bf d7 d8 20 3d c6 43 8a be
       -0.16701917 -0.650453 0.039269295 -0.27004832
000360 7e 2e 2d bf c6 da 6f be ac 32 bc be 19 34 82 be
       -0.67649066 -0.23423299 -0.3675741 -0.25430372
000370 33 24 ac bd 90 d5 21 3f 30 47 de bc d0 76 c7 3e
       -0.08405342 0.63216496 -0.027133554 0.38957834
000380 b8 b4 99 3e be f1 36 bd 51 52 77 3c 45 64 f8 3e
       0.3002069 -0.044664137 0.015095309 0.48514
000390 88 c9 f8 3d c1 4c 90 be 85 26 08 3f 3d c1 ee bd
       0.12147814 -0.2818356 0.53183776 -0.11657951
0003a0 2a ff a6 3e 86 30 1f 3f 3d 5d a3 3e 8f 2f f4 3e
       0.3261655 0.62183416 0.31907073 0.47692534
0003b0 f5 12 3e 3e 36 0a a1 3e 86 86 e5 3e ec 4d a4 3e
       0.18561919 0.31453103 0.44829196 0.320907
0003c0 90 b1 94 be dd 86 e0 3d a1 ff fa be 80 71 27 3d
       -0.2904172 0.10963223 -0.49023154 0.040879726
0003d0 ea 4b 43 bd 9c 74 e5 bd bc d0 3c be 6e ac d2 3d
       -0.04767982 -0.11203882 -0.18439001 0.102867946
0003e0 40 f1 10 bf 90 ec 7c 3e a6 79 21 3e b3 41 e6 be
       -0.5661812 0.24699616 0.15769061 -0.44972
0003f0 d2 13 28 be 86 ad d1 bd 1d b6 01 3e b3 95 a1 be
       -0.16413811 -0.10238175 0.12667127 -0.31559524

layer3.0.bias f4 [64]
000000 0f 0d 17 42 1b 9c 0a 42 8c 84 25 42 c1 95 f0 41
       37.762753 34.652447 41.37944 30.073122
000010 19 44 0a 42 a3 7c ee 41 56 71 c5 41 24 90 01 42
       34.5665 29.810858 24.68034 32.390762
000020 32 70 1c 42 ad 04 1d 42 bf 3e 09 42 b5 b4 15 42
       39.109566 39.254566 34.311275 37.42647
000030 6e 54 02 42 b3 46 1a 42 6b 29 fd 41 c5 7c 1e 42
       32.58245 38.569042 31.645224 39.621845
000040 de 18 0d 42 95 4b ce 41 be 09 1e 42 0f a4 04 42
       35.274284 25.786905 39.509514 33.160213
000050 8b 16 d4 41 de 24 fd 41 72 28 06 42 dc 3f 0b 42
       26.511007 31.643002 33.539497 34.812363
000060 91 8f 01 42 73 dd f2 41 81 9f ff 41 8f 30 1b 42
       32.3902 30.35813 31.952883 38.79742
000070 a4 91 00 42 06 11 0e 42 43 6f 10 42 a8 94 06 42
       32.142227 35.516624 36.108654 33.645172
000080 56 d3 10 42 ea 71 21 42 15 58 23 42 06 09 f7 41
       36.206383 40.361244 40.836018 30.879406
000090 6d 24 12 42 ab 99 14 42 6f 64 00 42 79 6d 00 42
       36.535572 37.150066 32.09808 32.106907
0000a0 ed 7d fd 41 85 25 fa 41 b4 79 ca 41 04 bf 17 42
       31.686487 31.26832 25.309425 37.93654
0000b0 25 f8 fd 41 70 2f 02 42 48 1a 1a 42 f0 21 00 42
       31.746164 32.546326 38.525665 32.033142
0000c0 20 3b 17 42 69 cc 0e 42 5d 33 1c 42 cc f6 1d 42
       37.80774 35.69962 39.05016 39.491013
0000d0 53 7f 04 42 4f c4 04 42 53 f5 ea 41 63 b0 1a 42
       33.12434 33.191708 29.369787 38.672253
0000e0 f2 09 10 42 f7 99 1e 42 17 89 17 42 dc d3 07 42
       36.009712 39.650356 37.883877 33.956894
0000f0 e1 98 d2 41 ef cb 1e 42 da 76 12 42 fd a3 16 42
       26.324648 39.699154 36.616066 37.660145

layer3.1.weight f4 [64]
000000 81 e5 8c 3f 11 e9 76 3f 45 f5 9f 3f 4a 99 5a 3f
       1.1007539 0.9644938 1.2496725 0.8539015
000010 c9 4e 61 3f a5 91 50 3f c3 c9 48 3f 84 41 64 3f
       0.8801084 0.81472236 0.78432864 0.8916247
000020 f3 fd 8c 3f 96 e4 93 3f 16 f0 82 3f 43 e7 8f 3f
       1.1014999 1.1554134 1.0229518 1.124245
000030 50 93 80 3f 52 d6 91 3f ed 9d 65 3f 78 e4 6c 3f
       1.0044956 1.139353 0.896941 0.92536116
000040 eb 9d 74 3f 8a 26 56 3f 80 f7 a0 3f eb e4 7b 3f
       0.95553464 0.83652556 1.2575531 0.98396176
000050 94 a0 60 3f f5 54 5a 3f 51 bd 7e 3f 92 93 66 3f
       0.8774502 0.85285884 0.99507624 0.90068924
000060 0b 40 45 3f b4 df 89 3f a8 86 7f 3f 0e 75 81 3f
       0.77050847 1.0771394 0.99814844 1.0113847
000070 ab b9 80 3f d8 56 76 3f a5 90 8b 3f 78 02 68 3f
       1.0056661 0.96226263 1.0903517 0.90628767
000080 c8 fd 71 3f 0a 38 8a 3f 39 de 92 3f ef 83 49 3f
       0.94527864 1.0798352 1.1474067 0.7871694
000090 c2 79 78 3f 37 03 7a 3f c0 82 6a 3f 49 a4 6c 3f
       0.9706079 0.97661155 0.9160576 0.9243818
0000a0 98 60 61 3f 61 c5 83 3f e5 44 64 3f fa 62 81 3f
       0.88038015 1.029461 0.89167625 1.010833
0000b0 cc ab 6c 3f 90 73 6f 3f 1d d8 9e 3f 5f 61 7b 3f
       0.9244964 0.9353571 1.2409703 0.9819545
0000c0 cf 06 8b 3f 47 70 8c 3f d2 8c 89 3f f7 48 89 3f
       1.0861453 1.0971764 1.07461 1.0725392
0000d0 99 4e 6b 3f 14 b5 6c 3f d5 72 69 3f 19 77 83 3f
       0.91916806 0.92463803 0.91190845 1.0270721
0000e0 0a 10 82 3f ba ee 87 3f 15 b7 89 3f 50 70 8c 3f
       1.0161145 1.0619729 1.0758997 1.0971775
0000f0 a5 f9 71 3f 22 3e 61 3f 86 de 81 3f 4a 8b 54 3f
       0.9452155 0.8798543 1.0146034 0.8302504

layer3.1.bias f4 [64]
000000 50 03 04 bf 57 5e 0e bf 12 db b1 3e e5 f0 3d bf
       -0.51567554 -0.556127 0.3473745 -0.741957
000010 41 eb 28 bf 9a 6f 1a bf 05 6e 85 bf d6 44 61 bf
       -0.6598397 -0.6032654 -1.04242 -0.8799566
000020 11 7b d0 be 35 4a 54 be 19 5f 51 be da 23 b8 be
       -0.40718892 -0.20731433 -0.20446433 -0.35964853
000030 e0 8b 2b bf 1f 80 a1 be 68 6d 3e bf d6 53 eb 3b
       -0.6701031 -0.3154306 -0.7438569 0.007181625
000040 eb 8b d4 be 30 6d 7a bf bf a6 85 be 62 2e 49 bf
       -0.41513 -0.97822857 -0.2610378 -0.785864
000050 cf 8e 71 bf 9b 9b 10 bf fb 2f 4e bf d6 a6 ff be
       -0.94358534 -0.56487435 -0.8054196 -0.49931973
000060 00 61 ac be a1 06 e3 be f8 b2 40 bf ce 25 d7 bd
       -0.33667755 -0.44340995 -0.75273085 -0.105052575
000070 26 8b 23 bf 0a 17 f7 be 40 e4 18 be 15 4c e7 be
       -0.638842 -0.48259765 -0.1493082 -0.45175233
000080 9d 30 16 bf 36 9c fa be 26 0c 3f be 84 6e 69 bf
       -0.5866793 -0.48947304 -0.18656978 -0.9118426
000090 4e a2 08 bf b8 ba fa be 89 9d d1 be 00 b0 0d bf
       -0.5337266 -0.4897058 -0.40940502 -0.5534668
0000a0 ab cf 01 bf c4 a3 f2 be ef f0 7c bf 8b c3 9e be
       -0.507075 -0.47390568 -0.98805135 -0.31008562
0000b0 6c ca 37 bf 6c 62 18 bf c9 94 18 bf 0f 40 0c bf
       -0.71793246 -0.5952518 -0.5960203 -0.54785246
0000c0 59 3f 50 bf a3 75 57 bf a3 a1 17 bf 84 78 ab be
       -0.8134666 -0.84163874 -0.59231013 -0.33490384
0000d0 b7 21 41 bf eb 4e 6c bf f2 17 12 bf f9 dc 90 be
       -0.7544207 -0.9230792 -0.5706779 -0.2829359
0000e0 68 d7 0f bf 14 20 e4 be 66 a9 a2 be 4d 1a 43 bf
       -0.5618806 -0.44555724 -0.31769866 -0.76212007
0000f0 51 c6 71 bf 8e a3 e8 bd b3 fe 87 bf bd e2 2d be
       -0.9444323 -0.113593206 -1.0624603 -0.16981025

layer3.1.running_mean f4 [64]
000000 bb ef 31 42 11 8a be 41 56 77 42 42 f4 24 6a 42
       44.48411 23.817415 48.61654 58.536087
000010 93 e1 f5 41 06 b8 98 41 c1 b2 2e 41 52 e8 f1 41
       30.735144 19.089855 10.918641 30.238438
000020 45 b4 01 42 87 83 4d 42 70 64 ec 41 7e ff e0 41
       32.426044 51.378445 29.549042 28.124752
000030 9f 3a 03 42 92 48 1d 42 52 f3 59 42 85 b0 f4 41
       32.807247 39.32087 54.487617 30.586191
000040 1b ec 0e 42 3d e8 b6 41 7a 53 4d 42 7b ec 32 42
       35.73057 22.863398 51.33152 44.730938
000050 48 60 35 41 21 1f f4 41 1c 3b 18 42 e4 b8 07 42
       11.336006 30.5152 38.057724 33.930557
000060 a7 98 03 42 98 11 28 41 82 78 7f 41 85 85 1a 42
       32.899075 10.504295 15.966921 38.63039
000070 3c b6 14 42 2d 54 03 42 81 74 c8 41 59 d8 88 bf
       37.177963 32.832203 25.056887 -1.0691024
000080 25 7a f3 41 aa 98 5c 42 ea 8e 22 42 1b 26 a1 41
       30.43464 55.149086 40.639565 20.143606
000090 cc 7f 60 41 ff f6 2d 42 de 56 10 42 a7 79 b1 41
       14.0312 43.491207 36.08483 22.1844
0000a0 79 c7 1f 42 e8 89 ae 41 92 0a 6e 41 0b 7d 18 42
       39.944798 21.817337 14.877581 38.122112
0000b0 0d 07 57 42 54 9d 2d 42 e5 ff 07 42 6c 80 bd 41
       53.756886 43.40364 33.999897 23.687706
0000c0 16 80 28 42 55 f5 3e 42 a5 12 7a 42 47 94 5e 42
       42.125084 47.739582 62.518208 55.644802
0000d0 7e 42 1a 42 9a 46 e5 41 f7 01 29 42 6c 42 1a 42
       38.564934 28.659473 42.25192 38.564865
0000e0 cf f2 fb 41 3a ec 22 42 27 e8 31 42 97 d5 2c 42
       31.493559 40.73069 44.47671 43.208584
0000f0 ca 38 14 41 27 00 12 42 b1 63 2a 42 0a 5f 11 42
       9.2638645 36.50015 42.597355 36.34281

layer3.1.running_var f4 [64]
000000 3b c5 54 42 56 c9 7e 42 f6 c9 80 42 44 27 ef 42
       53.192608 63.696617 64.394455 119.57669
000010 8b 3c 50 42 b0 9d fc 42 a6 bb 55 43 98 d0 bc 42
       52.059124 126.30798 213.733 94.40741
000020 9c 98 50 42 b1 b1 8b 42 b2 3a cc 42 42 79 62 42
       52.149033 69.84705 102.11464 56.618416
000030 eb f6 88 42 be 9b 99 42 1e ee a2 42 af 8b 6e 42
       68.48226 76.804184 81.46507 59.63641
000040 4b a9 90 42 60 d9 45 43 75 59 9d 42 3c b4 a5 42
       72.33065 197.84912 78.67472 82.85202
000050 5d 05 32 43 c4 a3 c5 42 8f 4c aa 42 6c c9 87 42
       178.02095 98.819855 85.14953 67.8934
000060 67 af b8 42 dd d3 eb 42 b4 8c fd 42 de 4d 77 42
       92.34258 117.913795 126.77481 61.826042
000070 8b 17 95 42 ec d1 81 42 a7 82 97 42 15 7c 68 42
       74.54598 64.91 75.75518 58.121174
000080 c9 12 61 42 24 a3 72 42 50 d0 56 42 87 dc b2 42
       56.268345 60.659317 53.70343 89.43072
000090 29 e0 7f 42 27 5a 5b 42 7a d1 83 42 5e 17 a8 42
       63.968906 54.83804 65.909134 84.04564
0000a0 c9 e6 a5 42 78 80 95 42 96 b2 58 43 6f ca 5b 42
       82.95075 74.750916 216.6976 54.94769
0000b0 d4 6e be 42 1e 03 af 42 ce 23 73 42 4a 2e 87 42
       95.21646 87.50609 60.784966 67.59041
0000c0 15 d8 34 42 82 dd 9a 42 a5 be 93 42 e7 29 55 42
       45.211018 77.43263 73.87235 53.29092
0000d0 8f f6 88 42 6b af b1 42 b1 ae d9 42 b0 b3 58 42
       68.48156 88.84261 108.841194 54.175476
0000e0 6d 75 d2 42 16 3b 59 42 71 f5 62 42 8e bf 73 42
       105.22935 54.3077 56.73969 60.937065
0000f0 1a b7 50 43 21 07 3d 42 95 7a 72 42 40 8c 3d 42
       208.71524 47.25696 60.61971 47.386963
