miniImagenet/SalNet_IntraClass/miniImagenet_background_encoder_5way_1shot.pkl (torch_old, 458878 bytes, 24 tensors)

layer1.0.weight f4 [64, 3, 3, 3]
00000000: 484a a73e cbc4 1a3f 04af 003f 81eb 25be
00000010: 3222 71be a7b3 15be 773a 7fbe b0b7 acbe
00000020: e0fb 86be 80b3 d73e 1c47 f43e 7b7f a33e
00000030: c5ff cebd d29b 46be 4f81 75be bbe1 b5bd
00000040: b869 a5be 1185 8cbe ebef 7e3e 9723 dc3e
00000050: a628 4a3e 00b7 38be 8530 4fbe fedf 45be
00000060: 4d6f 383d d5e4 b1bd 8f14 2dbd d6c5 e23e
00000070: 419e d13e 0772 6e3e cb2d ea3e f55a f83e
00000080: 306b a23e 8cbf 723e 809a 973e 5af4 943e
00000090: 5e06 bd3e cf0f db3e 35d3 193e 7542 d43e
000000a0: 7f1a 173f d01c f23e 4cfa 2d3e 7c0e f33e
000000b0: be12 af3e 2502 173f a2fd 213f d9b3 b43e
000000c0: de54 2e3f a035 533f 79a1 203f 387c 033f
000000d0: 09f3 433f 3e0d 093f cf4c 81be 976b f1bd
000000e0: a2df 813c 75b0 90bb 7317 223e e72a 413e
000000f0: 3387 19bd 47b8 d13d efbf ed3d d38a 20bf
00000100: 82fd 6fbe 12e4 8ebe 9b60 70be 22a4 86bd
00000110: c089 f3bc 5605 84be 3a34 97bd 6018 4c3d
00000120: edf4 92be b527 723e 9724 9d3e 1492 b03d
00000130: c5d0 523f 083d 953f 8ff4 383e 3f14 6f3f
00000140: 6d1c 9f3f dd3a 563e 0759 2e3e e83a a73c
00000150: 13d8 5b3e 674a f53c 19d0 7dbd 8925 8f3b
00000160: 3f4d a93d 96df 69be 0cd0 f83e 2640 043f
00000170: 96a6 363e 9a54 bf3e 6628 d63e 21e4 293e
00000180: 58d3 933e e7da 5f3e 5d49 97be 1943 0e40
00000190: 9f84 0040 2916 8b3e b421 0c40 e22f f33f
000001a0: c6b9 f83d 2af9 563f 99cb 4c3f 3d47 18be
000001b0: b5d9 a0be 45f9 75be 4fe3 c3be d039 58be
000001c0: 918e 92be 1ff2 a0be 27b2 88be 57e6 2fbe
000001d0: f852 b2be 9ab8 393e f6ec 253e 23dc 8dbd
000001e0: 1464 963e 8bd1 8b3e d874 9cbc cfbd a03e
000001f0: f738 883e 3a70 6b3c e259 d73e ff20 973e
00000200: c9de 72bd 1bba 083f 2d50 c93e ab4d 0e3d
00000210: 5c2f f73e 321a b93e f59b f23b ee20 283e
00000220: 79cc 643d 6495 8f3c b567 583e d45a 813e
00000230: 3272 043e 3997 863e 942b 183e 472b f43d
00000240: 17ab b1be 0fb2 8ebe dba1 23bf a7a7 83be
00000250: cad0 b4be 30ef 02bf 161d 8fbe 211d a3be
00000260: fb46 10bf 9824 c23e 43e0 e73e cdcd a93d
00000270: d4da 263f 25d7 1b3f 8c43 2b3e e86a d43e
00000280: 9f30 1c3f cdb5 143e b07b d03c c7e4 3fbc
00000290: d78c 343c f615 853d 2016 4c3e 0175 ae3d
000002a0: 0521 0d3d b158 383e 9e9c 973b 4b0d aa3e
000002b0: 6f75 0e3f f8e2 693e 9c85 043f 2060 0a3f
000002c0: d129 173f e2ed 043f 2477 df3e 9eee a73e
000002d0: 1aa3 a03e fe7d e43e 5f42 833e b506 d33e
000002e0: fa21 fb3e 9ed3 ae3e 670c a83e 09e5 8e3e
000002f0: 6687 503e e855 2c3c 4909 033d 82f6 9f3d
00000300: 3a3f f83d 9b53 4a3d cdc7 383c aacb 5d3d
00000310: ad17 febc 7a0f bebc 29fe c3be 7c2e e7be
00000320: 4c00 cabe 9724 a3be d5d4 b3be 8eda a4be
00000330: d1b6 edbe d642 84be e410 e6be 7ec1 6f3e
00000340: 2f45 d13e 7df4 5a3e c547 a63e 2b50 033f
00000350: df48 cd3e cd1d cc3e 1d9b 023f 5c59 0f3f
00000360: e3ee 2dbf b9c9 a53f b8a3 933f c82f d6bd
00000370: 0682 f03f 3e53 d63f 20aa 92be 81be bc3f
00000380: c692 bc3f 7ade 28bf 4b6d 3f3e c9ef 4e3e
00000390: a0d0 adbe ce47 df3e e746 0a3f 225f a8be
000003a0: 6378 9c3e 4814 dd3e 7ae0 e0be 9546 683e
000003b0: ffb2 403e f480 6cbe 1a0e f53e 5dfa cf3e
000003c0: 30aa 61be b675 8a3e 397f a93e 1443 54be
000003d0: 431d e13e 1883 7ebe 5468 33be 4649 db3e
000003e0: 8848 86be 57b5 c9bd 1cdd b03e fa74 7abe
000003f0: 0464 9dbe c3b4 e93e 34a5 91be f91e 5ebe
0.3267386 0.6045653 0.5026705 -0.16203119 -0.235482 -0.14619313 -0.24924646 -0.33733892
-0.2636404 0.42129135 0.47710502 0.31933197 -0.10107378 -0.19395378 -0.23975109 -0.08880945
-0.3230722 -0.27445272 0.24896209 0.42995903 0.19742069 -0.18038559 -0.20233352 -0.19323727
0.04502802 -0.08686224 -0.042255934 0.44291562 0.4094105 0.23285685 0.45738062 0.48506895
0.31722403 0.23705882 0.29610062 0.29092675 0.3691892 0.42785498 0.15021975 0.41456953
0.59024805 0.47287607 0.16990012 0.47471988 0.34193987 0.5898765 0.6327764 0.35293463
0.6809825 0.825037 0.6274639 0.5136142 0.7654272 0.5353583 -0.25253913 -0.11788099
0.015853707 -0.0044155666 0.15829258 0.18864022 -0.03748245 0.10240226 0.11608874 -0.6271183
-0.2343655 -0.2790838 -0.23474352 -0.065742746 -0.02972877 -0.2578532 -0.07383008 0.049827933
-0.2870249 0.2364796 0.30691978 0.08621612 0.8234981 1.165925 0.18062042 0.9339027
1.243055 0.20920892 0.17026149 0.02041383 0.21469145 0.029942704 -0.061966036 0.004368488
0.08266687 -0.22839198 0.48596227 0.5166038 0.17836985 0.37369233 0.41827697 0.1659093
0.2887218 0.21860848 -0.2954816 2.2228453 2.0080945 0.27165344 2.189557 1.8998988
0.121448085 0.83973944 0.79998165 -0.14870925 -0.31416097 -0.2402087 -0.3825936 -0.21115804
-0.28624395 -0.31434724 -0.2669842 -0.17177711 -0.34828925 0.18136826 0.16203675 -0.06926753
0.2937323 0.27308306 -0.019098684 0.31394812 0.2660596 0.014370019 0.42060763 0.29517362
-0.059294496 0.53408974 0.39318982 0.03474204 0.4827832 0.36152798 0.0074038454 0.16418812
0.055859063 0.01752729 0.21133311 0.2526461 0.12934187 0.2628725 0.14860374 0.11922317
-0.34700844 -0.27870223 -0.63918847 -0.25713846 -0.35315543 -0.5114622 -0.27951878 -0.3185816
-0.5635831 0.37918544 0.45288286 0.082912065 0.65177655 0.6087516 0.16724986 0.41487813
0.6101169 0.14522476 0.025449604 -0.01171226 0.011019907 0.06498329 0.19930315 0.085184105
0.034455318 0.18002583 0.0046268245 0.33213267 0.5564794 0.22840488 0.5176637 0.54052925
0.5904818 0.5192548 0.43645585 0.32799238 0.31374437 0.44627374 0.25636575 0.41216055
0.4904936 0.34145826 0.32821962 0.27909115 0.2036415 0.0105185285 0.031991277 0.078106895
0.121214345 0.04939614 0.011278105 0.054149307 -0.031017149 -0.02320074 -0.38279846 -0.45152652
-0.39453351 -0.31863853 -0.35123315 -0.32197994 -0.4642854 -0.25832242 -0.44934762 0.23413655
0.40873095 0.21382327 0.3247663 0.512942 0.4009466 0.39866486 0.51017934 0.55995727
-0.6794264 1.2952186 1.1534338 -0.10458332 1.878968 1.6744153 -0.2864542 1.4745637
1.4732292 -0.6596447 0.18694036 0.20208658 -0.3394823 0.4360947 0.5401444 -0.3288508
0.30560598 0.43179536 -0.43921262 0.22683175 0.18818282 -0.23096067 0.4786232 0.406207
-0.22037578 0.2704293 0.33104876 -0.20728713 0.43967637 -0.24854696 -0.17520267 0.4282934
-0.26227212 -0.09849041 0.34543693 -0.24458686 -0.30740368 0.45645723 -0.28446352 -0.21691503

layer1.0.bias f4 [64]
00000000: 1131 72c2 60ef 43c1 9d02 50c2 d295 89c1
00000010: ae4d 65c2 d78d 5cc2 e350 12c1 ea37 69c2
00000020: 9944 15c2 2106 75c2 cd4b 75c2 17d6 f6c1
00000030: f6cf 52c2 eb5f 68c2 bd16 6dc2 9561 60c2
00000040: 5997 76c2 cc8c 60c2 1167 11c2 81f2 19c1
00000050: 2cfa 72c2 26cb 11c2 9c0b 50c2 8b50 70c2
00000060: 61e0 fcc1 206a 73c2 cab9 32c2 b85b 8fc1
00000070: a596 6ec2 3b3c 57c2 f020 61c2 26cb 60c2
00000080: 4aa9 68c2 afad 70c2 7d5c 76c2 9245 74c2
00000090: 1a54 51c2 251a dfc1 eff9 4bc2 8509 9ec1
000000a0: ece8 9ac1 780d 89c1 b8a4 70c2 d2be 4bc2
000000b0: ca76 67c2 acda 73c2 af24 79c2 5bd3 5fc2
000000c0: 7b5b 53c1 a2eb 76c2 98c9 23c2 82db 6dc2
000000d0: 94da 76c2 7e50 6ac1 3a4f 76c2 6c6e 87c1
000000e0: ed5b 78c2 1865 66c1 7c51 91c1 8863 75c2
000000f0: a785 1ac1 72c7 76c2 a83d 5ac1 42ef 51c2
-60.547916 -12.245941 -52.002552 -17.198154 -57.32586 -55.138515 -9.144748 -58.304604
-37.31699 -61.255985 -61.324024 -30.854536 -52.703087 -58.09367 -59.272205 -56.095295
-61.6478 -56.137497 -36.35065 -9.621705 -60.74431 -36.448387 -52.011337 -60.078655
-31.60956 -60.853638 -44.681435 -17.919785 -59.647114 -53.80882 -56.282166 -56.198387
-58.16532 -60.169613 -61.59032 -61.06794 -52.33213 -27.887766 -50.994076 -19.754648
-19.363731 -17.131577 -60.16086 -50.936348 -57.866005 -60.963547 -62.285824 -55.9564
-13.209834 -61.73011 -40.94687 -59.464363 -61.713455 -14.644651 -61.57737 -16.928917
-62.08977 -14.399681 -18.164787 -61.3472 -9.65763 -61.69477 -13.640053 -52.48365

layer1.1.weight f4 [64]
00000000: a0b0 a03f a5f5 553e f2b3 063f 0915 273e
00000010: 77dc 233f 40a4 113f 50f4 e93d 192d 2c3f
00000020: e904 a03e 875e 9e3f 4b86 ec3f ffda 513e
00000030: 4c8a 273e 5903 193f 8391 223f e957 1e3f
00000040: adcf 0040 e114 e93e bce1 cc3e d634 2e3e
00000050: c043 773f 51bd de3e 4604 113f ee88 1d3f
00000060: 6cb6 ed3e 8aa9 8c3f eb7e b93e c765 433e
00000070: 955c 093f 0fe4 263f a48c de3e f122 4b3f
00000080: 8581 1c3f 77da 3d3f 0309 b33f 3a0f 6d3f
00000090: a349 ce3e 7b25 b13e 6208 283f b262 543e
000000a0: 8840 403e 4dcb 263e 912f 793f 3672 de3e
000000b0: a46a 3d3f 0e88 563f ce31 0b40 af67 113f
000000c0: 92c4 443e 03ca 1840 d194 e63e 6ccc 333f
000000d0: d9d3 973f 5889 5c3e 621c 1240 383e 553e
000000e0: c564 1440 1615 4c3e 87c3 6b3e 847c e93f
000000f0: f861 2c3e 02da 0740 eefa 243e cfa4 353f
1.2553902 0.20894487 0.52618325 0.16316618 0.6400828 0.5689125 0.11423552 0.67256314
0.31253746 1.2372597 1.8478483 0.20493697 0.1636135 0.59770733 0.63503283 0.6185289
2.0126755 0.45523742 0.40015972 0.17012343 0.96587753 0.43503812 0.56647146 0.61537063
0.4642824 1.0989239 0.36229643 0.19081794 0.53656894 0.6519174 0.43466675 0.7935019
0.6113513 0.74161476 1.3987125 0.9260136 0.40290555 0.34598908 0.6563779 0.20740774
0.18774617 0.1628849 0.97338206 0.4344651 0.73990846 0.8380135 2.1749148 0.56798834
0.1921561 2.3873298 0.45035413 0.702338 1.1861526 0.21536767 2.2829823 0.20824516
2.3186505 0.19929919 0.23023807 1.8241124 0.16834247 2.1226811 0.16111347 0.709546

layer1.1.bias f4 [64]
00000000: 4d3f 343f bd80 34bf c284 a5be f559 2abf
00000010: 7b28 133e c0a4 edbe cd99 09bf 2918 bcbe
00000020: 1ba3 e4be 5780 66be b4ec 613f 03f0 26bf
00000030: 2471 81be 3cd2 12bf 75ff 79be 2a6c 84be
00000040: 0014 be3e 0cb1 17bf 2f78 11bf 7d08 34bf
00000050: 48db b53e 41bb d2be 4c02 00bf 4dc5 8abe
00000060: 6bbc 06bf 3074 413f 7bf9 acbe e06e 2fbf
00000070: 2138 d4be d4e3 44bf a790 3a3e bf41 43bf
00000080: 8f57 dcbe ac12 9f3c 8810 cb3d 66fb 41be
00000090: d4e5 22bf f634 25bf d1c1 e6be 3413 27bf
000000a0: 1b85 41bf 112e 2ebf ff4a 143f 23bc 8dbe
000000b0: 5377 9fbe 5ab4 0abe e592 913f 6a09 0f3e
000000c0: d85f 2ebf b5cd 5e3f 73e6 77be 6ec2 6a3c
000000d0: c53a 5a3e 9a54 42bf 1554 303f db07 30bf
000000e0: 7e93 803f 0358 41bf 384a 25bf 9b47 813f
000000f0: 00e6 21bf 99cb 843f ebb4 28bf 467f 0dbf
0.7040909 -0.7050894 -0.3232785 -0.66543514 0.14370911 -0.46414757 -0.53750306 -0.36737183
-0.4465569 -0.22509895 0.88251805 -0.6520998 -0.25281632 -0.5735204 -0.24413855 -0.25863773
0.37124634 -0.5925453 -0.5682401 -0.7032545 0.3551886 -0.41158488 -0.50003505 -0.27103654
-0.52631253 0.75567913 -0.33784088 -0.68528557 -0.41449073 -0.7691014 0.18219243 -0.76272196
-0.43035552 0.019418083 0.099152625 -0.18943557 -0.6363194 -0.64533937 -0.45069745 -0.65263677
-0.7559373 -0.6803904 0.57926935 -0.276826 -0.31145725 -0.13545361 1.1372954 0.13968435
-0.68114996 0.87032634 -0.24209003 0.014328582 0.21311481 -0.7591034 0.688783 -0.68761986
1.0045011 -0.7552492 -0.64566374 1.0099977 -0.6324158 1.0374633 -0.6590106 -0.5527233

layer1.1.running_mean f4 [64]
00000000: 6c54 77c2 7ded 8fc2 a8e9 89c2 1558 a9c2
00000010: 16c3 84c2 e406 79c2 765c 3fc2 f364 77c2
00000020: 4815 a1c2 9c4f 74c2 c345 75c2 3c31 e8c2
00000030: b7d1 51c2 649f 5dc2 44f5 5fc2 aac0 80c2
00000040: 2ed7 75c2 e265 64c2 8c0b c2c2 bc95 99c2
00000050: 5558 74c2 ad7e dcc2 a273 77c2 9702 76c2
00000060: e1e1 04c3 502b 7ac2 7131 8ac2 e143 a5c2
00000070: 1050 71c2 a907 0ec2 925d 6fc2 90cf 37c2
00000080: aa93 63c2 73ea 63c2 ae14 76c2 0bfe 7bc2
00000090: 8aca 28c2 b270 9ac2 12d8 e0c1 1401 c4c2
000000a0: 2364 97c2 ba33 b4c2 cd9a 71c2 e3fa 7fc2
000000b0: c739 3ec2 97fb 73c2 5e63 7ac2 4cd7 67c2
000000c0: 068d efc2 0467 76c2 52ba b2c2 08da 70c2
000000d0: a624 7ec2 b27e acc2 6c32 74c2 75ee e5c2
000000e0: 07cb 77c2 1261 9fc2 556a d1c2 a957 77c2
000000f0: dab2 76c2 f156 78c2 691f 8dc2 cdf9 d0c1
-61.832443 -71.963844 -68.95636 -84.672035 -66.38103 -62.25673 -47.840294 -61.848583
-80.541565 -61.077744 -61.318127 -116.09616 -52.4548 -55.405655 -55.989517 -64.3763
-61.460136 -57.099495 -97.02255 -76.79245 -61.08626 -110.24741 -61.862923 -61.50253
-132.88234 -62.542297 -69.096565 -82.632576 -60.328186 -35.50748 -59.841377 -45.952698
-56.894203 -56.978954 -61.520195 -62.99809 -42.197792 -77.22011 -28.105503 -98.002106
-75.69558 -90.10103 -60.401173 -63.995007 -47.556423 -60.995693 -62.59704 -57.96025
-119.77544 -61.6006 -89.36391 -60.21292 -63.53579 -86.24745 -61.04924 -114.96574
-61.94827 -79.68959 -104.70768 -61.835606 -61.67466 -62.084904 -70.56135 -26.121973

layer1.1.running_var f4 [64]
00000000: f60f 9d41 e4b6 d944 22da 1e43 bf8f 0945
00000010: 3854 6b42 5915 0642 b6c7 3644 7be3 a341
00000020: 43de 8e44 cc40 6a40 19dc 7241 8fcb 5945
00000030: 3112 ec41 73f8 f840 1f8f 3041 fe2f 4f42
00000040: 0220 7941 dd02 5b41 fa89 e644 4c0e 0a45
00000050: b5a8 1841 8b68 2445 a0c9 a142 1b29 8c40
00000060: d8bc b645 1f53 a141 7423 e343 60fe 1d45
00000070: e3a0 0041 1e65 2a43 18c6 2342 1fef 9042
00000080: fc3f cc40 5a46 1641 07ef 6040 6fc1 f240
00000090: 1c66 7042 56e1 a944 bcfd a843 167d 6545
000000a0: 7c40 f844 efe3 3a45 d0e0 8241 eb81 1743
000000b0: 32c6 6542 128b 5740 3d69 a940 42cc 3342
000000c0: 15ac ae45 1b39 cf41 d9ca 9444 bf37 2e41
000000d0: 1359 0d41 4230 1c45 500b b541 938e 8f45
000000e0: 5407 8541 6e86 fe44 134c 5f45 a6fc 8a41
000000f0: 2aef ac44 79ba 8441 e8a9 c144 acca a843
19.632793 1741.7153 158.85208 2200.9841 58.832245 33.520847 731.1205 20.486074
1142.9457 3.660205 15.178735 3484.7224 29.508883 7.7803283 11.034942 51.796867
15.570314 13.688199 1844.3118 2208.8936 9.541188 2630.534 80.8938 4.3800178
5847.6055 20.165586 454.27698 2527.8984 8.039279 170.39499 40.94345 72.46703
6.3828106 9.392176 3.514589 7.5861125 60.099716 1359.0417 337.9823 3671.8179
1986.0151 2990.2458 16.359772 151.50749 57.44355 3.3678632 5.2940965 44.94947
5589.5103 25.902884 1190.339 10.88861 8.834247 2499.016 22.630524 4593.822
16.628578 2036.2009 3572.7546 17.373363 1383.4739 16.591051 1549.3096 337.58337

layer2.0.weight f4 [64, 64, 3, 3]
00000000: ddb8 5d3e 2827 cd3d 9cae 4c3d e8be 6e3c
00000010: 160d c6bd a13a eebd a75b 2fbe 6d71 c8bd
00000020: 9ce8 403d 336b 01bd 4172 a13c 1f4d 413d
00000030: b88d 203e 3f73 87bd 8f96 933d ecc8 893d
00000040: 16d7 893d b85f 02bd 1e16 843d b1e7 df3d
00000050: 07f1 423e 4dd4 a7bd 40be c23d d528 fb3b
00000060: 4970 00be 375c 89bd 1cf1 e13c d615 e33d
00000070: 4183 273e 7ddd 003e 2c42 c63d 6730 c4bc
00000080: 733b ab3d 35bb 8f3c 0fef 673c c5fe a93b
00000090: a2d3 623e 5396 603e 7195 6d3e a3ae 863d
000000a0: 7a2e 7f3d a8aa b53d e3a1 a93d 0766 92bc
000000b0: 7e1a 943d aa8a 4f3e a36d 9e3e 7137 c73e
000000c0: b2ad ff3d 9089 003d ead0 763e 7709 23be
000000d0: dc3c d03d 0b53 883d 63fa fabc aa7f b03b
000000e0: 779f a13d 689c 283d 1106 9cbd 181d cfbd
000000f0: e353 a7bd 3ae6 933d d349 4e3d c766 903e
00000100: 2af8 d13e f9fc 973e bbd6 983d dfd3 4f3e
00000110: 18d8 ea3d 474a d8bc 6559 92bc c328 dabd
00000120: b425 b93d 79fe 0d3d a243 d53d 3332 65bd
00000130: ff8a 683c f1c1 d13d e004 33bd 87b1 e13b
00000140: e1eb 74bd 7a6f a83e 45e5 32be be74 29be
00000150: 00bb 54be 4fcc 7dbe cbd4 1fbe 6c5a 3fbd
00000160: 6b70 f8bd f421 49bd 1120 5cbe 59ab e3be
00000170: f3c1 09be f648 2dbf ed8e 29bf a4ca a3be
00000180: 9eb9 4ebf 29df 17bf 0835 78be 6bf3 f7bd
00000190: 4681 ae3c 5cf2 c13d 8555 c7bd 715a 05bc
000001a0: 456e d93d 6eb2 6ebe 2f69 c1bd 6a6d 8dbd
000001b0: de62 bbbd 859f c539 82eb 023e a6af 86bd
000001c0: ca58 15be e688 b3bd b9e2 21be a642 57bd
000001d0: 5242 01be bab9 c13d ec21 3c3d 1f9e 243e
000001e0: 132b 8fbd b415 813d bb93 023d a582 65bd
000001f0: aacd 3bbd 9797 083e 8d9b 9c3c a216 963c
00000200: 4ef3 00be 98ff 383d 6ce3 6b3d e684 fc3c
00000210: 24ef 043e fb22 553e 755c 7d3e d222 433e
00000220: 2594 293d d967 283e 1c7f a7bc 4256 63bd
00000230: 7e79 85bc 4a97 d0bc be52 c6bc 096a 6ebc
00000240: 0641 a13e c355 213d 3a90 f4bd 037a 193c
00000250: c8ac cdbe 6223 d2be f636 26bc 579b 9bbe
00000260: e9fb b3be acdd 623e 1c78 0a3e 6122 7a3e
00000270: ec58 ac3d 32b2 1f3e b51b 4c3e f76a 6fbe
00000280: 83f9 83be f538 7c3d 0fd5 aab8 5a5f df3d
00000290: 58ec 6b3e d6ab 96ba 25b4 c93d 6067 5b3e
000002a0: 3a8e 423d a3c9 773d e80d 433e 568a 3fbd
000002b0: 30d8 9a3d b9b3 c43d 2399 c43d 59ef cfbd
000002c0: 90d5 7fbd 1da2 ec3d 1bd3 9bb9 d648 43bd
000002d0: 0b47 00bf 6cb3 c5be 56bb cabe e023 14bf
000002e0: 7584 0dbf 6bf8 24bf 244c 80be 09b0 a1be
000002f0: 0201 5bbe dc74 4dbe e37b 32be 80c2 6a3d
00000300: 6aff f9bd 5836 03be 27db 4f3d 5b8d 0ebe
00000310: 4cc9 f83b 6bf8 56bd e3f3 5cbc 3c12 06be
00000320: c594 3ebd ece6 d0be 7c95 93be c3dd 40be
00000330: 9647 c3be 966e a0be 5243 91be 048f aabd
00000340: c62c d0be 29a3 23bf 812b 8bbe d8d4 00bf
00000350: 4ab9 f6be 0535 9cbd 4a15 eebe e21b 99be
00000360: aea8 85be 0788 52be e150 16be 4f5f 8abe
00000370: 7dd9 9cbe 2ffd 44be 28e1 b5be 4a86 e0bd
00000380: 8ac9 4fbe ed12 b4be f8ab b7be 7027 f9be
00000390: 899a ffbe 945e 2cbf 557a 20bf 1d8c bfbe
000003a0: 600e aabe 7e95 e63b 4945 763e fc29 153e
000003b0: 35fc a43e b869 edbb 7889 223e 70a8 c33d
000003c0: a8bc 03be da4c 09be 1b3f 28bd 7129 50bd
000003d0: 195b 38be 4271 babd 7d9e 6fbe 96b6 d5bd
000003e0: 0077 debd a0f4 8dbe 0686 32be c0c4 10be
000003f0: 2af9 a93d d1d6 aeb9 5fca 16be 7511 92be
0.21652551 0.10017234 0.049971208 0.014571883 -0.09670465 -0.11632276 -0.17124806 -0.09787259
0.047096834 -0.031596374 0.0197078 0.04719269 0.15679061 -0.06613778 0.07206451 0.06727776
0.067304775 -0.031829566 0.06449531 0.109328635 0.19037257 -0.0819479 0.095089436 0.0076647797
-0.12542833 -0.06707042 0.02758079 0.11088149 0.16358663 0.12584491 0.0968059 -0.023948861
0.083609484 0.017545322 0.014156117 0.0051878416 0.22151044 0.21932344 0.23201539 0.06576278
0.062300183 0.08870441 0.082828306 -0.017870916 0.072316155 0.2026774 0.3094302 0.38909486
0.124843016 0.03138119 0.24103132 -0.1592158 0.10167858 0.06656464 -0.030636972 0.0053863125
0.07891744 0.041164786 -0.076183446 -0.10112971 -0.08170297 0.072216466 0.050363373 0.28203413
0.41009647 0.2968519 0.074628316 0.20295666 0.11466998 -0.026402606 -0.017864892 -0.10652306
0.090403944 0.034666512 0.104132906 -0.055956077 0.0141932955 0.102420695 -0.04370582 0.006887618
-0.059795264 0.3289755 -0.17470272 -0.1654844 -0.2077446 -0.24784969 -0.15608518 -0.046717092
-0.12130817 -0.049104646 -0.21496607 -0.44466665 -0.13452892 -0.67689455 -0.6623371 -0.3199054
-0.8075198 -0.5932489 -0.2423898 -0.12106975 0.021301877 0.094700545 -0.097331084 -0.008139239
0.10616735 -0.23310253 -0.0944389 -0.06905635 -0.09149717 0.0003769362 0.12785152 -0.06576471
-0.14584652 -0.08766346 -0.15809144 -0.052553795 -0.12622955 0.09459253 0.045930788 0.16075943
-0.06990638 0.06302968 0.031879168 -0.056032795 -0.045850433 0.13339077 0.019117141 0.018321339
-0.12592813 0.04516563 0.057589933 0.03082509 0.1298185 0.20814125 0.24742301 0.19056252
0.041401047 0.16445865 -0.020446353 -0.055502184 -0.016293284 -0.025462765 -0.024209376 -0.014551648
0.3149492 0.03938843 -0.119415715 0.009367469 -0.40170884 -0.4104262 -0.01014494 -0.30391952
-0.3515313 0.22154874 0.1352238 0.24427177 0.08415398 0.1559532 0.19932444 -0.23380648
-0.257763 0.061577756 -8.145917e-05 0.10906859 0.23039377 -0.0011495303 0.09848813 0.21426153
0.04749892 0.06049503 0.19048274 -0.046762787 0.07560766 0.09604592 0.09599521 -0.10153074
-0.06245953 0.11554358 -0.0002972119 -0.047676884 -0.501084 -0.3861345 -0.3959605 -0.5786724
-0.5528024 -0.64441556 -0.2505809 -0.31579617 -0.21387103 -0.2006411 -0.17430072 0.057314396
-0.122069195 -0.12813699 0.05074611 -0.1392111 0.007592356 -0.052483004 -0.0134858815 -0.13092893
-0.046528596 -0.4080118 -0.28824985 -0.18834595 -0.38140553 -0.3133437 -0.28371674 -0.08328059
-0.4065916 -0.6392084 -0.27181628 -0.50324774 -0.4818824 -0.076273 -0.46500617 -0.29904085
-0.26105255 -0.20559703 -0.1467929 -0.2702584 -0.3063468 -0.19237207 -0.35523343 -0.109631136
-0.20291725 -0.3517069 -0.3587339 -0.486629 -0.49922588 -0.67331815 -0.62686664 -0.37411585
-0.33214092 0.007036864 0.24049868 0.14566797 0.3222367 -0.0072452687 0.15872753 0.09553611
-0.12864935 -0.13408223 -0.041075807 -0.05082077 -0.18003501 -0.091036335 -0.23400302 -0.10435216
-0.10862541 -0.27725697 -0.17433938 -0.14137554 0.082994774 -0.00033347917 -0.14725636 -0.28528944

layer2.0.bias f4 [64]
00000000: bc83 f541 7b5d 2242 2ad5 0542 e35a f141
00000010: 98f2 2342 3961 e041 3464 3842 df91 1242
00000020: 4935 1e42 e051 2b42 0f3d 2a42 1235 1f42
00000030: b578 2a42 7912 2642 1f85 1942 cd92 1e42
00000040: 94db 2442 668a 2742 4df8 2b42 0670 3542
00000050: 3619 1a42 f72e 2c42 488f 1142 8eb2 1642
00000060: 0194 ee41 e039 3242 6e8c 1e42 3bc1 1342
00000070: d5fd 2142 2917 2042 bbc4 2242 9c7e 1542
00000080: dd6e 3042 d258 2442 9d39 2142 04c7 0e42
00000090: 5252 2542 c7cb 2642 47d9 1c42 490e 2c42
000000a0: 3c29 f741 7b03 3a42 1774 2742 e1a9 2542
000000b0: 9620 1042 e3ed 0d42 048a f841 799c 1a42
000000c0: 2f39 3442 5a4f 2542 98cc 2a42 e354 1642
000000d0: 2355 2f42 8add 1c42 05f6 2342 7c9b 1f42
000000e0: 5581 1f42 df5e 0d42 0341 2442 7e59 3342
000000f0: 1243 2542 9d09 0f42 2298 1942 e770 1242
30.689323 40.59129 33.458168 30.169378 40.986908 28.047472 46.097855 36.642452
39.552036 42.829956 42.559628 39.801826 42.617878 41.51804 38.38 39.64336
41.21443 41.885155 42.99248 45.359398 38.52462 43.045864 36.389923 37.67437
29.822268 44.55652 39.63714 36.9387 40.497883 40.022617 40.69212 37.373642
44.108265 41.08674 40.306263 35.69435 41.33039 41.699 39.212185 43.01395
30.895134 46.5034 41.86337 41.415897 36.031822 35.48231 31.06739 38.652805
45.055843 41.32749 42.6998 37.582897 43.83314 39.216347 40.990253 39.90184
39.8763 35.342648 41.063488 44.837395 41.3155 35.759388 38.398567 36.610256

layer2.1.weight f4 [64]
00000000: 2409 6d3f 9af7 673f e6f2 4e3f f13a 563f
00000010: 6b49 7b3f 021a 4d3f 4874 743f f8a1 5c3f
00000020: 6f32 963f 2d76 7e3f 0d43 a13f 056a 443f
00000030: 4a06 9e3f f3bd 983f 8979 873f 0dc0 8d3f
00000040: 0865 893f c2d0 a03f 8e5a 863f eb66 613f
00000050: 2a27 433f 911f 8a3f 34d1 253f c03f 5c3f
00000060: 01d7 403f 53de bb3f 9c77 7a3f b240 833f
00000070: 2c4d a33f 56aa 373f 688b 2f3f 8930 833f
00000080: fb0f c93f c567 4e3f b2d9 963f ccc9 193f
00000090: a959 973f 20ae 863f 2065 343f 0e96 aa3f
000000a0: 5b56 823f 0370 a83f 5d85 853f 944b a33f
000000b0: 43bf 3e3f 0193 813f e1a7 5d3f 1954 293f
000000c0: 5515 c43f e447 b53f 1079 543f 8064 243f
000000d0: 83ea a63f 2a1c 3b3f 1764 483f 3cf7 6b3f
000000e0: f19d 813f 28a2 883f 9f71 4c3f 3191 bd3f
000000f0: 9da1 483f ed5d 503f bf85 833f b4b4 6a3f
0.9259207 0.90612185 0.80839384 0.8368369 0.981589 0.8011781 0.9548993 0.86184645
1.1734141 0.9939907 1.2598587 0.7672427 1.2345669 1.1932968 1.0583965 1.1074234
1.0733957 1.2563708 1.0496385 0.88047665 0.76231635 1.0790883 0.64772344 0.86034775
0.7532807 1.4677223 0.9783876 1.0254118 1.2757926 0.71744287 0.6857209 1.0249187
1.5708002 0.8062709 1.1785185 0.6007354 1.1824237 1.0521889 0.70466805 1.3327043
1.0182604 1.3159183 1.0431324 1.275744 0.7451059 1.0122987 0.8658429 0.6614395
1.531901 1.4162564 0.82997227 0.6421585 1.3040317 0.7308985 0.78277725 0.92174125
1.0126325 1.0674486 0.7986087 1.4809934 0.783716 0.8139332 1.0275191 0.9168198

layer2.1.bias f4 [64]
00000000: b560 dabe 123c a7be e395 cebe 5709 c5bd
00000010: 3b4f 87be 1f90 cabe f7e4 4abf 25fb bdbe
00000020: 3436 08be 385a 13bf d8e2 89be 323a 83be
00000030: 835a 9fbe b388 febd 01cb d2be b8f8 dfbe
00000040: 255d 0bbf 26cb 59bf 09f5 f0be f3dd 52be
00000050: 5ebd 17bf a023 63be c0dc 4bbe 174d d0be
00000060: 8833 2abf c62a 89be 265b 0ebf 8f80 05bf
00000070: 5294 c3be 79cb ffbb edf3 dfbe 52ff 2abe
00000080: 1c6c f9be 662f a4be 2ecb 2abe a9da 6cbe
00000090: ac9a 54be 2309 d7be 013d 2d3d 62c6 abbe
000000a0: 6917 12bf d003 23bf 0198 efbe 0978 38be
000000b0: bb66 80be 5b1f 14bf 56a3 c0be f047 3abf
000000c0: d031 a0be 9c30 90be 6fa3 90be aae0 fcbe
000000d0: 6380 b8be cc0b 99be 359e babe 0eda 4cbf
000000e0: 343a 05bf 7991 91be b8ee 11bf 1e86 89be
000000f0: 15cf e8be fb05 10bf ae9a b0be 7ff6 1bbf
-0.42651907 -0.32663018 -0.4034873 -0.09620922 -0.26427636 -0.3956308 -0.7925562 -0.3710567
-0.13301927 -0.5755954 -0.2693088 -0.25630337 -0.31123742 -0.12428417 -0.41170505 -0.43744445
-0.54439 -0.85075605 -0.47061947 -0.2059248 -0.59273326 -0.22181559 -0.19908428 -0.40683815
-0.6648488 -0.26790446 -0.5560783 -0.5214929 -0.38199097 -0.0078062383 -0.43740788 -0.1669896
-0.48715293 -0.32067412 -0.1667907 -0.23130287 -0.20762128 -0.41999158 0.042294506 -0.33549792
-0.5706697 -0.6367769 -0.46795657 -0.1801454 -0.25078377 -0.57860345 -0.37624615 -0.7276602
-0.31288004 -0.28162086 -0.2824969 -0.49390155 -0.3603545 -0.29891813 -0.36448827 -0.80020225
-0.52041936 -0.284313 -0.5700488 -0.26860136 -0.4547049 -0.56259125 -0.3449301 -0.60923

layer2.1.running_mean f4 [64]
00000000: a1eb 61c1 efb9 0342 f018 6340 fc5d 9ec0
00000010: aa96 0b42 4c21 fec1 1ef3 fa41 f45e 6f41
00000020: cedd 2541 f164 0e42 ade5 d641 3895 a341
00000030: fa60 1142 6e12 ec41 a94f b041 1976 f141
00000040: 6b01 de41 8f43 f841 1bac 0e42 a516 2942
00000050: 0004 4542 4ddf ec41 37b4 6a41 4a3a c841
00000060: f487 28c1 7d1f 0442 24a8 c841 04ba 7b41
00000070: 8a8b f641 c3f0 e841 0ce4 2142 a45b 3441
00000080: aff0 e241 b46b 0b42 d9ea c141 d72d d541
00000090: b3aa e941 75c7 f641 b473 0c42 d8cd cc41
000000a0: ff75 5ec1 9dae 1a42 4743 0a42 3ec1 c341
000000b0: 36e4 8541 4ab0 7541 f59b bdc0 5d3a 3342
000000c0: 66b4 2342 5c17 fc41 467f 1842 2aa9 2b42
000000d0: 3dff ca41 1264 2842 a7ae 0342 1ffa ea41
000000e0: 4907 9841 0dd7 2340 bf32 0142 6300 0342
000000f0: 952a 5942 e627 1a41 571f a441 ef68 a341
-14.120027 32.931576 3.548397 -4.9489727 34.897133 -31.766258 31.36871 14.960682
10.366652 35.598576 26.862146 20.44786 36.344704 29.508999 22.038897 30.182665
27.750692 31.032988 35.66807 42.272114 49.253906 29.609034 14.668998 25.028461
-10.533192 33.03075 25.0821 15.732914 30.818134 29.11756 40.472702 11.272373
28.367521 34.85518 24.239672 26.647383 29.20835 30.847391 35.11299 25.60051
-13.903808 38.67052 34.5657 24.469357 16.736431 15.355539 -5.9252877 44.806995
40.92617 31.511406 38.12429 42.9152 25.374628 42.097725 32.92056 29.37213
19.003557 2.5600007 32.299557 32.750378 54.291584 9.634741 20.515303 20.426237

layer2.1.running_var f4 [64]
00000000: c95e 5144 47e3 5a43 baf1 0044 2de4 1c44
00000010: b9e9 2d43 b33d 8044 bffe 7c42 4b65 a743
00000020: 15e0 c943 2b58 0c43 b289 5743 0c05 0443
00000030: 6f6d 1643 60aa 7a43 eb2c 4b43 37e4 6b43
00000040: 5d63 4143 67c0 8543 7375 fd42 5dcc 8d42
00000050: b5f6 1543 6e86 2943 5c19 1f43 8646 6843
00000060: e236 1644 0c0b 2043 a050 2943 fcda 9143
00000070: 28f2 b243 39cc c042 76c2 cb42 e969 ad43
00000080: b095 6443 370f b942 70f9 8543 9fd1 4943
00000090: b4ae 3643 d6a1 1543 198a 9842 eab7 7b43
000000a0: 7308 5144 b959 dc42 2086 fd42 d792 7043
000000b0: 121c 9b43 cf51 9743 0e9b 0944 3f88 a742
000000c0: b14f a443 ff6c a343 02ae 0743 acef 9d42
000000d0: ef8f 4b43 e8df c042 3103 1743 7e55 cc42
000000e0: 31f3 2e43 b104 0844 a94c e442 0fc5 2943
000000f0: 1bce e742 77d2 7643 9976 8c43 154d 2543
837.481 218.8878 515.777 627.56525 173.91298 1025.9281 63.248775 334.79135
403.75064 140.3444 215.53787 132.01971 150.42747 250.66553 203.17546 235.89146
193.38814 267.50314 126.72939 70.89915 149.9637 169.52512 159.09906 232.27548
600.85754 160.04315 169.31494 291.71082 357.89185 96.39887 101.87981 346.82742
228.58472 92.52972 267.94873 201.81883 182.68243 149.63217 76.26972 251.71841
836.132 110.17524 126.76196 240.5736 310.2193 302.63913 550.4227 83.766106
328.6226 326.85153 135.67972 78.96811 203.56224 96.43732 151.01247 102.16698
174.94997 544.0733 114.14973 169.76976 115.90255 246.82213 280.92654 165.3011

layer3.0.weight f4 [64, 64, 3, 3]
00000000: fa75 ba3d fb20 073e 7c58 e9be 42a3 073f
00000010: 3a79 b83e d964 2dbe 4f66 c73d 2c95 073d
00000020: b744 1bbf 204a 46be 4587 0cbf b495 eebe
00000030: 586f 01bf e5ef 22bf 2f00 02bf aec4 c53d
00000040: 0b8b e8bd c96d a0bd 73c1 d83d 3412 583e
00000050: a70a 9fbd 2320 943e 2cfa f63e 8e0c 953e
00000060: 56b7 353d 03f7 a23e f5a8 913d 84b9 c63d
00000070: 6660 2d3e ebbd fbbd f8cc 843e e9b5 ea3e
00000080: 5c70 203d 25cf 0bbd 019f a23e 5203 e6bd
00000090: 9a70 95be 0f35 0e3e 93da a7be 6ab1 93be
000000a0: 717a f93e b73f 0d3e 8b10 6bbe 6997 e03e
000000b0: b721 343e 1f21 8b3e 1fcd 9c3e 7b52 b1bc
000000c0: be1f ef3e ced9 fe3e 02b8 fc3c eef6 d63e
000000d0: 0dd8 b83e 755b 1abe b831 e93e d823 0d3f
000000e0: 342a 723e 665c 773e 36c0 503d 153b 073e
000000f0: d295 6a3e bc2a 923e 55d2 113f 75a6 9f3e
00000100: 550c 80bd 0d52 b43e 26eb 943e 44d9 a63d
00000110: a459 2a3d fca0 9e3e 828f 3abd 47dc 39be
00000120: 336c a63d 4f04 dc3e 31a7 cdbc 31eb 013e
00000130: 1791 963e 81d6 24bc 27f6 043e bc1b 953e
00000140: 829f a6bd 69e3 383f 1a0a 503f 8ebf 8a3e
00000150: 56a8 953e bc3e 2fbe 0d41 0bbf 56ce 06be
00000160: bda9 22bf 5f3c a5bf fcbf 3dbe e6ee 2d3e
00000170: 2706 313d f141 97be 1ee9 563b c86e 6cbe
00000180: b662 4c3e 76fe fd3d 94b3 38be df44 29be
00000190: 4341 583e ddec b33d 404a d7be 252d 8b3e
000001a0: b5c9 ae3d 4c81 1abf 8d3a ba3d 6dad 6f3e
000001b0: 02d9 e0be 56ae 0dbf d2c4 99be c05d 23bf
000001c0: 151b 293a 5e74 8fbc 410f cfbe 86f2 053f
000001d0: d6eb 3a3e dd13 0ebe 66ed 1dbf b37c dfbe
000001e0: 76a6 3abe c5e1 2fbf 8847 18bf 0335 833e
000001f0: 2677 e4be 5f3e f3be 284e a2be 50bc 293d
00000200: bdc9 e2bd 060d a3bd 6be6 033e 8e59 8a3b
00000210: a71a 2ebd cde0 ae3d c103 0dbe edcd 133e
00000220: 7c60 17bf 4d87 a2bd 5b46 4bbe 86ed 99be
00000230: 9244 2abe 6aa6 91be 6c01 acbe 00d3 2dbe
00000240: 122a b8bc 97ce 103e 7891 6abe 7952 80bd
00000250: a3d5 363e 08f9 0cbe 34f1 513e 04ae e33d
00000260: 9f48 b9bc 2a10 efbe be3e 20bf 42d6 2dbf
00000270: c72d f0be 4107 17be 5f94 95be 5af5 bbbd
00000280: 4f46 84be 9f82 36be 97e9 ad3d 9164 1dbf
00000290: bb77 8dbe 48e8 0c3c 5c6f 46bf 47e0 15bf
000002a0: a0e5 983c aadb 5cbf cfba c9be 9f05 873e
000002b0: f969 3ebd 9a88 ae3d 42c4 bb3e 9b9d fd3d
000002c0: 0c5b b93d 7e33 463e ff2e 7c3e 5d49 b03d
000002d0: f483 883e f13c 0a3e d74e 203e df2d aabd
000002e0: 3439 46bc 7542 ef3b 7e49 f7bc 19e2 6b3e
000002f0: feeb 29be 3a54 e23d 92f8 8ebd b8c3 883e
00000300: 78de e7be 321c ddbe a8b0 a23c 63ab 0dbf
00000310: 0d54 01bf 9fc2 2abe cf29 33be cba5 aebd
00000320: 51d1 6cbd cdcc 1bbe 647d 553d 224e 923d
00000330: 22b9 8cbd 0a6a 383e 2a12 1c3e 50a3 29be
00000340: 2475 b3bb 58c1 d9be d903 3b3e 3a79 b83e
00000350: c8c5 cdbd 0430 0ebc d7a0 683e 22ee f0bd
00000360: c53f 833e b7d0 1e3e 0bff 7fbe 0ff6 ec3e
00000370: daa5 003f 7984 453d 8089 fa3e 25ee 003f
00000380: ae66 133e 0a23 4abd 288f b5bd e336 a1bd
00000390: 1a9f 93be f0b9 f7bd e2bd 16be a388 1ebd
000003a0: 73a6 a23d 2fd3 2a3e 8b29 49be e05c 75be
000003b0: f4f3 2d3d d765 2abe f0f6 18be f595 18bd
000003c0: a679 2c3e b5da 5dbe 92ef f93d 5df4 c13d
000003d0: e0b7 093e c164 9a3c ff4c 073e fc0a 713e
000003e0: 9be7 a43d 4828 fb3c 4ec0 64bd 08a2 c03d
000003f0: add3 243e d0e8 b8bc 856a e03d 862e d4be
0.091045335 0.13196175 -0.4557532 0.52983487 0.3602999 -0.16933002 0.09736311 0.033101246
-0.60651726 -0.19364214 -0.54893905 -0.4659859 -0.5056052 -0.636473 -0.5078153 0.09656654
-0.11354645 -0.0783344 0.105837725 0.21100694 -0.07765704 0.28930768 0.4823774 0.2911114
0.044364296 0.3182908 0.07112304 0.09703353 0.16931304 -0.12292083 0.2593763 0.4584191
0.039169654 -0.034133095 0.31761935 -0.11231102 -0.2918747 0.13887428 -0.32783946 -0.28846294
0.48726228 0.13793837 -0.2295553 0.43865517 0.17590986 0.27173707 0.30625245 -0.021645775
0.46703905 0.49775547 0.03084946 0.41985267 0.36102334 -0.1507395 0.45545745 0.5513282
0.23648912 0.24156341 0.050964557 0.13206132 0.22908714 0.2854823 0.56961566 0.31181684
-0.06252352 0.3521885 0.29085654 0.08146909 0.041589394 0.30982196 -0.045547016 -0.18150435
0.08126106 0.42972037 -0.025104137 0.12687375 0.2940757 -0.010060907 0.12984525 0.29122722
-0.081358925 0.72222 0.81265414 0.2709927 0.29229993 -0.17113775 -0.54396135 -0.13164648
-0.6354025 -1.2909049 -0.18530267 0.16985664 0.043218758 -0.29542497 0.0032792757 -0.23089135
0.1995953 0.1240205 -0.18037254 -0.16530178 0.21118645 0.087854125 -0.42048836 0.2718288
0.08534566 -0.6035354 0.09093199 0.23406 -0.43915564 -0.5534414 -0.30032974 -0.63814926
0.0006450874 -0.017511543 -0.40441325 0.52323186 0.18254027 -0.13874765 -0.61690366 -0.43649825
-0.18227562 -0.6870387 -0.5948415 0.25626382 -0.44622153 -0.47508523 -0.31700253 0.041439354
-0.11073635 -0.079614684 0.12880866 0.0042221015 -0.042505886 0.08538971 -0.13770963 0.14434023
-0.591316 -0.07935963 -0.19851057 -0.30064029 -0.1662772 -0.28447276 -0.33594835 -0.16975021
-0.022480998 0.14141308 -0.22907054 -0.062657304 0.17854933 -0.13766873 0.20502168 0.11117175
-0.022617636 -0.4669202 -0.62595737 -0.67905056 -0.46909925 -0.14748861 -0.2921476 -0.091776565
-0.2583489 -0.17823265 0.08491819 -0.6148158 -0.2763041 0.008600302 -0.7751367 -0.58545345
0.018664181 -0.8627268 -0.39400336 0.26371476 -0.046487782 0.085221484 0.3667317 0.123835765
0.09050569 0.1935558 0.24627303 0.08607743 0.26663172 0.1349981 0.15655075 -0.083095305
-0.012098599 0.0073016235 -0.030186411 0.23035468 -0.1659393 0.11051221 -0.06981005 0.26711822
-0.45286918 -0.43185574 0.019859627 -0.5533964 -0.50518876 -0.16675805 -0.17496417 -0.08527716
-0.057816807 -0.15214844 0.052121535 0.07143809 -0.06871249 0.180092 0.15241304 -0.16566205
-0.0054766107 -0.42530322 0.18263187 0.3602999 -0.100474894 -0.00867844 0.22717606 -0.1176417
0.2563459 0.15509306 -0.24999635 0.46281478 0.5025307 0.04822204 0.4893303 0.5036338
0.14394638 -0.049349822 -0.088651955 -0.07871797 -0.28832322 -0.12096012 -0.14720872 -0.038704526
0.07941904 0.16682123 -0.19644754 -0.2396121 0.04246898 -0.16640411 -0.14937949 -0.037252385
0.1684328 -0.21665461 0.122038975 0.09470437 0.13449049 0.018846871 0.13212965 0.23539346
0.08051988 0.030658856 -0.05584746 0.09405905 0.16096373 -0.022571951 0.10957817 -0.41441745

layer3.0.bias f4 [64]
00000000: 4315 ca41 d49a b441 dc53 ea41 4405 eb41
00000010: c221 ba41 24e7 bc41 f799 fc41 bff3 b441
00000020: f8d0 c841 3f3d d841 e142 c641 f638 d841
00000030: e75f ad41 6f53 c841 45e5 bb41 243c e241
00000040: a4b2 d041 1fec c241 d839 d741 4db7 e741
00000050: 55be c441 47d1 c441 3499 e541 4151 ce41
00000060: 13e4 c041 3912 bf41 7de9 d541 52d8 e941
00000070: 3159 c241 e0db c241 a99a b141 f060 c541
00000080: 699f e241 e2d5 e341 4393 8741 4339 bf41
00000090: 750a cd41 3a5e bb41 e485 b141 d6a1 cf41
000000a0: ce1c a541 a263 ad41 1eb3 e141 ddaf b041
000000b0: e699 d341 fbd6 c541 e9a3 ac41 397a 9d41
000000c0: e427 cb41 22e7 d141 1ab6 d241 f2b1 c641
000000d0: 940b ae41 c60a f841 6328 c641 a32c d641
000000e0: eec0 bb41 e86e c741 8ab8 cd41 5f28 b941
000000f0: 5cba d741 3249 b641 13e9 cb41 1e8a b541
25.260382 22.5756 29.290947 29.377571 23.266483 23.612862 31.575178 22.619017
25.102036 27.029905 24.782656 27.027813 21.671827 25.04074 23.486948 28.279366
26.087227 24.365294 26.903244 28.964502 24.592936 24.602186 28.699806 25.789675
24.111364 23.883898 26.739008 29.230625 24.29355 24.35736 22.200518 24.672333
28.327837 28.479435 16.946905 23.90296 25.630106 23.42101 22.190376 25.954021
20.639065 21.673649 28.21246 22.08587 26.450146 24.72997 21.580034 19.684679
25.394478 26.237858 26.338917 24.836887 21.755653 31.00526 24.76972 26.771795
23.469204 24.929153 25.715107 23.144712 26.965996 22.78574 25.488806 22.69244

layer3.1.weight f4 [64]
00000000: 8029 933f 481e 253f 8815 ab3f ccfe a93f
00000010: dee9 573f 024d 703f a453 bc3f 6125 843f
00000020: fe46 873f fdb5 913f 2996 2e3f a271 913f
00000030: 548d 833f 0397 743f 8cf2 873f 1473 8d3f
00000040: 1f10 883f 7810 673f 699c a03f 4bdf 8f3f
00000050: 1bea 833f a00c 5a3f 40c2 973f 14fd 783f
00000060: fdc6 523f b16b 533f a119 6d3f ce30 953f
00000070: e2ab 643f 4442 613f ef55 853f a24f 943f
00000080: 6366 823f 0be8 8b3f 4f98 553f 2ac5 803f
00000090: e1b7 6b3f c8c9 5a3f f548 943f 9135 683f
000000a0: a0ed 2b3f 637a 683f 936d 913f 46b9 653f
000000b0: 66e4 6d3f e70c 643f ba89 493f 1a84 413f
000000c0: 45d2 473f 4eb0 7c3f 309f 723f 0318 7d3f
000000d0: 16ee 4e3f 9360 cb3f 9fa5 483f 1cae 923f
000000e0: 76b1 753f 8bec 533f f44b 713f 06c4 6f3f
000000f0: 4870 4c3f dc90 513f 03cd 9c3f 13e8 923f
1.149704 0.6449933 1.3365946 1.3280883 0.8434123 0.93867505 1.4713025 1.0323907
1.056854 1.1383663 0.68197876 1.1362803 1.0277505 0.95542926 1.0620894 1.1050744
1.062992 0.90259504 1.2547733 1.1240019 1.0305818 0.85175514 1.1856155 0.97261167
0.8233488 0.825862 0.9261723 1.1655519 0.8932477 0.8799174 1.041685 1.1586802
1.0187496 1.0930189 0.8343553 1.006017 0.9207745 0.85464144 1.1584765 0.90706736
0.6715946 0.9081175 1.1361564 0.8973583 0.92926633 0.8908219 0.7872578 0.75592196
0.7805522 0.9870652 0.9477415 0.98864764 0.8083204 1.5888847 0.7837772 1.1459384
0.9597391 0.8278281 0.9425652 0.93658483 0.7985883 0.8186166 1.2250065 1.1477073

layer3.1.bias f4 [64]
00000000: 1d23 f5be 8614 02bf df99 35bf 2a8c 95be
00000010: e7d6 c3be df11 05bf cb42 3ebf e76c c2be
00000020: 718e a4be b84a 22bf 03ae e2be 5c56 8bbe
00000030: 9405 e6be 647f e2be bc81 dcbe 5cf8 b2be
00000040: 4d3f f4be bdf7 1dbf 85c0 a1be 9fd4 25bf
00000050: 4813 ffbe 8e4b 05bf 3f18 2dbf fa30 9cbe
00000060: a0f4 e9be 5104 1cbf 43bc 11bf 5ebc 64be
00000070: 155e 18bf abe9 d3be 2568 c2be 0489 52be
00000080: c5ec 1bbf e7ca 4bbf 7a33 f7be 49b9 d2be
00000090: 269f fdbe 41b4 62be b3c0 a5be b8b6 a3be
000000a0: b0ba c0be f191 6fbe 9a0a 1bbf 2bd1 19bf
000000b0: ad7c 0dbf 91d8 22bf c901 0abf df8b b5be
000000c0: 0921 19bf 4452 14bf ac71 eabe ea28 16bf
000000d0: ecbc b9be a272 01bf ea55 a6be be3c 19bf
000000e0: eae0 bbbe b16a b8be efb1 8fbe c525 08bf
000000f0: 2b4f edbe 2c20 96be ccad fbbe de66 7fbe
-0.47878352 -0.50812566 -0.70937914 -0.292085 -0.38249895 -0.51980394 -0.7432067 -0.3797371
-0.32139924 -0.6339526 -0.44273385 -0.27214324 -0.4492613 -0.44237816 -0.4306773 -0.34955108
-0.47704545 -0.61706144 -0.31592193 -0.6477756 -0.49819398 -0.5206841 -0.6761512 -0.30506116
-0.45694447 -0.60944086 -0.5692789 -0.22337481 -0.5951856 -0.41389212 -0.3797008 -0.2056008
-0.60908157 -0.7960648 -0.4828146 -0.41156986 -0.49535483 -0.22139074 -0.3237358 -0.3197534
-0.3764243 -0.23395516 -0.6056305 -0.6008479 -0.55268365 -0.63611704 -0.53908974 -0.35458276
-0.5981603 -0.5793803 -0.4578985 -0.5865618 -0.36276948 -0.5056554 -0.32487422 -0.5985831
-0.36695033 -0.360189 -0.2806544 -0.5318263 -0.46349463 -0.2932142 -0.49156034 -0.24941584

layer3.1.running_mean f4 [64]
00000000: 1b3b 1d41 9756 7d41 5356 b441 bcfe ba41
00000010: 4df9 8e41 3338 6741 933e bc41 ca16 7940
00000020: ed6f 4441 5a93 b841 6057 e641 b284 af41
00000030: 6663 2a41 120d 6841 53e5 3a41 67b1 a941
00000040: fb54 ba41 9813 9e41 9758 8a41 68af d041
00000050: 7956 2241 c93b ea41 bfbc d341 ec84 9141
00000060: 4593 ba41 f9a5 6d41 063e 9b41 3c32 b441
00000070: d61e 4741 3a6c 9541 0b26 2d41 e9f7 8341
00000080: 7120 d341 daa7 c141 0c1c 0c3f 682c 7441
00000090: 1d0b c541 2e73 8f41 a6b6 4741 dd9a a541
000000a0: 8089 6b41 64b1 2541 1141 b041 98a5 8241
000000b0: a21c 9541 b654 ed41 6f5e 5d41 e713 6041
000000c0: e9ad a741 4ea4 ed41 ad47 b341 cbc6 7741
000000d0: 6d97 1141 8482 c341 df63 9d41 2a27 9441
000000e0: a6d6 9141 d198 8841 d337 c541 3364 9541
000000f0: 197b 0a42 7773 aa41 7c15 8641 ace4 3f41
9.82693 15.83364 22.54215 23.374382 17.871729 14.4512205 23.530554 3.892016
12.277326 23.071949 28.792664 21.939793 10.649267 14.503191 11.680987 21.211622
23.291494 19.759567 17.293257 26.085648 10.1461115 29.279192 26.467161 18.189903
23.321909 14.853021 19.405285 22.524529 12.445028 18.677845 10.821788 16.49605
26.39084 24.206959 0.54730296 15.260841 24.630426 17.93124 12.482092 20.700617
14.721069 10.355808 22.03177 16.330856 18.63898 29.666363 13.835555 14.004859
20.959917 29.705227 22.409998 15.486033 9.099469 24.438728 19.673765 18.519123
18.229809 17.074617 24.652258 18.673925 34.620213 21.30638 16.76049 11.993328

layer3.1.running_var f4 [64]
00000000: 6d9c f542 ced1 6a42 ed2f b842 ced1 9142
00000010: 4c9c 8e42 0c82 9242 9c5a 5342 b014 fb42
00000020: 1a99 e842 f329 7742 2a39 0c42 feed 6542
00000030: 8adf b542 a8f0 8242 adea 0743 fac2 9b42
00000040: 0c39 4042 9370 3642 94b6 d242 2604 5542
00000050: 85ce 4b42 3bd2 2042 e8e4 5942 001f 9e42
00000060: 3d91 8b42 6ef2 5742 423a 3d42 5d37 7942
00000070: fdc0 5942 6ce8 7d42 eb45 ee42 f5b7 1043
00000080: a818 2242 09a2 3742 6812 1043 8ab6 9f42
00000090: c426 6642 d3e6 ad42 0c3f 2843 38ca 9042
000000a0: d8a1 3042 9888 9842 9ddf 3d42 6866 8342
000000b0: 926e 6a42 61ee 3042 0d1f 8442 c255 8a42
000000c0: 5818 1542 e93d 5242 1f51 1742 3f8c b942
000000d0: c49c 9a42 9a7c 9242 f428 4d42 4a03 9a42
000000e0: ea6e ec42 76cb 3a42 d3ed 9b42 124b 9342
000000f0: 2c86 1342 4568 1543 13bf d042 2269 cd42
122.80552 58.704887 92.093605 72.909775 71.30527 73.254 52.838486 125.540405
116.29903 61.790966 35.055824 57.482414 90.9366 65.47003 135.9167 77.88081
48.05571 45.609936 105.3566 53.25405 50.95168 40.205303 54.47354 79.06055
69.78367 53.986748 47.306892 62.304066 54.438465 63.476974 119.13656 144.71858
40.52408 45.908237 144.0719 79.85652 57.537857 86.95083 168.24628 72.39496
44.15805 76.266785 47.468372 65.70001 58.60798 44.23279 66.060646 69.167496
37.273773 52.56046 37.82922 92.77392 77.30618 73.24336 51.289993 77.006424
118.21663 46.698692 77.9645 73.64662 36.881027 149.4073 104.37319 102.70534

layer4.0.weight f4 [64, 64, 3, 3]
00000000: d1cf 49bf 71ba 65bd f627 803d c4a2 e8be
00000010: 2435 c03e 71c0 6f3e 15b1 1fbe 6411 123f
00000020: c8a1 393e 06e1 26bd 7480 90be bae4 c3be
00000030: 52cf 01be e906 78be 988f e3be ce19 213e
00000040: 9a8f 00bc d498 c1be 98cf 4fbf cc04 29bf
00000050: 73aa 49bf 6a1e 2fbf 2cc1 52be 246f 17bf
00000060: 7319 21bf 64e6 a83d add2 76be ef30 fbbe
00000070: 2430 fe3d b6b1 f03e 2766 91be d2ab 673e
00000080: 3050 b93e aed6 90be adb1 013e aca9 633e
00000090: 9c40 cabe 8785 7dbe eb1f a8bd b339 6abe
000000a0: d7b6 9ebd f2e1 6ebd 29c9 20be 25b0 303c
000000b0: 6f9a 08be 41ea 41be a959 babd dd03 82be
000000c0: e0aa cf3d 1d7a e83d d700 05bb 3309 41be
000000d0: 53ec 3d3d 619e 073e 510d 1b3e 1c8d fe3e
000000e0: 981e 1e3e 3533 a33c 2841 123f 22f8 c53e
000000f0: 0b40 143e edcc 2a3f d262 363e 4bcb bdbe
00000100: 1413 3abf bfd3 2dbf ed5c 8abe 700e 24bf
00000110: 8832 12bf 63c4 babe f776 16bf c855 16bf
00000120: d411 2fbd 3842 233e 1182 dcbd 21db c03e
00000130: 9214 543f 2646 153f 1780 083f bcdd 403f
00000140: 01b1 993e cbae 1fbc 713f 923e 9433 1f3e
00000150: bc9a 023e f5b5 8d3e 67c3 1ebe a0ef 973d
00000160: abdc abbd f830 4dbe 2e8a 493e dd7f 6a3e
00000170: bad7 093e 9104 1ebd 3b50 2dbd 13d6 a63d
00000180: 42f8 84be ad3a 0cbe 9fa6 96bd 3c6b 263d
00000190: d852 eabd 054a ddbe 48d7 7d3e e8ac 283e
000001a0: 7ecb 47be 2e30 c73d e115 0b3d f261 a4be
000001b0: a537 a5bc 7fa5 293c ed66 123c ec85 19be
000001c0: 0dee 0d3e ae1d e13d dada 8abe 2023 a4bd
000001d0: 477a a13d 1f4a af3d b47c 89bd 8406 0f3e
000001e0: 436f 0a3e 3c0e 473e 4a06 5f3e ba95 9e3e
000001f0: a07d 1d3f 6abc ba3e 4d99 683c 1ee4 1bbd
00000200: 0970 aabe 31b9 0e3f 91d7 383f 4cb2 163e
00000210: 32a7 463f fbfc 5a3f 3def f23e e6af 1c3e
00000220: 01e2 a23e a5a9 1d3d f911 883e d637 7f3e
00000230: 06f8 3a3e b2d8 433d c04e 273b cbcc fc3d
00000240: 393f 503e 2f93 383e 3369 0cbc b735 2f3e
00000250: 6db0 fe3e ac18 9ebd 3f56 b63e 7330 c03e
00000260: c2bd 3fbc aa5c c23e eb60 b3be 5a81 c6be
00000270: 609b 993d 7d20 86bf cbf3 52bf d317 4d3e
00000280: 0a70 9abe 3b27 343c 71db e73c f1ab 103e
00000290: b21c f73e 626b 353e aa34 c43e 96bc 973e
000002a0: 807f 14be 9912 09be 4b68 bfbe da9d 983e
000002b0: 71f1 ce3e 3f22 203f fb69 c13e 85cf 2c3e
000002c0: 3484 da3e bb21 1abd 6716 d9be 97bb c63c
000002d0: 8af2 98bd bd5f 5cbe 467d 723d 973a 3d3e
000002e0: f360 d0bd d8d9 a93e 97b2 d4be 8bf9 28bf
000002f0: d6ee 34be 75c0 c6bc 50e7 5ebe ecec 2bbe
00000300: e529 33be 7955 98be cdb6 ddbe 9746 d4bd
00000310: 7d65 083d 82d5 1bbe 189d 17bf 32cc 13be
00000320: dd75 803e e479 043d 6d85 9cbd 024e 483e
00000330: cdf0 3d3e 3658 1abe 9796 313d c2b6 86bd
00000340: dcd8 08bd a575 6abe 9a9a 623d ce87 c43d
00000350: 7e4c 9b3d b1d1 163e 0996 e93d 43e7 6e3e
00000360: ec88 e83e fd4c bc3e f60d 873e d74d 7c3e
00000370: d995 0e3e 6020 fcbd bd74 a8bd 8227 0dbe
00000380: e013 b9be 93d4 b13d cfd7 0ebe 9e15 743c
00000390: c793 dcbd fd7f 6abe 2f57 1f3b bd1b e4be
000003a0: 95d4 1ebf 79ec 24bf fd8d 993e ab7f 123d
000003b0: 5c8d 703e 60c0 a2bd 5f1b 6abe 5436 1d3e
000003c0: 6559 b7be 7dac 03bf 887e 01be b0ae 9cbe
000003d0: 96bd dbbe 4715 11bf 22ab 5bbe dcd1 37bd
000003e0: 67fc b2be c1a0 cc3e 9115 3e3f 1151 cc3e
000003f0: a8cc 88be 3f95 8ebe fe5e 5cbc a3f1 8fbe
-0.7883273 -0.056086008 0.06257622 -0.4543668 0.37540543 0.23413254 -0.15594895 0.57057786
0.18128121 -0.040741943 -0.28223002 -0.38260442 -0.12676743 -0.24221386 -0.4444549 0.157325
-0.007846737 -0.3781191 -0.8117614 -0.66022944 -0.7877571 -0.68405783 -0.20581502 -0.5915396
-0.6292946 0.082470685 -0.24103804 -0.4906077 0.12411526 0.47010583 -0.2839825 0.22624138
0.3619399 -0.28288788 0.12665434 0.22232693 -0.39502418 -0.24757968 -0.08209213 -0.22873573
-0.07749718 -0.058320947 -0.15701737 0.010784184 -0.13340162 -0.18937017 -0.090991326 -0.25393572
0.10140014 0.11351416 -0.002029469 -0.18851165 0.046367954 0.1324401 0.15141799 0.49717033
0.15441358 0.019921878 0.5713067 0.38665873 0.14477555 0.6671894 0.17811134 -0.37069163
-0.7268536 -0.67901224 -0.27024022 -0.6408453 -0.57108355 -0.36477956 -0.58775276 -0.5872464
-0.04274161 0.15943229 -0.10766996 0.37667182 0.8284389 0.58310163 0.5332045 0.7533834
0.30017856 -0.009746264 0.28564027 0.15547019 0.12754339 0.27677885 -0.15504228 0.07418752
-0.083916984 -0.20038211 0.19681618 0.22900338 0.134612 -0.038578574 -0.04231284 0.081463
-0.25970656 -0.13694258 -0.07355999 0.04062961 -0.114415824 -0.43220535 0.24789155 0.16472208
-0.1951122 0.097259864 0.033956412 -0.32105976 -0.020168135 0.010354399 0.008935672 -0.14992493
0.1386034 0.10991989 -0.27120095 -0.08014512 0.07884651 0.08559059 -0.06713238 0.1396733
0.13519005 0.19439024 0.21779743 0.30973607 0.61519814 0.36471874 0.014196706 -0.038059346
-0.332886 0.5575133 0.7220393 0.14716452 0.7759887 0.8554227 0.4744815 0.15301475
0.31813052 0.038491864 0.26576212 0.24923643 0.18258676 0.04781408 0.0025529116 0.12343749
0.20336618 0.18024896 -0.008570003 0.17110334 0.49743977 -0.077195495 0.35612676 0.37536964
-0.011702957 0.37961322 -0.3503488 -0.38770562 0.075003386 -1.0478665 -0.8240325 0.2002862
-0.30163604 0.010995681 0.02830288 0.1412809 0.4826408 0.17716745 0.3832143 0.29636067
-0.14501762 -0.13386 -0.37384257 0.2980793 0.4041858 0.62552255 0.3777617 0.16876037
0.42678988 -0.037629824 -0.42399904 0.024259372 -0.07468136 -0.21520896 0.0592015 0.18479382
-0.101747416 0.33174014 -0.41542503 -0.6600577 -0.17669234 -0.024261693 -0.21767926 -0.16789597
-0.1749645 -0.2975271 -0.43303528 -0.103650264 0.03329991 -0.15218166 -0.5922408 -0.14433363
0.25089923 0.032342806 -0.076426364 0.19561008 0.1854889 -0.15072712 0.043356504 -0.06577827
-0.03340994 -0.2289644 0.05532322 0.09596215 0.07582949 0.14728428 0.1140557 0.23330407
0.45416963 0.36777487 0.2637784 0.24639069 0.1392435 -0.123108625 -0.08225391 -0.13784602
-0.36147976 0.086831234 -0.13949512 0.014897732 -0.10770374 -0.22900386 0.002431344 -0.44552413
-0.62043124 -0.6442333 0.2999114 0.035766285 0.23491424 -0.07946849 -0.22862004 0.15352756
-0.3581039 -0.5143507 -0.12645924 -0.30602026 -0.4291808 -0.5667309 -0.21452 -0.044877872
-0.34958193 0.39966395 0.7425166 0.399056 -0.2671864 -0.2784824 -0.013450382 -0.28114042

layer4.0.bias f4 [64]
00000000: 1734 e041 0e85 c541 6dc7 f041 a245 c741
00000010: b1dd 0242 3517 e141 5c6e e441 3a45 f641
00000020: 8efb fa41 bc43 d741 9042 d241 0bca e441
00000030: d19e f041 7c0b 0a42 e615 0042 a70e 0742
00000040: 8e82 ec41 78af f241 3c77 0b42 7331 0142
00000050: ddf5 ff41 a2a2 0342 fbe4 0642 556e ec41
00000060: 4a44 ea41 cfec f741 8905 0142 d3d0 0542
00000070: a2fc fb41 ff5f 0442 9a6d ef41 4175 e441
00000080: 786e f841 a1fb e641 800e e741 5cf9 e041
00000090: 1d21 de41 7c8e e541 4857 fc41 c97a f441
000000a0: 847e 0142 d4d9 ff41 9085 e941 1743 0342
000000b0: 4cda e741 c642 0042 3431 d441 4d66 e241
000000c0: 5471 f141 3427 f341 5446 ee41 c6f4 ed41
000000d0: fa49 e641 b3a4 0742 b982 e141 3448 d241
000000e0: dd7c c741 4345 ff41 775d e941 d808 eb41
000000f0: e114 fd41 434c e741 445e fe41 8f95 ea41
28.025434 24.689968 30.097376 24.909 32.716496 28.136332 28.553886 30.783802
31.37283 26.908073 26.282501 28.598654 30.077547 34.511215 32.021385 33.76431
29.563747 30.335678 34.86644 32.29829 31.99505 32.90882 33.723614 29.553873
29.283344 30.99063 32.255405 33.45393 31.498356 33.093746 29.928516 28.557253
31.05394 28.872866 28.88208 28.121758 27.766169 28.694572 31.542618 30.559954
32.37355 31.981361 29.190216 32.815517 28.98159 32.06521 26.524025 28.299952
30.180336 30.394142 29.78434 29.744518 28.786121 33.91084 28.18883 26.285255
24.935968 31.90882 29.170637 29.379318 31.635195 28.912237 31.796028 29.323027

layer4.1.weight f4 [64]
00000000: 16da 5f3f cd5c 583f 15f8 723f eee5 393f
00000010: 7a55 933f b8b1 823f 1177 7f3f 299a 803f
00000020: 9d26 583f c988 723f b3de 843f 8cb2 913f
00000030: 2e91 903f 5afe b43f 51b2 963f a645 a63f
00000040: 9ec9 7b3f e0b8 8c3f 2886 a93f 55e2 a53f
00000050: 9d30 9e3f 90be 963f c65e 9c3f 212c 723f
00000060: 535f 6b3f 80c6 973f ace7 9f3f ed57 9d3f
00000070: ed8e 863f abbd 933f 6b49 8e3f 5969 3b3f
00000080: da74 923f a8ee 783f fa8b 853f acb8 893f
00000090: d47d 823f 096a 913f 9cc7 a43f 9390 8f3f
000000a0: ef51 843f 51a3 893f 8717 853f f906 a53f
000000b0: 293f 913f e631 af3f 178c 3d3f 1f3f 913f
000000c0: f09c 8a3f cf6e 933f e54c 863f 0f90 803f
000000d0: 56ba a23f 234c a53f b014 653f 5310 743f
000000e0: 5946 603f 0e82 953f 9bf1 873f 641f 9b3f
000000f0: fd91 993f 120a 923f aab2 923f 3597 8e3f
0.8744215 0.845166 0.94909793 0.7261647 1.151046 1.0210485 0.99791056 1.0047046
0.8443392 0.9473997 1.0380462 1.1382613 1.1294305 1.4140122 1.1773168 1.2990005
0.9835452 1.0993919 1.3244066 1.2959696 1.2358586 1.1776905 1.2216423 0.94598585
0.9194233 1.1857452 1.2492576 1.2292458 1.0512367 1.1542257 1.1116155 0.7320762
1.144191 0.9723916 1.0433342 1.0759482 1.019465 1.1360484 1.2873416 1.1215996
1.0337504 1.0752965 1.0397805 1.2892753 1.13474 1.3687103 0.74041885 1.1347388
1.0829144 1.1518191 1.0492216 1.0043963 1.2713115 1.291386 0.8948469 0.9533741
0.8760734 1.1680315 1.0620607 1.2118955 1.1997677 1.1409323 1.1460774 1.1139895
