miniImagenet/SalNet_IntraClass/miniImagenet_mixture_network_5way_1shot.pkl (torch_old, 599365 bytes, 24 tensors)

layer1.0.weight f4 [64, 64, 3, 3]
-0.28430235 -0.022010423 -0.30647826 -0.2806682 0.11139043 -0.04236665 -0.35598978 -0.2683106
-0.5252011 -0.32480925 0.1820296 0.21164167 -0.17657605 0.43481386 0.35999918 0.087724805
0.5412715 0.33140635 0.27775735 0.39071774 0.37494734 0.43688443 0.8311106 0.55893195
0.28016675 0.5625542 0.4007588 0.3122199 0.2799268 0.16320889 -0.4079748 -0.29665828
-0.33152586 -0.30654407 -0.5153985 -0.29598838 -0.22419095 -0.16134878 -0.09069951 -0.17466463
0.018773306 -0.09655503 0.0008514752 0.27377498 0.13994019 -0.5264255 -0.2171951 -0.16094953
-0.32912612 0.08099381 0.008489361 0.2122859 0.45358226 0.4519608 0.081868455 0.11673724
0.18117693 0.19908611 -0.0018288643 0.2711772 0.03442281 -0.1706607 0.0860581 -0.22963122
-0.81364393 -0.35588825 -0.19983104 -0.76640797 -0.23993194 -0.12964323 -0.30050522 0.042681433
-0.0931676 0.05850038 0.36391962 -0.28221875 -0.23149908 0.32747924 0.029908804 0.047322545
0.4076428 -0.17773843 -0.26613408 -0.1532319 0.0041871984 -0.2858701 -0.14745249 0.45275947
0.12095898 0.10960512 -0.04562588 -0.11130226 0.02468233 -0.24880846 -0.25812215 -0.1825069
-0.13561365 -0.23757383 -0.0727335 -0.31165466 0.04510048 0.16783638 -0.2719406 0.23723266
0.34178424 -0.098510146 0.32015166 0.30644605 -0.26617506 -0.22796828 -0.09544206 -0.07575411
3.3800912e-05 -0.018380675 0.2005531 0.022302711 0.017207146 0.11586507 0.66780424 0.47700983
0.39462066 0.79280096 0.54638433 0.38542652 0.5276113 0.046507616 -0.28666297 -0.14824724
-0.028136805 -0.46697012 -0.5415817 -0.4007648 -0.49880674 -0.6856769 -0.62893826 -0.06893491
0.44180843 0.15932862 0.10796655 0.3394376 0.3899913 -0.030804232 -0.03888166 -0.23528978
0.17830987 0.07537883 -0.079076275 -0.3797029 -0.35987929 -0.22512905 -0.51712644 -0.45522785
-0.31819522 0.055901594 0.27653664 0.33625743 0.014604868 0.20516843 0.12018178 0.08372476
0.16057515 0.10059976 -0.5391115 -0.5590361 -0.600766 -0.20371194 -0.06827242 -0.119548984
-0.24969275 0.0024159895 0.0020806007 0.017016849 0.17264281 -0.29745045 0.3275701 0.3486671
-0.006068943 -0.13791661 -0.32510906 -0.51285094 0.4877343 0.3074517 0.65981436 0.36647066
0.016194982 0.27356556 0.29377756 -0.11340014 0.17642923 0.06429741 -0.030379087 -0.100865774
0.051192254 -0.18292357 -0.1920538 0.18703541 0.20532943 -0.17326508 -0.17522766 -0.08957345
-0.00025052868 -0.054252334 0.25171363 -0.04736338 0.37710992 0.3712305 0.42528006 -0.24573585
-0.2597559 -0.21676998 0.21936138 0.18699265 -0.09896712 0.255831 0.25240967 0.10768538
0.09862745 0.2709815 0.11228883 0.12434891 0.3141394 0.26575565 0.15545556 0.0928313
-0.019649778 -0.518691 -0.8302858 -0.8182003 -0.48378438 -0.69808763 -0.461684 -0.14252639
-0.08935559 0.11423058 -0.092901364 0.28991523 -0.0296023 -0.018609863 0.4594444 0.07280516
0.10938064 0.37929213 -0.035386875 0.06419986 0.09001812 -0.17434925 0.13695976 -0.19620594
-0.2847481 -0.020528438 -0.3760596 -0.751523 -0.15580636 -0.017445821 0.042971015 -0.23262799
00000000: 1490 91be 344f b4bc b8ea 9cbe beb3 8fbe
00000010: aa20 e43d a788 2dbd 4b44 b6be 0260 89be
00000020: 9473 06bf 664d a6be f865 3a3e 98b8 583e
00000030: 5ad0 34be ec9f de3e d051 b83e 10a9 b33d
00000040: c590 0a3f 18ae a93e 3636 8e3e 280c c83e
00000050: 19f9 bf3e 51af df3e aac3 543f 2a16 0f3f
00000060: 0472 8f3e 8d03 103f 4230 cd3e 49db 9f3e
00000070: 9152 8f3e 3b20 273e 13e2 d0be 98e3 97be
00000080: c2bd a9be 58f3 9cbe 28f1 03bf ca8b 97be
00000090: 5092 65be 9d38 25be aac0 b9bd 49db 32be
000000a0: 7aca 993c a5be c5bd 8935 5f3a 3c2c 8c3e
000000b0: 7b4c 0f3e d2c3 06bf 6468 5ebe f4cf 24be
000000c0: 3883 a8be 15e0 a53d f616 0b3c 7a61 593e
000000d0: ef3b e83e 6867 e73e a6aa a73d ef13 ef3d
000000e0: 7286 393e 3bdd 4b3e 81b6 efba bdd7 8a3e
000000f0: effe 0c3d aec1 2ebe 3b3f b03d 7224 6bbe
00000100: f84a 50bf fc36 b6be 82a0 4cbe 5033 44bf
00000110: b8b0 75be 32c1 04be d2db 99be bad2 2e3d
00000120: a8ce bebd 189e 6f3d ac53 ba3e fa7e 90be
00000130: 180e 6dbe 5cab a73e 4f03 f53c 49d5 413d
00000140: 8fb6 d03e 1001 36be ba42 88be d3e8 1cbe
00000150: c434 893b 915d 92be c9fd 16be 17d0 e73e
00000160: 57b9 f73d a678 e03d 34e2 3abd 70f2 e3bd
00000170: 9932 ca3c a5c7 7ebe 9628 84be 17e3 3abe
00000180: 4ede 0abe 8e46 73be 4df5 94bd 3391 9fbe
00000190: 48bb 383d 4ddd 2b3e cc3b 8bbe 1eed 723e
000001a0: 58fe ae3e b0bf c9bd ebea a33e 7fe6 9c3e
000001b0: 1948 88be 8470 69be 2077 c3bd f924 9bbd
000001c0: 74c5 0d38 1293 96bc cb5d 4d3e 2db4 b63c
000001d0: 00f6 8c3c aa4a ed3d 38f5 2a3f a23a f43e
000001e0: b80b ca3e 01f5 4a3f d8df 0b3f a056 c53e
000001f0: 8911 073f c57e 3e3d 7dc5 92be 20ce 17be
00000200: 287f e6bc b516 efbe 19a5 0abf 0b31 cdbe
00000210: 9963 ffbe 8588 2fbf 1902 21bf bf2d 8dbd
00000220: b734 e23e 0b27 233e 911d dd3d c4ca ad3e
00000230: f1ac c73e 2859 fcbc 6042 1fbd ceef 70be
00000240: dd96 363e 3760 9a3d bef2 a1bd 6b68 c2be
00000250: 1942 b8be 3b88 66be 6662 04bf a013 e9be
00000260: 7cea a2be 12f9 643d 3696 8d3e ef29 ac3e
00000270: 4249 6f3c ac17 523e dd21 f63d e377 ab3d
00000280: d06d 243e 3f07 ce3d 3603 0abf fd1c 0fbf
00000290: cdcb 19bf dd99 50be 69d2 8bbd 19d6 f4bd
000002a0: 75af 7fbe 9455 1e3b b05a 083b eb66 8b3c
000002b0: 47c9 303e 6d4b 98be 45b7 a73e 7e84 b23e
000002c0: fcdd c6bb 033a 0dbe b274 a6be 334a 03bf
000002d0: 4fb8 f93e 4f6a 9d3e 98e9 283f 0ba2 bb3e
000002e0: 57ab 843c c910 8c3e 036a 963e 553e e8bd
000002f0: dda9 343e 5cae 833d 90dd f8bc b792 cebd
00000300: f8ae 513d 5150 3bbe c0a9 44be 3686 3f3e
00000310: e141 523e 676c 31be e16e 33be 4972 b7bd
00000320: 6459 83b9 b237 5ebd 9ce0 803e 1b00 42bd
00000330: 8d14 c13e ed11 be3e 4fbe d93e 2ea2 7bbe
00000340: bafe 84be f3f8 5dbe 45a0 603e 007b 3f3e
00000350: 46af cabd 48fc 823e d73b 813e 278a dc3d
00000360: 30fd c93d 16be 8a3e b0f7 e53d a4aa fe3d
00000370: e1d6 a03e 2011 883e be2f 1f3e 561e be3d
00000380: 92f8 a0bc efc8 04bf 9c8d 54bf 9375 51bf
00000390: 96b2 f7be dfb5 32bf d861 ecbe 70f2 11be
000003a0: 1000 b7bd b9f1 e93d 1243 bebd c56f 943e
000003b0: 8680 f2bc b673 98bc 4c3c eb3e df1a 953d
000003c0: f502 e03d 9432 c23e d4f1 10bd 377b 833d
000003d0: 6c5b b83d 9c88 32be 2e3f 0c3e 36ea 48be
000003e0: 81ca 91be 412b a8bc e28a c0be d063 40bf
000003f0: b48b 1fbe 8aea 8ebc 6002 303d 0836 6ebe

layer1.0.bias f4 [64]
19.073774 19.349215 18.931719 23.000904 20.897207 19.208746 21.270222 24.844307
22.22788 17.084343 24.481756 23.14625 19.4731 20.803514 18.133945 19.17952
12.726619 23.631618 19.420086 17.19859 25.876575 21.756674 24.351143 14.083484
16.296204 20.299011 22.036812 20.38142 20.214514 21.03202 18.624205 19.082378
17.950712 16.488382 16.316172 21.780464 18.042343 19.950153 22.115042 21.61852
21.480768 20.876745 16.520681 19.641846 16.808382 22.092207 23.572826 21.197826
20.218138 19.28794 19.394732 17.763178 18.402613 17.55416 21.123665 22.11302
20.16522 22.84807 19.077263 21.51358 21.54296 21.201736 22.425762 19.316652
00000000: 1797 9841 31cb 9a41 2974 9741 da01 b841
00000010: 7b2d a741 83ab 9941 6a29 aa41 24c1 c641
00000020: b3d2 b141 bcac 8841 a3da c341 852b b941
00000030: e9c8 9b41 996d a641 5212 9141 a86f 9941
00000040: 3ba0 4b41 8e0d bd41 565c 9b41 b696 8941
00000050: 3a03 cf41 ab0d ae41 24cf c241 f355 6141
00000060: a05e 8241 6064 a241 644b b041 260d a341
00000070: 53b7 a141 9441 a841 5ffe 9441 b6a8 9841
00000080: 0f9b 8f41 35e8 8341 8587 8241 643e ae41
00000090: b856 9041 ea99 9f41 9beb b041 bbf2 ac41
000000a0: 9dd8 ab41 9303 a741 5b2a 8441 8022 9d41
000000b0: 9177 8641 d7bc b041 2695 bc41 2695 a941
000000c0: bfbe a141 b34d 9a41 6928 9b41 fd1a 8e41
000000d0: 8d38 9341 eb6e 8c41 44fd a841 77e7 b041
000000e0: 5f52 a141 d9c8 b641 3c9e 9841 d01b ac41
000000f0: fb57 ac41 289d a941 f667 b341 8188 9a41

layer1.1.weight f4 [64]
0.98149806 0.98950106 0.9732003 1.2678328 1.1336932 0.99060065 1.0993062 1.0723798
1.1049623 0.69576806 1.2424717 1.1444871 1.1810085 0.9753943 0.91169 0.95365417
0.44321474 1.3034121 0.9066772 0.8204456 1.3369362 1.1073728 1.2737458 0.63376087
0.7297767 0.9526112 0.99605453 1.1553673 1.2145677 1.2097291 1.0034438 0.90351266
1.0515695 0.7296848 0.6933234 0.97488844 1.1251863 1.0983634 1.0609747 1.1246662
1.052596 1.2419393 0.9234453 0.93347627 0.85230774 0.9799719 1.1880432 0.98022443
1.0673379 0.9156662 0.89639974 0.9571365 0.86317706 0.8073794 1.1054691 1.1639066
1.2028275 1.1128342 0.9899594 0.9566685 1.1828004 1.1204125 1.1576346 1.0907507
00000000: 7543 7b3f f14f 7d3f a823 793f 5848 a23f
00000010: dc1c 913f 0198 7d3f 11b6 8c3f be43 893f
00000020: 686f 8d3f db1d 323f 5009 9f3f 8e7e 923f
00000030: 492b 973f 71b3 793f 8464 693f ae22 743f
00000040: 0bed e23e 35d6 a63f ff1b 683f b908 523f
00000050: ba20 ab3f 64be 8d3f 1a0a a33f 273e 223f
00000060: a5d2 3a3f 54de 733f 6efd 7e3f 13e3 933f
00000070: f476 9b3f 67d8 9a3f d970 803f 9b4c 673f
00000080: d499 863f a0cc 3a3f a47d 313f 4a92 793f
00000090: 1b06 903f 2c97 8c3f 05ce 873f 10f5 8f3f
000000a0: 77bb 863f def7 9e3f e966 6c3f 4df8 6e3f
000000b0: d730 5a3f 70df 7a3f cd11 983f fdef 7a3f
000000c0: 879e 883f 1a69 6a3f 747a 653f e606 753f
000000d0: 2cf9 5c3f 6bb0 4e3f 0380 8d3f e4fa 943f
000000e0: 40f6 993f 5a71 8e3f fb6d 7d3f 3ae8 743f
000000f0: 0166 973f ad69 8f3f 5f2d 943f b89d 8b3f

layer1.1.bias f4 [64]
-0.5755063 -0.30262733 -0.5576599 -0.7198738 -0.45263836 -0.36753127 -0.8118268 -0.88934624
-0.6950321 -0.55785465 -0.5514055 -0.757325 -0.46024862 -0.8453619 -0.44580546 -0.54702634
-0.42688915 -0.3361558 -0.4602298 -0.3804042 -0.27544063 -0.3632098 -0.5196341 -0.5544453
-0.60798156 -0.48984006 -0.5579629 -0.57368314 0.10723036 -0.35534286 -0.35382318 -0.7657087
-0.6107473 -0.78725946 -0.71024495 -0.48579785 -0.40795967 -0.3005726 -0.6422119 -0.7060957
-0.50713044 -0.43351167 -0.29595 -0.73408157 -0.44125095 -0.32078984 -0.6887431 -0.58642083
-0.59550685 -0.5551491 -0.7491645 -0.549918 -0.6378182 -0.6077196 -0.4768068 -0.4924078
-0.48334607 -0.7407045 -0.49458897 -0.43934184 -0.5149559 -0.63309383 -0.6032647 -0.305494
00000000: 6254 13bf f8f1 9abe cdc2 0ebf a649 38bf
00000010: 37c0 e7be 0f2d bcbe e2d3 4fbf 32ac 63bf
00000020: a0ed 31bf 90cf 0ebf e928 0dbf 0de0 41bf
00000030: b5a5 ebbe a369 58bf 9d40 e4be eb09 0cbf
00000040: 3791 dabe 9d1c acbe 3ea3 ebbe 57c4 c2be
00000050: 8e06 8dbe a3f6 b9be be06 05bf 21f0 0dbf
00000060: aea4 1bbf 51cc fabe a8d6 0ebf e6dc 12bf
00000070: 979b db3d 80ef b5be 5028 b5be 7c05 44bf
00000080: ef59 1cbf d689 49bf 9dd2 35bf 7fba f8be
00000090: 17e0 d0be a7e4 99be 0068 24bf b0c2 34bf
000000a0: 4dd3 01bf 3ef5 ddbe c286 97be c5ec 3bbf
000000b0: a5eb e1be 913e a4be 7851 30bf ad1f 16bf
000000c0: 2373 18bf 401e 0ebf 3fc9 3fbf 6dc7 0cbf
000000d0: 0e48 23bf 8393 1bbf 0520 f4be e01c fcbe
000000e0: 2379 f7be cf9e 3dbf c43a fdbe 6af1 e0be
000000f0: 26d4 03bf 7012 22bf 8e6f 1abf b669 9cbe

layer1.1.running_mean f4 [64]
0.5118407 -7.3220124 -4.3628283 17.373964 -11.57724 -0.30924785 -0.8793107 17.325903
15.45863 13.325386 26.650373 18.961132 1.7934253 2.2376711 -3.0147297 7.1841707
11.811548 30.309147 -2.1910317 6.7599816 14.461662 2.383293 11.448495 1.1704713
-4.2685866 -0.8674566 16.915668 -0.5813007 3.5968869 -9.107283 -1.0504594 6.1563077
18.267347 16.918877 6.165069 3.4814334 -10.0040045 5.349774 12.703669 0.6927553
20.105581 0.30645373 0.23037066 5.7528563 -2.7979546 9.356339 2.8993843 5.716608
4.6772666 -4.710313 7.6992035 -3.2012656 4.09168 24.364565 -3.7733836 7.215162
11.054902 7.11398 -2.153173 2.1090944 18.460953 35.55378 9.446262 4.488774
00000000: fe07 033f ed4d eac0 4a9c 8bc0 e1fd 8a41
00000010: 603c 39c1 bc55 9ebe 821a 61bf 739b 8a41
00000020: 8c56 7741 c834 5541 f733 d541 66b0 9741
00000030: f68e e53f 0136 0f40 55f1 40c0 bae4 e540
00000040: 1afc 3c41 2279 f241 dd39 0cc0 c551 d840
00000050: f862 6741 df87 1840 092d 3741 01d2 953f
00000060: 4398 88c0 a311 5ebf 4a53 8741 1fd0 14bf
00000070: 6533 6640 6eb7 11c1 7475 86bf 7900 c540
00000080: 8723 9241 dc59 8741 3f48 c540 cecf 5e40
00000090: 6710 20c1 5931 ab40 3a42 4b41 6958 313f
000000a0: 3bd8 a041 81e7 9c3e 49e6 6b3e 6617 b840
000000b0: b011 33c0 91b3 1541 838f 3940 74ee b640
000000c0: 2bac 9540 e2ba 96c0 e05f f640 89e1 4cc0
000000d0: 0bef 8240 a1ea c241 1e7f 71c0 9be2 e640
000000e0: e1e0 3041 b9a5 e340 96cd 09c0 67fb 0640
000000f0: 08b0 9341 1237 0e42 e423 1741 09a4 8f40

layer1.1.running_var f4 [64]
159.22858 121.041435 113.11254 76.3829 127.647156 107.74582 126.52307 61.847633
93.7856 84.2963 92.7772 110.35692 127.449425 87.92498 119.884575 125.094215
153.68782 129.98985 104.54395 118.247505 90.33945 85.2679 77.02017 143.69138
121.557434 141.89406 66.45509 133.51247 202.97298 134.70238 163.21228 99.74794
97.39776 63.075344 101.659546 117.201675 161.83223 104.720764 82.87365 100.68911
107.300995 120.9131 137.12209 141.58963 126.39786 76.98728 88.12125 73.87974
123.467285 104.78635 81.642 181.17024 107.41696 85.540955 156.10426 99.16981
110.57327 74.904755 85.41212 97.82537 86.58143 116.43211 96.72304 149.24365
00000000: 843a 1f43 3715 f242 9f39 e242 0bc4 9842
00000010: 584b ff42 dc7d d742 d00b fd42 fa63 7742
00000020: 3a92 bb42 b597 a842 ed8d b942 beb6 dc42
00000030: 1be6 fe42 97d9 af42 e7c4 ef42 3d30 fa42
00000040: 15b0 1943 67fd 0143 8116 d142 b97e ec42
00000050: ccad b442 2a89 aa42 540a 9a42 feb0 0f43
00000060: 681d f342 e1e4 0d43 02e9 8442 3183 0543
00000070: 15f9 4a43 cfb3 0643 5836 2343 f27e c742
00000080: a7cb c242 274d 7c42 b051 cb42 4267 ea42
00000090: 0dd5 2143 0871 d142 4fbf a542 d360 c942
000000a0: 1c9a d642 82d3 f142 411f 0943 f296 0d43
000000b0: b4cb fc42 7df9 9942 143e b042 6dc2 9342
000000c0: 40ef f642 9c92 d142 b448 a342 952b 3543
000000d0: 7cd5 d642 f814 ab42 b11a 1c43 f156 c642
000000e0: 8425 dd42 3ccf 9542 01d3 aa42 97a6 c342
000000f0: b129 ad42 3edd e842 3272 c142 603e 1543

layer2.0.weight f4 [64, 64, 3, 3]
-0.21773149 -0.18050072 -0.14563875 -0.11320902 -0.028873978 0.09158074 -0.07557336 0.0021762974
0.09943057 0.58273643 0.80296415 0.27948913 0.11955616 0.6742249 0.038726024 -0.32065234
0.08280031 -0.42154843 0.15183131 0.23924664 0.019616283 0.11610321 0.3586892 0.27397293
-0.2663517 0.009264641 0.089118056 -0.2478049 -0.51471305 -0.72396123 -0.32902738 -0.49132085
-0.64719844 -0.15480798 -0.1279051 -0.3067924 -0.45273626 -0.10795905 -0.06747588 -0.53430915
-0.062079135 0.03892535 -0.33768037 -0.049306154 -0.049783308 0.28886083 0.47996244 0.39517018
0.1272922 0.5252975 0.2069485 -0.041056335 -0.015268509 0.04133029 -0.59534174 -0.33152863
-0.36845323 -0.06817038 -0.055561125 -0.25168478 0.24113606 0.3723264 0.16044281 -0.31828642
-0.34037468 -0.22931537 -0.18932833 -0.1015399 -0.07863503 -0.39118505 -0.2570866 -0.0952652
-0.24791563 -0.5584595 -0.51778334 -0.21357964 -0.34184003 -0.19977131 0.0066224197 0.0687546
0.07642294 -0.46770313 -0.16217178 -0.0880042 -0.20828918 0.11451019 0.25022858 0.068744525
0.23889962 0.20407903 -0.97665983 -0.62808794 -0.88606304 -0.69500506 -0.45336133 -0.634793
-0.31288567 -0.047212448 -0.3187976 -0.1475272 -0.3109448 -0.27822635 -0.05075464 -0.1260158
-0.28531563 -0.39081815 -0.32623008 -0.23540977 -0.18007249 -0.063147515 -0.10203969 -0.17524788
-0.042642828 -0.08659717 -0.6636715 -0.48469114 -0.3025388 -0.2663741 -0.06929561 0.015168184
-0.38895568 -0.15381615 0.015689671 -0.51754594 -0.3465321 -0.2394922 -0.19479577 -0.22071111
-0.1895186 -0.4594928 -0.5858462 -0.66655684 -0.2962248 -0.47977647 -0.5432857 0.23910823
0.26571295 0.15231563 0.013985926 0.0027637137 0.12912656 0.15570997 0.0519811 0.18274134
0.15283728 0.12889345 0.13600232 -0.23289703 -0.24180943 -0.22521171 -0.25197807 -0.26087943
-0.32907677 -0.46042693 -0.5611937 -0.44745308 -0.120245345 -0.28322574 -0.1525766 0.164506
0.26572835 0.4201076 -0.34277016 -0.2607081 -0.4636446 -0.15426558 -0.15300813 -0.59556234
0.21157454 0.15832038 -0.21260817 0.01096374 0.09507203 0.026910108 0.09401794 0.28344536
0.19424321 0.2510057 0.23982354 0.045138437 0.39155874 0.31215236 0.26656827 0.3401649
0.37722993 0.21802719 0.39746645 0.60538405 0.40337056 0.09053067 0.14148691 0.06540799
-0.28178048 -0.17881167 -0.27952573 -0.4298016 -0.38915122 -0.74346274 -0.1580239 0.08801789
0.06299553 -0.1088279 0.1900897 0.21601267 0.20705809 0.2431264 0.33153677 -0.016400417
0.39607823 0.18482585 0.035822783 0.62401944 0.3609597 -0.19891454 0.31083792 0.0782152
-0.019113287 0.27257285 -0.09293702 0.059253693 0.28748512 0.15554957 -0.11309265 0.3421088
0.2995142 -0.021962443 0.4198893 0.18511236 0.19196385 0.26567504 0.22654271 -0.046493758
0.16131595 -0.0279984 0.39957163 0.7004106 0.28585356 0.38213715 0.67609036 0.38357863
0.037108634 0.25093672 -0.036075916 0.039511003 -0.07910727 -0.2611225 0.06830707 0.09710714
0.0723434 0.51776737 0.49311116 0.6027051 -0.093101695 -0.044157784 -0.15237327 -0.04695194
00000000: 01f5 5ebe 2ed5 38be 5322 15be 21da e7bd
00000010: 1f89 ecbc af8e bb3d 35c6 9abd 36a0 0e3b
00000020: 41a2 cb3d 372e 153f 0f8f 4d3f 3319 8f3e
00000030: dcd9 f43d 019a 2c3f 2e9f 1e3d 8b2c a4be
00000040: 3593 a93d 32d5 d7be ab79 1b3e 12fd 743e
00000050: 54b2 a03c 85c7 ed3d 1ca6 b73e 2e46 8c3e
00000060: 405f 88be b9ca 173c 8783 b63d 91c0 7dbe
00000070: 3cc4 03bf 8655 39bf 4776 a8be 688e fbbe
00000080: ccae 25bf fc85 1ebe 8ef9 02be e513 9dbe
00000090: 0ccd e7be a219 ddbd cb30 8abd 7cc8 08bf
000000a0: b146 7ebd 3070 1f3d 71e4 acbe 40f5 49bd
000000b0: 95e9 4bbd 91e5 933e a3bd f53e bf53 ca3e
000000c0: e358 023e e679 063f 4fea 533e b02a 28bd
000000d0: c528 7abc f349 293d 5168 18bf 1fbe a9be
000000e0: e7a5 bcbe ea9c 8bbd 1094 63bd d4dc 80be
000000f0: 5fec 763e 91a1 be3e 1f4b 243e 70f6 a2be
00000100: 9745 aebe a6d1 6abe 49df 41be 27f4 cfbd
00000110: 670b a1bd 6849 c8be dba0 83be 671a c3bd
00000120: 98dd 7dbe 34f7 0ebf 738d 04bf 9fb4 5abe
00000130: a805 afbe da90 4cbe e200 d93b 36cf 8c3d
00000140: a183 9c3d c976 efbe 5c10 26be 8c3b b4bd
00000150: c249 55be 5284 ea3d f61d 803e eec9 8c3d
00000160: 1aa2 743e 18fa 503e 6106 7abf 5fca 20bf
00000170: 07d5 62bf daeb 31bf fa1e e8be cb81 22bf
00000180: 8d32 a0be d761 41bd 7039 a3be 5f11 17be
00000190: 2834 9fbe af73 8ebe 19e4 4fbd 490a 01be
000001a0: e414 92be 5119 c8be a107 a7be 420f 71be
000001b0: ec64 38be 7c53 81bd 2ffa d0bd 2e74 33be
000001c0: 3faa 2ebd db59 b1bd 60e6 29bf 7029 f8be
000001d0: 5ee6 9abe 3062 88be dbea 8dbd fa83 783c
000001e0: 3325 c7be fb81 1dbe a087 803c e47d 04bf
000001f0: a86c b1be 713d 75be 8b78 47be 1802 62be
00000200: 2a11 42be a442 ebbe 04fa 15bf 78a3 2abf
00000210: c7aa 97be 43a5 f5be c614 0bbf cad8 743e
00000220: 870b 883e a1f8 1b3e 3a25 653c 6c1f 353b
00000230: c139 043e 6f72 1f3e 22ea 543d 8c20 3b3e
00000240: 6081 1c3e a5fc 033e 3144 0b3e 8f7c 6ebe
00000250: e49c 77be e69d 66be 4503 81be fd91 85be
00000260: c07c a8be 14bd ebbe 64aa 0fbf 9218 e5be
00000270: 3143 f6bd f702 91be 0a3d 1cbe 4374 283e
00000280: 8c0d 883e 5818 d73e 927f afbe 887b 85be
00000290: d362 edbe ccf7 1dbe 2aae 1cbe c676 18bf
000002a0: ffa6 583e bd1e 223e f5b5 59be 42a1 333c
000002b0: 20b5 c23d 9672 dc3c 7a8c c03d c01f 913e
000002c0: b1e7 463e d283 803e 4d94 753e 15e3 383d
000002d0: 637a c83e 6fd2 9f3e a37b 883e 182a ae3e
000002e0: 4824 c13e 8542 5f3e b980 cb3e 73fa 1a3f
000002f0: 9686 ce3e 2568 b93d f2e1 103e a0f4 853d
00000300: 8845 90be 681a 37be ff1d 8fbe f50e dcbe
00000310: d43e c7be 9353 3ebf 04d1 21be b942 b43d
00000320: cd03 813d 29e1 debd e0a6 423e 6d32 5d3e
00000330: 0907 543e 21f6 783e 30bf a93e 2b5a 86bc
00000340: c4ca ca3e fd42 3d3e e9ba 123d bdbf 1f3f
00000350: b6cf b83e 41b0 4bbe 2626 9f3e 4a2f a03d
00000360: 7893 9cbc ab8e 8b3e c455 bebd 00b4 723d
00000370: 4031 933e 6348 1f3e 1f9d e7bd e228 af3e
00000380: ed59 993e 95ea b3bc bbfb d63e 188e 3d3e
00000390: 2c92 443e 8f06 883e d0fa 673e 3d70 3ebd
000003a0: 0230 253e e75c e5bc a794 cc3e 1c4e 333f
000003b0: 665b 923e 7ba7 c33e 4214 2d3f 6b64 c43e
000003c0: 39ff 173d c77a 803e 57c4 13bd 4ad6 213d
000003d0: fe02 a2bd d9b1 85be 94e4 8b3d 1ce0 c63d
000003e0: c728 943d 678c 043f 1179 fc3e e24a 1a3f
000003f0: 1aac bebd cbde 34bd bd07 1cbe ad50 40bd

layer2.0.bias f4 [64]
18.115318 19.015316 19.95342 16.126314 18.765024 17.432056 17.735971 13.922525
17.70367 18.054693 18.596804 15.484654 18.420956 16.055737 18.880875 17.867006
19.96786 17.839428 18.958696 20.141418 18.49045 17.451094 20.836096 20.289997
18.977879 19.160675 13.726665 21.00213 18.52017 14.8516245 17.10493 17.67629
20.605696 18.033848 18.077724 18.876293 18.753258 20.018126 19.537355 16.735867
20.46587 17.937166 17.421444 18.463058 17.901285 16.179806 18.89823 18.735462
16.97271 20.556986 17.912098 18.39982 19.216782 16.795643 18.825798 20.67587
16.869799 19.068329 15.322538 17.856861 19.057192 22.592596 15.389418 18.640825
00000000: 2cec 9041 5e1f 9841 9ba0 9f41 b102 8141
00000010: c51e 9641 da74 8b41 45e3 8d41 aac2 5e41
00000020: 1ea1 8d41 0370 9041 41c6 9441 25c1 7741
00000030: 1e5e 9341 2672 8041 080c 9741 a1ef 8e41
00000040: 2dbe 9f41 26b7 8e41 69ab 9741 a021 a141
00000050: 71ec 9341 d79b 8b41 53b0 a641 ea51 a241
00000060: b2d2 9741 1049 9941 6ba0 5b41 5d04 a841
00000070: 4f29 9441 41a0 6d41 e6d6 8841 0b69 8d41
00000080: 77d8 a441 5245 9041 2e9f 9041 a602 9741
00000090: ac06 9641 1f25 a041 814c 9c41 0ee3 8541
000000a0: 1aba a341 517f 8f41 1e5f 8b41 58b4 9341
000000b0: d535 8f41 3e70 8141 932f 9741 3ae2 9541
000000c0: 1cc8 8741 b574 a441 fa4b 8f41 d532 9341
000000d0: f8bb 9941 7a5d 8641 3c9b 9641 2f68 a541
000000e0: 59f5 8641 f08b 9841 1e29 7541 dada 8e41
000000f0: 2175 9841 a3bd b441 0e3b 7641 6920 9541

layer2.1.weight f4 [64]
0.97961926 1.0295036 1.2526981 1.0118347 0.9074962 0.9925406 0.9795414 0.77827346
0.83913976 1.0831709 1.1412804 0.81245977 0.9025955 0.84894 1.0754099 1.1369416
1.1735713 0.98540074 1.1124127 1.0708643 1.0301778 1.0078399 1.2014122 1.1778584
1.0883507 1.0224396 0.902625 1.316517 1.1618044 0.88351965 0.8636837 1.1571556
1.1456563 1.1798869 1.0296913 0.8733799 1.263405 1.14528 1.1083007 0.88662
1.3942264 0.9733627 0.91952676 0.9807411 1.0017612 0.9098137 1.0054861 1.1023914
0.92172766 1.289972 1.0132712 0.93519235 1.1173362 0.88791275 1.183796 1.1354016
0.8054008 0.95577294 0.7911369 1.1542741 1.0317508 1.1711041 0.8520862 0.9785874
00000000: 54c8 7a3f c6c6 833f 6958 a03f cd83 813f
00000010: ac51 683f 2417 7e3f 3ac3 7a3f ee3c 473f
00000020: ddd1 563f 58a5 8a3f 7a15 923f 5dfd 4f3f
00000030: 8010 673f 2254 593f 08a7 893f 4d87 913f
00000040: 9637 963f 3943 7c3f 8a63 8e3f 1512 893f
00000050: dedc 833f e600 813f e0c7 993f 10c4 963f
00000060: 134f 8b3f 4ddf 823f 6f12 673f a183 a83f
00000070: 02b6 943f 582e 623f 601a 5d3f ad1d 943f
00000080: dea4 923f 8906 973f edcc 833f d395 5f3f
00000090: 41b7 a13f 8998 923f ccdc 8d3f 87f9 623f
000000a0: 0376 b23f 4c2e 793f 1b66 6b3f d911 7b3f
000000b0: b639 803f 8de9 683f c5b3 803f 291b 8d3f
000000c0: 58f6 6b3f cd1d a53f dfb2 813f c468 6f3f
000000d0: df04 8f3f 404e 633f a186 973f d754 913f
000000e0: bf2e 4e3f 89ad 743f f387 4a3f 41bf 933f
000000f0: 6910 843f bde6 953f 5222 5a3f b484 7a3f

layer2.1.bias f4 [64]
-0.26298612 -0.14674132 -0.36215097 0.14343412 -0.26440027 0.0059294947 -0.5983663 -0.17864624
-0.4639426 -0.5131979 -0.30237633 -0.545545 -0.5189531 -0.57939637 -0.18877383 -0.39253938
-0.6370327 -0.054910347 -0.38714427 -0.52174604 -0.29913813 -0.32033834 -0.26329595 -0.2038755
-0.38777736 -0.7515371 -0.35240814 -0.5096373 -0.43385085 -0.0012634045 -0.5597844 -0.19187868
-0.5798422 -0.8089062 -0.55133677 -0.54946375 -0.002671861 -0.6934491 -0.43324634 -0.26786926
0.10019532 -0.1378829 -0.16935213 -0.54869187 -0.269218 -0.32157677 -0.28171638 -0.07436189
-0.17658402 -0.14595291 -0.50835013 -0.21221411 -0.44084305 -0.44556537 -0.14002842 -0.39608622
-0.16694908 -0.2438622 -0.38281465 -0.031708818 -0.41318616 -0.22032543 -0.35119262 -0.42840627
00000000: 1ea6 86be 5b43 16be da6b b9be 65e0 123e
00000010: 795f 87be 354c c23b 892e 19bf 0aef 36be
00000020: e289 edbe f060 03bf 12d1 9abe d6a8 0bbf
00000030: 1cda 04bf 5253 14bf ed4d 41be ecfa c8be
00000040: 9314 23bf ace9 60bd c637 c6be 2691 05bf
00000050: a228 99be 6303 a4be bace 86be bdc4 50be
00000060: c18a c6be bc64 40bf d76e b4be 9777 02bf
00000070: b321 debe d298 a5ba 084e 0fbf d87b 44be
00000080: 8a70 14bf 7a14 4fbf 6824 0dbf a8a9 0cbf
00000090: 641a 2fbb e185 31bf 77d2 ddbe 2926 89be
000000a0: 3433 cd3d 2d31 0dbe a56a 2dbe 1277 0cbf
000000b0: f1d6 89be b6a5 a4be 213d 90be 0c4b 98bd
000000c0: 71d2 34be ae74 15be 3c23 02bf a84e 59be
000000d0: 2eb6 e1be 2521 e4be 9c63 0fbe d0cb cabe
000000e0: b3f4 2abe 03b7 79be 4800 c4be 1be1 01bd
000000f0: 238d d3be fd9c 61be 85cf b3be 1158 dbbe

layer2.1.running_mean f4 [64]
1.9576157 6.4019194 -5.026781 9.471434 0.12691014 6.145429 0.1956602 9.074691
31.030735 14.022803 -5.202766 31.87332 3.1764832 18.019903 12.748958 -3.5187619
11.992259 22.186588 -8.915444 4.6283298 -2.9653754 10.032069 0.5742779 -8.334137
15.107854 12.291277 19.094309 7.5836406 20.942244 -24.84471 2.6611488 -9.18742
5.327364 -10.183789 -16.023052 0.97238946 1.7154179 19.357553 13.264568 -9.698798
-6.74138 -4.193003 15.102008 -4.5929074 -4.160866 -10.4016 17.066793 13.905828
22.10597 8.695124 -1.2495528 -0.97211075 3.8485012 3.625321 -12.433438 1.982068
0.5213535 2.146759 -17.890827 -26.76255 4.3170886 -1.6732297 4.8644824 33.56536
00000000: 2793 fa3f 86dc cc40 64db a0c0 fe8a 1741
00000010: bbf4 013e 5ba7 c440 265b 483e ef31 1141
00000020: f23e f841 675d 6041 0f7d a6c0 8ffc fe41
00000030: 804b 4b40 c328 9041 bbfb 4b41 6533 61c0
00000040: 4be0 3f41 227e b141 a9a5 0ec1 471b 9440
00000050: b6c8 3dc0 5b83 2041 e003 133f a058 05c1
00000060: c5b9 7141 12a9 4441 25c1 9841 2fad f240
00000070: b789 a741 f7c1 c6c1 4350 2a40 acff 12c1
00000080: c479 aa40 cdf0 22c1 362f 80c1 84ee 783f
00000090: d092 db3f 45dc 9a41 ac3b 5441 472e 1bc1
000000a0: 63b9 d7c0 152d 86c0 d3a1 7141 19f9 92c0
000000b0: d025 85c0 f46c 26c1 cb88 8841 467e 5e41
000000c0: 07d9 b041 3a1f 0b41 59f1 9fbf 40dc 78bf
000000d0: d84d 7640 4205 6840 5def 46c1 67b4 fd3f
000000e0: 6c77 053f 8064 0940 6a20 8fc1 b419 d6c1
000000f0: 9725 8a40 642c d6bf d7a9 9b40 ee42 0642

layer2.1.running_var f4 [64]
180.09879 163.10786 192.51076 276.96518 176.22049 202.58688 174.95973 174.70029
121.90096 180.88649 188.57841 167.78659 169.04607 125.89656 184.25688 208.74808
120.02081 181.26912 128.90231 129.06868 140.91591 240.19669 157.28973 188.83727
140.12347 132.5767 199.9459 139.76277 172.60757 294.7277 135.8557 323.89148
170.90518 209.19244 169.39243 124.7122 237.59555 121.76269 144.3819 186.13416
208.28845 180.43788 224.4365 134.51315 169.2078 140.15652 158.48842 192.32706
209.23094 156.47614 134.62474 159.81813 162.41425 151.74498 214.56758 149.2291
154.74254 114.52585 162.81679 279.64954 110.67864 110.75509 203.60258 155.64027
00000000: 4a19 3443 9d1b 2343 c182 4043 8b7b 8a43
00000010: 7238 3043 3e96 4a43 b1f5 2e43 46b3 2e43
00000020: 4bcd f342 f1e2 3443 1394 3c43 5ec9 2743
00000030: cb0b 2943 0acb fb42 c341 3843 82bf 5043
00000040: a80a f042 e544 3543 fee6 0043 9511 0143
00000050: 79ea 0c43 5a32 7043 2c4a 1d43 57d6 3c43
00000060: 9c1f 0c43 a393 0443 27f2 4743 45c3 0b43
00000070: 8a9b 2c43 255d 9343 0fdb 0743 1cf2 a143
00000080: bae7 2a43 4431 5143 7664 2943 a56c f942
00000090: 7698 6d43 7f86 f342 c461 1043 5822 3a43
000000a0: d849 5043 1970 3443 be6f 6043 5e83 0643
000000b0: 3235 2943 1228 0c43 097d 1e43 ba53 4043
000000c0: 1f3b 5143 e479 1c43 ef9f 0643 71d1 1f43
000000d0: 0c6a 2243 b7be 1743 4d91 5643 a63a 1543
000000e0: 17be 1a43 3c0d e542 19d1 2243 24d3 8b43
000000f0: 775b dd42 9b82 dd42 439a 4b43 e9a3 1b43

layer3.0.weight f4 [64, 64, 3, 3]
0.45271924 0.4461703 0.27862105 0.5420308 0.5739378 0.43541884 0.2795191 0.3253054
0.09357976 -0.22385566 -0.47105104 -0.50513303 -0.3771483 -0.7644247 -0.6729658 -0.55411416
-0.8822762 -0.8579398 0.09097791 0.0469778 -0.016065355 0.312723 0.30626824 0.29350072
0.113617904 -0.07212204 0.13317235 0.07549687 0.12764412 0.05208266 -0.12721153 0.015268918
0.002539167 -0.23711947 -0.28357977 -0.13863398 -0.31301597 -0.091511555 -0.11940164 -0.43626213
-0.34482482 -0.23489815 -0.31507894 -0.33179206 -0.30899733 -0.14496288 -0.22031465 -0.3133522
-0.30143616 -0.39925095 -0.3055959 -0.3693523 -0.47089943 -0.3906234 -0.019585652 0.07183203
-0.036232106 0.19818945 0.20705593 0.04247196 0.19034861 0.0063509233 0.02892605 -0.16143277
0.032292813 0.067814104 -0.38682657 -0.21236262 -0.03912229 -0.40496042 -0.20174712 -0.02063535
-0.32528257 -0.16354918 0.1005769 -0.40264675 -0.17949526 -0.03904237 -0.44207782 -0.21591319
-0.07472298 0.052973855 0.48322526 0.4146226 0.40128767 0.6354361 0.52721864 0.37952164
0.47835764 0.34367067 0.2711345 0.26085743 0.061167046 0.03944151 0.1856374 -0.09083032
-0.06791063 -0.12545384 -0.26875162 -0.11805801 -0.04957037 0.033041798 -0.5374411 -0.5591865
-0.47484162 -0.7907571 -0.7171277 -0.48215565 -0.1345874 0.09970577 0.16057777 -0.058917664
0.29613242 0.25582653 -0.093340114 0.08191581 0.076906346 0.023039965 0.3398829 0.24916618
-0.16364305 0.061735887 0.10118094 -0.28072903 -0.16275682 -0.27923182 0.30256003 0.35089543
0.3251578 -0.0943515 -0.14976358 -0.1958856 -0.34865704 -0.5333013 -0.39734736 0.45984378
0.37918496 0.14999652 0.41503313 0.12837751 -0.077125974 0.13204764 -0.029883241 -0.0033435249
0.3871672 0.23112482 0.0001394554 0.0866174 0.090606496 -0.09845093 0.06013546 0.043364633
-0.015011547 0.20283452 0.26398146 0.2781658 -0.052227397 -0.046911534 -0.021739729 -0.121786304
-0.046066057 0.11051989 0.13091485 0.16774891 0.22704542 0.023861445 -0.033027366 0.14330776
-0.23109654 -0.07752189 0.07289271 0.14854656 0.15447703 0.17480215 0.11117062 -0.12299359
-0.06904154 -0.22464949 -0.28706536 -0.18403107 0.06240222 -0.21740654 0.09825192 0.17305636
-0.26776105 0.015290085 0.50075686 0.34830785 0.44188377 -0.23978741 -0.72432953 -0.4914047
-0.1396716 -0.49912876 -0.30668384 0.13325688 -0.030443883 0.20235418 -0.72818893 -0.6507859
-0.5797003 -0.3817544 -0.37265927 -0.37977782 -0.06252622 -0.023559919 0.027971385 -0.0028217966
-0.040522244 0.13498369 -0.13229251 0.020100674 0.124276824 -0.24853566 -0.039118975 0.14710031
-0.1381433 -0.08503214 -0.37989253 -0.28617087 -0.37527326 -0.59972006 -0.4238586 -0.30258268
-0.37366495 0.20328633 0.337965 0.4030225 0.45197695 0.44713846 0.34487116 0.43002817
0.37927267 0.17429663 0.056900874 0.17871241 -0.04665002 -0.050393935 -0.111800864 -0.22170141
-0.29495987 -0.40137765 -0.52331877 -0.04591931 0.061201412 0.11599067 -0.045620773 -0.018853683
0.16957287 -0.0853759 -0.04556109 0.15387967 -0.52725774 -0.72318083 -0.529023 -0.44230473
00000000: d1ca e73e 6f70 e43e 6ba7 8e3e 88c2 0a3f
00000010: 96ed 123f 38ef de3e 211d 8f3e 6e8e a63e
00000020: bfa6 bf3d 6b3a 65be 9a2d f1be 6650 01bf
00000030: 9519 c1be 56b1 43bf 7d47 2cbf 6dda 0dbf
00000040: dadc 61bf f1a1 5bbf a052 ba3d cb6b 403d
00000050: 7e9b 83bc 3b1d a03e 31cf 9c3e ba45 963e
00000060: 81b0 e83d b8b4 93bd 555e 083e 1a9e 9a3d
00000070: 24b5 023e a154 553d bd43 02be 7c2a 7a3c
00000080: 2768 263b 72cf 72be 5e31 91be 11f6 0dbe
00000090: a143 a0be 696a bbbd d988 f4bd c05d dfbe
000000a0: e18c b0be 2489 70be 0752 a1be a6e0 a9be
000000b0: e634 9ebe 2671 14be 2a9a 61be b36f a0be
000000c0: d755 9abe 9f6a ccbe 1177 9cbe bf1b bdbe
000000d0: bb19 f1be caff c7be 1772 a0bc ac1c 933d
000000e0: 1e68 14bd 2df2 4a3e 7806 543e 14f7 2d3d
000000f0: bfea 423e 681b d03b 53f6 ec3c a24e 25be
00000100: 7845 043d 1fe2 8a3d 220e c6be 9675 59be
00000110: b23e 20bd f956 cfbe cc96 4ebe 770b a9bc
00000120: 708b a6be 7079 27be 43fb cd3d b727 cebe
00000130: 9bcd 37be e4ea 1fbd 0658 e2be 5918 5dbe
00000140: 5d08 99bd 1dfb 583d 4d69 f73e 6a49 d43e
00000150: 9475 cd3e f1ab 223f cdf7 063f a950 c23e
00000160: 4beb f43e 9af5 af3e 24d2 8a3e 1b8f 853e
00000170: 4c8a 7a3d 6c8d 213d bb17 3e3e 3f05 babd
00000180: ba14 8bbd f976 00be d099 89be 66c8 f1bd
00000190: 4d0a 4bbd d656 073d bd95 09bf d926 0fbf
000001a0: 711e f3be 0f6f 4abf ae95 37bf 1bdd f6be
000001b0: 48d1 09be 8a32 cc3d 806e 243e a653 71bd
000001c0: ab9e 973e b2fb 823e 1a29 bfbd 7ac3 a73d
000001d0: 1381 9d3d 4fbe bc3c 2205 ae3e 6b25 7f3e
000001e0: 0b92 27be c5de 7c3d f437 cf3d b7bb 8fbe
000001f0: b9a9 26be 79f7 8ebe 26e9 9a3e 91a8 b33e
00000200: 157b a63e 5c3b c1bd a05b 19be 3c96 48be
00000210: 2d83 b2be 6f86 08bf 1d71 cbbe a570 eb3e
00000220: 8824 c23e b098 193e 397f d43e 6575 033e
00000230: 39f4 9dbd 7f37 073e b3cd f4bc 0a1f 5bbb
00000240: c73a c63e fcab 6c3e c63a 1239 7764 b13d
00000250: e68f b93d a4a0 c9bd 9a50 763d 1d9f 313d
00000260: fef2 75bc dab3 4f3e 9428 873e bf6b 8e3e
00000270: 65ec 55bd 4f26 40bd 8417 b2bc 196b f9bd
00000280: c3af 3cbd 4158 e23d 8b0e 063e 5fc6 2b3e
00000290: 987e 683e 1479 c33c b447 07bd 45bf 123e
000002a0: 92a4 6cbe ccc3 9ebd c648 953d 971c 183e
000002b0: 3a2f 1e3e 56ff 323e 6cad e33d 10e4 fbbd
000002c0: a765 8dbd 840a 66be 3bfa 92be a472 3cbe
000002d0: 7899 7f3d d29f 5ebe 4d38 c93d b035 313e
000002e0: fa17 89be 4483 7a3c 9a31 003f 6855 b23e
000002f0: 973e e23e d58a 75be a96d 39bf 6699 fbbe
00000300: 1206 0fbe ce8d ffbe aa05 9dbe 7e74 083e
00000310: 7365 f9bc ef35 4f3e 976a 3abf e899 26bf
00000320: 3d67 14bf 5075 c3be 32cd bebe 3d72 c2be
00000330: bf0d 80bd bb00 c1bc 3f24 e53c e4ed 38bb
00000340: a7fa 25bd 2a39 0a3e b077 07be 2baa a43c
00000350: d984 fe3d 2280 7ebe 383b 20bd 77a1 163e
00000360: 7075 0dbe 5525 aebd 4681 c2be fd84 92be
00000370: d123 c0be 4187 19bf ff03 d9be 1eec 9abe
00000380: 0351 bfbe 4b2a 503e c009 ad3e f758 ce3e
00000390: 8669 e73e 55ef e43e f492 b03e a72c dc3e
000003a0: 0730 c23e d17a 323e e410 693d 6300 373e
000003b0: 1714 3fbd df69 4ebd daf7 e4bd b205 63be
000003c0: fb04 97be 5f81 cdbe 38f8 05bf e315 3cbd
000003d0: 55ae 7a3d 848c ed3d d9dc 3abd 0a73 9abc
000003e0: 83a4 2d3e 8fd9 aebd 449e 3abd a292 1d3e
000003f0: 5dfa 06bf 6122 39bf 0d6e 07bf c475 e2be

layer3.0.bias f4 [64]
17.484995 15.056139 18.716633 18.403715 18.795116 17.418903 19.725517 17.533049
12.182669 17.17499 17.327797 16.029167 19.59151 20.916977 22.294752 18.358915
17.8989 13.698497 18.428457 19.072184 14.508713 19.449144 11.818615 21.004654
16.216124 17.18686 16.083858 16.534904 18.457186 18.989298 18.040617 18.59844
19.861118 15.994976 18.541092 15.978423 18.844414 19.289207 20.128199 18.087423
14.054067 15.248691 15.378808 12.093782 15.349967 13.214325 15.033078 18.747637
15.630123 21.790369 17.101374 16.998148 13.889697 15.519505 19.275677 20.190052
14.791865 12.040581 17.899462 18.972157 18.874168 13.360246 15.284954 18.66686
00000000: 45e1 8b41 f2e5 7041 aabb 9541 cf3a 9341
00000010: 665c 9641 ea59 8b41 dccd 9d41 af43 8c41
00000020: 36ec 4241 6166 8941 549f 8a41 bc3b 8041
00000030: 6abb 9c41 f855 a741 a75b b241 0fdf 9241
00000040: f230 8f41 0b2d 5b41 7b6d 9341 d593 9841
00000050: b023 6841 d997 9b41 0c19 3d41 8809 a841
00000060: 9fba 8141 b07e 8941 beab 8041 7c47 8441
00000070: 51a8 9341 15ea 9741 2f53 9041 9bc9 9441
00000080: 92e3 9e41 6ceb 7f41 2854 9441 9fa7 7f41
00000090: 5cc1 9641 4c50 9a41 8d06 a141 0bb3 9041
000000a0: 75dd 6041 a3fa 7341 990f 7641 2280 4141
000000b0: 7799 7541 e06d 5341 7d87 7041 29fb 9541
000000c0: fc14 7a41 ad52 ae41 9dcf 8841 35fc 8741
000000d0: 333c 5e41 e44f 7841 9634 9a41 3a85 a141
000000e0: 7bab 6c41 38a6 4041 1932 8f41 fac6 9741
000000f0: 4cfe 9641 91c3 5541 2c8f 7441 bb55 9541

layer3.1.weight f4 [64]
0.89331174 0.6529919 1.0388818 1.0257148 1.153601 0.90355146 1.0479162 1.0602013
0.83165944 0.97905743 1.1401967 0.85923135 1.0009475 1.1088305 1.0559486 1.0879626
0.96181047 0.91233927 0.92357874 0.9377577 0.7623259 1.0713259 0.5663081 1.1758428
0.88537455 0.86328197 1.0139828 0.9549055 1.0670323 0.9492416 0.8743435 0.98941594
0.9292328 0.81534696 1.1445622 0.9179576 0.9528808 1.0455432 0.96023226 0.8831061
0.7266139 1.0468774 0.94649637 0.5697568 0.80571127 0.6399102 0.9806856 1.0262301
0.91790766 0.96160907 1.117178 0.8966569 0.8759225 0.7414848 0.95634073 1.0279583
0.994499 0.52873796 1.0801924 0.962992 0.8358801 0.5449929 0.883738 0.9687739
00000000: 14b0 643f 7a2a 273f 14fa 843f 9f4a 833f
00000010: 33a9 933f 264f 673f 1e22 863f adb4 873f
00000020: a2e7 543f 82a3 7a3f f7f1 913f 96f6 5b3f
00000030: 0c1f 803f 28ee 8d3f 5329 873f 5c42 8b3f
00000040: 3639 763f 118f 693f a86f 6c3f e310 703f
00000050: ca27 433f 3521 893f 91f9 103f 0482 963f
00000060: e8a7 623f 0c00 5d3f 30ca 813f b074 743f
00000070: 8494 883f 7f01 733f fad4 5f3f 5d4a 7d3f
00000080: 33e2 6d3f 94ba 503f 0481 923f 45ff 6a3f
00000090: ffef 733f 5cd4 853f c8d1 753f 3e13 623f
000000a0: 5e03 3a3f 1400 863f 964d 723f 95db 113f
000000b0: 1843 4e3f 28d1 233f 360e 7b3f 825b 833f
000000c0: fffb 6a3f 032c 763f b0ff 8e3f 4e8b 653f
000000d0: 753c 603f f3d1 3d3f bfd2 743f 2394 833f
000000e0: 7d97 7e3f 5f5b 073f bf43 8a3f a586 763f
000000f0: 3dfc 553f a884 0b3f a73c 623f 9101 783f

layer3.1.bias f4 [64]
-0.24939415 -0.60636884 -0.49487332 -0.49314475 -0.5097683 -0.4088168 -0.86650217 0.02300187
-0.08413129 -0.31468385 -0.06667147 0.06864971 -0.9610983 -0.31256866 -0.6823805 -0.20129554
-0.014426336 -0.2590601 -0.8013074 -0.59849197 -0.57664096 -0.4941597 -0.19722022 -0.53223103
-0.22836746 -0.62680256 0.19813517 -0.41432172 -0.22793801 -0.25338337 -0.59688836 -0.35774133
-0.79586196 -0.4964585 -0.43404254 -0.3217826 -0.10443453 -0.6284371 -0.69248736 -0.5328517
-0.3700054 -0.07722655 -0.13912632 -0.4192574 0.092763275 -0.28066972 -0.10523708 -0.23077619
-0.18030731 -0.5010156 -0.31483668 -0.5275922 -0.20020607 -0.51009136 -0.26789922 -0.35879886
-0.106987834 -0.28168333 -0.65276456 -0.72385824 -0.5097699 -0.35204268 -0.44476327 -0.19911641
00000000: 2e61 7fbe fd3a 1bbf 0960 fdbe 787d fcbe
00000010: 2d80 02bf 7050 d1be 16d3 5dbf 6b6e bc3c
00000020: 074d acbd 3e1e a1be 0d8b 88bd 3898 8c3d
00000030: 8a0a 76bf 0009 a0be 7db0 2ebf 6b20 4ebe
00000040: 705c 6cbc 87a3 84be 7b22 4dbf c536 19bf
00000050: be9e 13bf 8002 fdbe 19f4 49be 4b40 08bf
00000060: 29d9 69be 2276 20bf f2e3 4a3e fa21 d4be
00000070: 9568 69be 77bb 81be adcd 18bf df29 b7be
00000080: 9cbd 4bbf cf2f febe d33a debe b0c0 a4be
00000090: c5e1 d5bd 41e1 20bf da46 31bf f868 08bf
000000a0: 5971 bdbe f428 9ebd 2177 0ebe e8a8 d6be
000000b0: acfa bd3d f1b3 8fbe 8a86 d7bd 9850 6cbe
000000c0: 7ba2 38be 8f42 00bf 4632 a1be 4810 07bf
000000d0: d202 4dbe 5995 02bf 162a 89be 7cb4 b7be
000000e0: 701c dbbd cc38 90be 941b 27bf c64e 39bf
000000f0: 4880 02bf f03e b4be 03b8 e3be 2ce5 4bbe

layer3.1.running_mean f4 [64]
0.74371207 34.030563 15.498125 14.557271 1.3873925 3.981353 11.600663 0.78863543
-6.1288548 -6.437039 -0.35031995 -2.7645915 13.764946 5.6045475 9.059966 9.047908
-4.9259415 -0.9288734 9.508083 22.875265 -0.48011574 17.899185 18.646822 2.0412068
-0.20689175 16.838385 -0.26692763 6.5147734 16.06843 12.043583 16.767668 7.226309
31.38752 7.8762016 9.43299 -1.2965219 14.679243 29.53167 35.976036 23.047394
20.25391 -2.510255 6.065186 6.6904488 -3.001462 -3.0745938 1.7236042 -1.9657646
-0.41674393 12.701947 -3.7942998 1.8303881 8.020473 23.43766 24.378334 0.1390745
7.737913 8.379874 8.262128 19.27155 23.066687 -0.7082574 -0.57105595 7.6858606
00000000: ea63 3e3f 4c1f 0842 52f8 7741 95ea 6841
00000010: 1496 b13f 7dce 7e40 519c 3941 03e4 493f
00000020: 941f c4c0 39fc cdc0 235d b3be 11ef 30c0
00000030: 383d 5c41 7458 b340 9ff5 1041 3bc4 1041
00000040: 50a1 9dc0 a6ca 6dbf 1c21 1841 8b00 b741
00000050: bbd1 f5be 8831 8f41 b12c 9541 22a3 0240
00000060: 6edb 53be 03b5 8641 bdaa 88be 0679 d040
00000070: 258c 8041 84b2 4041 2f24 8641 ec3d e740
00000080: a419 fb41 d809 fc40 87ed 1641 6ef4 a5bf
00000090: 2ede 6a41 dc40 ec41 76e7 0f42 1061 b841
000000a0: 0208 a241 05a8 20c0 0116 c240 2818 d640
000000b0: f417 40c0 25c6 44c0 109f dc3f 2d9e fbbf
000000c0: 765f d5be 2d3b 4b41 cfd5 72c0 284a ea3f
000000d0: db53 0041 5480 bb41 d406 c341 8c69 0e3e
000000e0: fc9c f740 f713 0641 ad31 0441 222c 9a41
000000f0: 9388 b841 5b50 35bf b930 12bf 92f2 f540

layer3.1.running_var f4 [64]
97.983925 102.173355 82.55102 86.52029 144.73308 121.10643 133.58319 150.70964
137.25002 139.24458 223.25633 219.27792 77.62123 125.89568 80.95842 107.833046
112.19698 191.27002 108.757805 87.45458 110.67379 99.72394 169.53743 98.63771
134.0559 88.96777 200.49214 161.05344 137.86136 110.794685 101.96018 105.708374
111.1868 125.88402 89.35906 160.72081 116.257576 109.12003 83.907196 89.401085
118.61533 177.5693 208.39682 193.79404 195.67947 116.22256 159.60095 160.3768
158.66837 81.26841 161.64026 110.01131 193.72662 102.54544 120.484825 109.02261
199.62276 133.69354 102.58669 82.38758 68.38846 110.81366 124.34361 92.05188
00000000: c5f7 c342 c258 cc42 1f1a a542 630a ad42
00000010: abbb 1043 7e36 f242 4c95 0543 abb5 1643
00000020: 0140 0943 9d3e 0b43 9f41 5f43 2647 5b43
00000030: 123e 9b42 97ca fb42 b6ea a142 85aa d742
00000040: db64 e042 2045 3f43 ff83 d942 bfe8 ae42
00000050: fb58 dd42 a872 c742 9589 2943 8246 c542
00000060: 4f0e 0643 80ef b142 fd7d 4843 ae0d 2143
00000070: 82dc 0943 e196 dd42 9deb cb42 b06a d342
00000080: a45f de42 9ec4 fb42 d7b7 b242 87b8 2043
00000090: e183 e842 753d da42 7cd0 a742 5bcd b242
000000a0: 0d3b ed42 be91 3143 9665 5043 46cb 4143
000000b0: f2ad 4343 f371 e842 d899 1f43 7660 2043
000000c0: 1aab 1e43 6d89 a242 e8a3 2143 ca05 dc42
000000d0: 04ba 4143 4417 cd42 3bf8 f042 940b da42
000000e0: 6d9f 4743 8cb1 0543 632c cd42 71c6 a442
000000f0: e4c6 8842 98a0 dd42 eeaf f842 901a b842

layer4.0.weight f4 [64, 64, 3, 3]
-0.15380119 0.12599707 -0.061973974 -0.15653846 0.12367714 -0.10109791 -0.33666572 -0.326668
-0.35232618 -0.013287404 -0.10492253 -0.044353317 -0.21446827 0.19259882 0.068357125 -0.19407453
-0.099044584 0.014125437 0.14967558 0.2869883 0.14234395 -0.02597277 0.24670526 0.13940018
-0.034037154 -0.119291075 -0.022603326 0.37444484 0.1963328 0.38792554 0.12377078 0.13727687
0.1431865 0.22967556 0.11785427 0.18451868 -0.3132238 -0.37960333 -0.6492805 -0.27843532
-0.4232612 -0.345602 0.06856605 -0.035379518 -0.06325671 -0.09393731 0.012789646 0.13971873
-0.07135477 -0.04736452 0.011326364 -0.13738331 -0.28200054 -0.09324627 -0.7988987 -0.34538805
-0.48763815 -0.5268037 -0.13002929 -0.3955588 -1.0248435 -0.6368183 -0.6784937 0.012154552
-0.06808616 -0.16754119 0.19023456 -0.069910355 -0.031161817 0.110904746 -0.027733091 -0.12170259
0.017004618 -0.045443255 0.07813227 -0.030227326 -0.14121813 0.17532276 -0.35375968 -0.26928696
-0.11117712 0.27774316 0.4010064 0.5319144 0.26052642 0.34702343 0.36635688 0.28393152
0.25366822 0.39441955 -0.12920474 -0.022513287 -0.051279247 -0.035820924 -0.1853229 -0.16439581
-0.1447259 -0.3013402 -0.28778285 0.2759368 0.08808525 0.124923214 0.27353907 0.24858344
0.2863693 0.21012364 0.21813749 0.35520324 0.1858513 0.23206952 0.36177668 0.2768625
0.2320416 0.3719472 0.07115062 0.15571016 0.2666878 0.17864342 0.24335559 0.043905783
0.42489323 0.18854703 0.3373931 0.16672869 0.2536098 0.33046713 -1.0235207 -1.0188402
-0.8979208 -0.79616636 -0.5883557 -0.40859008 -0.96756506 -0.7393304 -0.6395805 -0.4135425
-0.39126104 -0.41550285 -0.17193356 -0.09056969 -0.19808048 0.013672989 -0.037011277 0.12721099
-0.5718322 -0.47123262 -0.26985303 -0.38908517 -0.22846156 -0.08480319 -0.06368758 -0.09215049
0.07635151 -0.12633435 -0.08184925 -0.108942635 -0.03893886 -0.057880886 0.013357231 0.14410317
0.17527533 0.35982838 -0.012023029 -0.15327103 -0.040221408 0.011037558 -0.05213656 0.036598593
-0.3060919 -0.17082684 -0.05101531 -0.47090524 -0.31661057 -0.24518014 0.25627422 0.44137776
0.29695064 -0.09404959 0.13197073 0.13698594 -0.57508546 -0.60997564 -0.7783102 0.108228624
0.15826966 -0.021832539 0.2877115 0.23425452 0.2821605 -0.15741032 -0.22405934 -0.5251624
0.10321022 -0.015806358 -0.05915911 -0.3456851 -0.16948387 -0.07845229 0.6241094 0.5787627
0.47703907 0.4269853 0.5187344 0.35797873 0.15935545 0.16114253 0.14198464 -0.3044012
-0.27626893 -0.46288544 -0.40608048 -0.32770458 -0.52818817 -0.4701388 -0.52601343 -0.7633068
-0.18833141 -0.30445525 -0.23555414 -0.16180688 -0.14976546 -0.04974332 -0.42346454 -0.29115814
-0.18793876 0.26083112 0.22376697 0.14726001 0.035022058 -0.0031801944 -0.1735373 -0.12273297
-0.1329069 -0.33761698 -0.09504885 -0.20322001 -0.2794596 -0.23092695 -0.11980541 -0.30170107
-0.41976172 -0.467937 -0.6000061 -0.48919755 -0.6937342 -0.9281153 0.1542538 0.118722945
-0.0068526655 0.37586513 0.30439696 0.3211257 -0.23969011 -0.36914593 -0.5379116 -0.075511664
00000000: 0f7e 1dbe 6005 013e 6cd8 7dbd 9e4b 20be
00000010: 714a fd3d 6c0c cfbd 735f acbe 0741 a7be
00000020: 1964 b4be 69b3 59bc a0e1 d6bd d3ab 35bd
00000030: 929d 5bbe a038 453e d2fe 8b3d 79bb 46be
00000040: e3d7 cabd 606e 673c 8e44 193e 21f0 923e
00000050: 9dc2 113e d9c4 d4bc 4ea0 7c3e ecbe 0e3e
00000060: 8b6a 0bbd e14e f4bd 9c2a b9bc 3cb7 bf3e
00000070: 770b 493e 2d9e c63e 897b fd3d 4f92 0c3e
00000080: 7b9f 123e 1230 6b3e 945d f13d 77f2 3c3e
00000090: df5e a0be 5e5b c2be 3f37 26bf 138f 8ebe
000000a0: b1b5 d8be bff2 b0be 5b6c 8c3d 1dea 10bd
000000b0: bc8c 81bd 3462 c0bd aa8b 513c 6d12 0f3e
000000c0: 7322 92bd 4d01 42bd 3792 393c 36ae 0cbe
000000d0: 6062 90be e7f7 bebd a084 4cbf b4d6 b0be
000000e0: b5ab f9be 9bdc 06bf 6626 05be af86 cabe
000000f0: 122e 83bf 8606 23bf c3b1 2dbf e323 473c
00000100: c270 8bbd eb8f 2bbe d9cc 423e 292d 8fbd
00000110: 1147 ffbc 0722 e33d 8230 e3bc 353f f9bd
00000120: 454d 8b3c b522 3abd d003 a03d 4c9f f7bc
00000130: 7c9b 10be cf87 333e fd1f b5be fbdf 89be
00000140: d4b0 e3bd 5a34 8e3e b650 cd3e 8b2b 083f
00000150: b863 853e 0ead b13e 2193 bb3e 795f 913e
00000160: cde0 813e 5cf1 c93e 3f4e 04be c96d b8bc
00000170: 300a 52bd f6b8 12bd 49c5 3dbe 6057 28be
00000180: 0733 14be 4349 9abe 4658 93be 9747 8d3e
00000190: 0a66 b43d bed7 ff3d 500d 8c3e a88c 7e3e
000001a0: ff9e 923e a72a 573e 6f5f 5f3e 33dd b53e
000001b0: ce4f 3e3e a2a3 6d3e cb3a b93e ecc0 8d3e
000001c0: 509c 6d3e dd6f be3e 6bb7 913d 7c72 1f3e
000001d0: 4e8b 883e 4dee 363e 3532 793e 8dd6 333d
000001e0: 9b8b d93e 7912 413e cabe ac3e edba 2a3e
000001f0: 25d9 813e fd32 a93e ba02 83bf 5b69 82bf
00000200: 23de 65bf 8fd1 4bbf 7b9e 16bf b832 d1be
00000210: 58b2 77bf c244 3dbf 8cbb 23bf d8bb d3be
00000220: 5e53 c8be cabc d4be 5a0f 30be 9a7c b9bd
00000230: 9cd5 4abe ac04 603c 2399 17bd 9943 023e
00000240: 9863 12bf 6745 f1be 2d2a 8abe 2c36 c7be
00000250: d4f1 69be 4bad adbd a26e 82bd 65b9 bcbd
00000260: 2e5e 9c3d cb5d 01be 94a0 a7bd 511d dfbd
00000270: 5b7e 1fbd 8214 6dbd 4ad8 5a3c c88f 133e
00000280: 607b 333e 6d3b b83e 3dfc 44bc 15f3 1cbe
00000290: 34bf 24bd e0d6 343c 258d 55bd 68e8 153d
000002a0: 14b8 9cbe 3bed 2ebe 6ef5 50bd 7e1a f1be
000002b0: c81a a2be 8110 7bbe 6036 833e 44fc e13e
000002c0: ea09 983e 129d c0bd 5623 073e 0b46 0c3e
000002d0: cd38 13bf 5d27 1cbf 563f 47bf f8a6 dd3d
000002e0: 7111 223e 27da b2bc ec4e 933e 6be0 6f3e
000002f0: 5777 903e 2c30 21be d06f 65be 0b71 06bf
00000300: e15f d33d 567c 81bc d350 72bd a3fd b0be
00000310: 2e8d 2dbe 98ab a0bd a2c5 1f3f cb29 143f
00000320: 773e f43e d19d da3e c7cb 043f fd48 b73e
00000330: 132e 233e 8c02 253e 6c64 113e 79da 9bbe
00000340: 1f73 8dbe 52ff ecbe c8e9 cfbe e5c8 a7be
00000350: 5737 07bf 08b6 f0be d1a8 06bf 1368 43bf
00000360: f3d9 40be 8fe1 9bbe 1b35 71be b4b0 25be
00000370: 1e5c 19be a7bf 4bbd 58d0 d8be ae12 95be
00000380: 0573 40be a88b 853e 2b23 653e 54cb 163e
00000390: 4a73 0f3d cf6a 50bb c3b3 31be 6c5b fbbd
000003a0: bf18 08be 22dc acbe f9a8 c2bd e818 50be
000003b0: 5415 8fbe 1d78 6cbe 8a5c f5bd 9078 9abe
000003c0: 02eb d6be 7095 efbe 009a 19bf 1a78 fabe
000003d0: 9198 31bf f798 6dbf b5f4 1d3e 0425 f33d
000003e0: 538c e0bb 6571 c03e ebd9 9b3e 966a a43e
000003f0: 5371 75be b200 bdbe 93b4 09bf dca5 9abd

layer4.0.bias f4 [64]
21.492802 23.990162 21.268837 23.584158 22.074726 20.555244 19.090475 18.935284
19.50576 17.822596 18.883656 19.723118 19.020067 17.461775 21.410479 15.078986
20.892567 19.882156 18.351345 18.132284 18.50272 17.705084 16.71192 20.198826
17.527597 17.544939 15.875902 18.145105 19.26635 20.452976 19.358883 16.932878
20.55537 17.710354 16.843964 19.089437 19.89168 15.933052 17.72324 18.821827
15.825565 14.741668 19.054108 19.574734 14.945639 16.636591 15.6216755 16.47197
16.35129 18.057064 17.617357 19.38979 20.067738 18.776672 18.043325 20.707409
14.667055 17.132725 23.23701 17.519377 24.091457 25.818419 23.966105 22.149986
00000000: 42f1 ab41 daeb bf41 9426 aa41 5bac bc41
00000010: 0a99 b041 2471 a441 4bb9 9841 767b 9741
00000020: cc0b 9c41 ad94 8e41 ba11 9741 f2c8 9d41
00000030: 1929 9841 b7b1 8b41 a948 ab41 8743 7141
00000040: fa23 a741 a80e 9f41 8ecf 9241 eb0e 9141
00000050: 9205 9441 03a4 8d41 03b2 8541 3297 a141
00000060: 8538 8c41 095c 8c41 b203 7e41 2d29 9141
00000070: 7c21 9a41 b29f a341 fede 9a41 8976 8741
00000080: 6671 a441 ceae 8d41 70c0 8641 2bb7 9841
00000090: 2922 9f41 c8ed 7e41 32c9 8d41 1a93 9641
000000a0: 8435 7d41 dfdd 6b41 d06e 9841 0e99 9c41
000000b0: 5621 6f41 bd17 8541 62f2 7941 98c6 8341
000000c0: 71cf 8241 de74 9041 59f0 8c41 4a1e 9b41
000000d0: ba8a a041 a036 9641 bb58 9041 c6a8 a541
000000e0: 42ac 6a41 d20f 8941 65e5 b941 af27 8c41
000000f0: 4ebb c041 1f8c ce41 95ba bf41 2c33 b141

layer4.1.weight f4 [64]
1.474323 1.6955538 1.289431 1.3354411 1.33557 1.1961358 1.070114 1.0069954
1.0742626 1.0479919 1.0050942 1.0117353 1.1027762 0.8699215 1.4415249 0.7500411
1.1251184 1.0808794 1.0071436 1.1083701 1.2638345 1.1413214 0.89488685 1.1920048
1.0187223 1.0622082 0.8127876 1.0576969 1.138634 1.1705083 1.0547328 0.9797923
1.1610984 0.9690433 0.93786436 1.0138582 1.1422731 0.80793154 0.9564564 1.1364938
1.0064002 0.7782147 0.9640156 1.1219201 0.8055671 0.9800699 0.827989 0.87751114
0.93100816 0.98675966 1.0363642 1.1009636 1.1320992 1.0673457 1.0701345 1.2169092
0.9001862 0.9070892 1.2665733 1.11754 1.4075016 1.5342972 1.8315657 1.5847267
00000000: 9eb6 bc3f e807 d93f 130c a53f bcef aa3f
00000010: f5f3 aa3f fa1a 993f 7ff9 883f 3ae5 803f
00000020: 7081 893f 9924 863f eda6 803f 8b80 813f
00000030: c527 8d3f 2db3 5e3f e383 b83f b202 403f
00000040: e103 903f 425a 8a3f 15ea 803f 12df 8d3f
00000050: 54c5 a13f d216 923f 4e17 653f 9d93 983f
00000060: 7e65 823f 70f6 873f d912 503f 9d62 873f
00000070: c2be 913f 37d3 953f 7c01 873f abd3 7a3f
00000080: df9e 943f 3913 783f e117 703f 1bc6 813f
00000090: 0136 923f 9ad4 4e3f 54da 743f a178 913f
000000a0: b9d1 803f 1439 473f bac9 763f 149b 8f3f
000000b0: a539 4e3f dce5 7a3f 16f7 533f 92a4 603f
000000c0: 8d56 6e3f 489c 7c3f 95a7 843f 60ec 8c3f
000000d0: a0e8 903f c99e 883f 2bfa 883f aec3 9b3f
000000e0: 9a72 663f ff36 683f 131f a23f 8d0b 8f3f
000000f0: 0329 b43f da63 c43f bf70 ea3f 53d8 ca3f
