miniImagenet/SalNet_IntraClass/miniImagenet_foreground_encoder_5way_1shot.pkl (torch_old, 458878 bytes, 24 tensors)

layer1.0.weight f4 [64, 3, 3, 3]
0	0x3ea7cb5c	0.32772338
1	0x3ec771e5	0.38954082
2	0x3efa214c	0.48853528
3	0x3e53b4e8	0.20674479
4	0x3ec82e4a	0.39097816
5	0x3eadc74e	0.3394112
6	0xbea7c7b6	-0.32769555
7	0x3e805981	0.25068286
8	0x3e8c93cd	0.27456513
9	0x3e4c6bfe	0.19963071
10	0x3e22e36f	0.15907072
11	0x3e5f0638	0.21779716
12	0xbdc94b74	-0.09828845
13	0x3e82c196	0.2553832
14	0x3e96e478	0.29471183
15	0xbe65fd34	-0.2245987
16	0x3e9c4e57	0.3052852
17	0x3eb4ff09	0.35350826
18	0x3d603a7a	0.054743268
19	0x3efc05eb	0.49223265
20	0x3f06b49d	0.52619344
21	0xbdb09d14	-0.0862371
22	0x3ed74e6b	0.42052016
23	0x3f079b4f	0.5297136
24	0xbefd4710	-0.4946828
25	0x3e5e50d0	0.21710515
26	0x3ecb0e33	0.3965927
27	0x3e79ad4d	0.24382515
28	0x3e636cca	0.22209468
29	0xbe8fc7b2	-0.28082043
30	0x3ddf1ad2	0.108937874
31	0x3f166683	0.5875017
32	0x3ded9121	0.11599947
33	0xbedbd363	-0.42934713
34	0xbe04a546	-0.12953672
35	0xbd81663d	-0.063183285
36	0x3e5a9dec	0.21349305
37	0xbcace1cc	-0.021103762
38	0xbebbbc2e	-0.36667007
39	0x3d3af973	0.04564805
40	0x3ec4cffa	0.38439924
41	0x3cbf99cb	0.023388764
42	0xbeeecf43	-0.46642503
43	0xbe10540f	-0.14094566
44	0x3c839432	0.016061876
45	0x3e8ac0f4	0.27100337
46	0x3e34c668	0.17653811
47	0xbd108f48	-0.035292894
48	0xbd89143b	-0.06693312
49	0x3ed73d15	0.4203879
50	0x3e824ff1	0.25451615
51	0xbf078835	-0.5294221
52	0xbcabd1e3	-0.020974105
53	0x3e3a857f	0.18214987
54	0x3c9c7e56	0.01910321
55	0xbdf65e95	-0.12029759
56	0xbde7d9b0	-0.113208175
57	0xbe21dcb5	-0.1580685
58	0xbdd3a605	-0.103344
59	0xbe1990f0	-0.14996696
60	0xbdad09d0	-0.08449137
61	0xbd5fc1ca	-0.05462817
62	0xbd9427a8	-0.07234126
63	0x3e77fdd9	0.24217929
64	0x3eb04c80	0.34433365
65	0x3e898ccb	0.2686523
66	0x3e0432ae	0.12909958
67	0x3d586952	0.052834816
68	0x3db66d9a	0.089076236
69	0x3dec2d1b	0.11532041
70	0x3d870220	0.06592202
71	0x3dded408	0.108802855
72	0xbde96ae2	-0.113973394
73	0xbec4549f	-0.3834581
74	0xbcd117c8	-0.025524035
75	0xbf08a571	-0.53377444
76	0xbfa4bcb0	-1.2870083
77	0xbf328fca	-0.69750655
78	0xbf1fe446	-0.6245769
79	0xbf6a05d3	-0.9141514
80	0xbf033aff	-0.51261896
81	0x3ec805d8	0.39066958
82	0x3f31d0a0	0.6945896
83	0x3e0b15d5	0.13582547
84	0x3f0e2d1c	0.5553758
85	0x3f464786	0.77452886
86	0x3eef531e	0.467431
87	0x3e32010c	0.17383212
88	0x3eed0b4d	0.46297684
89	0x3eb950e1	0.36194518
90	0x3e792c04	0.24333197
91	0x3eb5c36e	0.35500664
92	0x3e1ccd8e	0.15312788
93	0x3e6bff47	0.230466
94	0x3e3bdbef	0.18345617
95	0x3dc434f7	0.09580415
96	0xbdbc7f21	-0.092039354
97	0xbd1552a8	-0.03645578
98	0xbd45d126	-0.048295163
99	0x3e137a90	0.14402223
100	0xb9b0dbe7	-0.00033733176
101	0xbd0baded	-0.034101415
102	0xbe2fa9d6	-0.17154631
103	0xbe4ee779	-0.20205487
104	0xbe0b8dad	-0.13628264
105	0xbe8cba38	-0.27485824
106	0xbef9ed84	-0.48814023
107	0xbeac9e97	-0.33714744
108	0xbe9d4e2b	-0.307237
109	0xbe0dbdf7	-0.13841997
110	0x3e091195	0.13385613
111	0xbe9ff458	-0.31241107
112	0x3e2043ed	0.15650912
113	0x3e7f8c94	0.2495597
114	0xbe48d043	-0.19610696
115	0x3ec22add	0.37923327
116	0x3cade1df	0.021225868
117	0xbe8ff737	-0.28118297
118	0xbe9f381d	-0.310975
119	0x3dcc7e5d	0.099850394
120	0xbe17eeee	-0.14837238
121	0x3e82ea5a	0.2556942
122	0x3e9087b7	0.28228542
123	0xbdd9202f	-0.10601842
124	0x3ed1cfc6	0.4097883
125	0x3e0b8440	0.13624668
126	0xbee847a6	-0.45367163
127	0xbe22584a	-0.15853992
128	0x3e6eb706	0.23312005
129	0xbe74fe80	-0.23925209
130	0x3ee31e92	0.4435926
131	0x3ef49e56	0.4777705
132	0xbd98b8ea	-0.074571446
133	0x3ef47735	0.47747198
134	0x3e90e809	0.2830203
135	0xbd1609d8	-0.03663048
136	0xbc694cee	-0.014239533
137	0x3e63110a	0.22174469
138	0xbf0c7989	-0.5487295
139	0x3d1a3b6f	0.037654337
140	0x3e68a08a	0.22717491
141	0xbed48782	-0.41509634
142	0x3ee2f52b	0.44327673
143	0x3e2a4841	0.16629125
144	0xbdbbbdf4	-0.0916709
145	0xbc7f83e1	-0.015595407
146	0x3dc7c251	0.0975386
147	0xbf33abd4	-0.70184064
148	0xbe159462	-0.14607385
149	0x3e764606	0.2405015
150	0xbf00f5fc	-0.5037534
151	0x3e9f0eaf	0.3106589
152	0x3e65a9b9	0.22428025
153	0xbcf6ca5d	-0.030125791
154	0x3d6353ca	0.05549983
155	0x3e460d51	0.19341017
156	0xbe93d056	-0.28869885
157	0x3d6acb69	0.057322893
158	0x3e81e66f	0.2537112
159	0xbea14dda	-0.3150471
160	0x3eb5d6c2	0.3551541
161	0x3e99cf51	0.30040982
162	0x3e689db5	0.2271641
163	0xbe69bca2	-0.22825864
164	0xbe3cd69e	-0.18441245
165	0xbddfa46e	-0.10920034
166	0x3d9c8175	0.076418795
167	0xbda86e8e	-0.08224212
168	0xbe9835bb	-0.29728493
169	0x3e2e32f3	0.17011623
170	0x3edbf497	0.42960045
171	0xbc958224	-0.018250532
172	0xbf23692b	-0.6383235
173	0xbf09eef4	-0.5388024
174	0xbbae9bd0	-0.005328633
175	0xbd8014a6	-0.062539384
176	0xbe5e9852	-0.21737793
177	0xbe9fa583	-0.31180963
178	0x3e866d70	0.2625537
179	0x3e88c49f	0.2671251
180	0x3e9d9139	0.3077486
181	0xbe8328a1	-0.25616935
182	0xbe920c26	-0.28524894
183	0x3e597f6f	0.21240018
184	0x3e9fc14b	0.31202158
185	0x3d38b6e7	0.045096304
186	0xbd5443f4	-0.051822618
187	0x3e9073cc	0.28213346
188	0x3ee499ff	0.4464874
189	0xbe13f139	-0.14447488
190	0xbe73ea1f	-0.23819779
191	0xbd728803	-0.059211742
192	0xbee92bdc	-0.45541275
193	0xbeca1bf5	-0.39474455
194	0xbede07f6	-0.4336545
195	0xbed28d48	-0.41123414
196	0xbf0e7b3a	-0.5565678
197	0xbdfae4a8	-0.12250644
198	0x3e390d38	0.18071449
199	0x3ef8a2c1	0.4856167
200	0x3f16e7dc	0.5894754
201	0x3cfee1ba	0.031113494
202	0x3e559e7c	0.20861238
203	0x3dcd34f6	0.10019867
204	0xbe1864d0	-0.14882207
205	0x3e3bb36c	0.18330163
206	0x3e9a684d	0.301577
207	0x3e6826da	0.2267107
208	0x3e8ab82a	0.2709363
209	0x3ec8251a	0.39090806
210	0xbd017da5	-0.031613965
211	0x3d06c81a	0.032905675
212	0xb9d9c69f	-0.0004153745
213	0xbdff9eed	-0.124814846
214	0x3d2a7726	0.041617535
215	0x3e31ea1d	0.17374463
216	0xbdce8251	-0.1008345
217	0xbe88566d	-0.26628438
218	0xbc45c7c7	-0.012071556
219	0xbe483f39	-0.19555368
220	0xbe9c0a20	-0.30476475
221	0xbe9077f9	-0.28216532
222	0xbe4847ea	-0.19558683
223	0xbe85f652	-0.2616449
224	0xbdf3928a	-0.118931845
225	0x3e28ae4e	0.16472742
226	0x3de63174	0.11239901
227	0x3da451ce	0.080234155
228	0x3d634aad	0.05549114
229	0xbdf1e454	-0.11811128
230	0xbe0afa41	-0.13572027
231	0x3e185399	0.1487564
232	0x3dd3e0be	0.103456005
233	0x3d85a4bc	0.06525561
234	0xbc6fb4ef	-0.01463054
235	0xbee621e4	-0.44947731
236	0xbef41618	-0.47673106
237	0xbe7356c1	-0.23763563
238	0xbf8bb439	-1.0914375
239	0xbf393902	-0.7235261
240	0x3e6ec279	0.23316373
241	0xbe9e93a1	-0.30972007
242	0xbe67cf70	-0.22637725
243	0x3ed4675f	0.41485116
244	0x3ec23442	0.37930495
245	0x3e934952	0.28766876
246	0x3e4a46b4	0.19753534
247	0x3ec6e91c	0.38849723
248	0x3ed45a29	0.41475037
249	0xbeb31c07	-0.3498232
250	0x3ca59bca	0.020215888
251	0x3ee2269f	0.4417009
252	0x3e3e0cd9	0.18559588
253	0x3e17bda7	0.1481844
254	0xbb301a8a	-0.0026871287
255	0xbd31d28b	-0.04341368

layer1.0.bias f4 [64]
0	0xc262eb48	-56.729767
1	0xc271f30d	-60.487354
2	0xc24d9276	-51.39303
3	0xc26a9091	-58.64118
4	0xc26a5956	-58.587242
5	0xc2747dab	-61.122723
6	0xc2703220	-60.04895
7	0xc26e0e2c	-59.51384
8	0xc24b7191	-50.860905
9	0xc264caac	-57.19792
10	0xc264d0b0	-57.203796
11	0xc26fe875	-59.97701
12	0xc274f10b	-61.235394
13	0xc275cf3a	-61.45237
14	0xc24ea836	-51.66427
15	0xc2511bff	-52.27734
16	0xc26372e2	-56.86219
17	0xc2767758	-61.616547
18	0xc276b093	-61.672436
19	0xc260bc8e	-56.184135
20	0xc273f919	-60.99326
21	0xc26f2520	-59.786255
22	0xc2700bb3	-60.011425
23	0xc2705f69	-60.093174
24	0xc2697249	-58.361607
25	0xc266a1e6	-57.658104
26	0xc242498d	-48.571827
27	0xc276b501	-61.67676
28	0xc24c8cf1	-51.137638
29	0xc26d330c	-59.29985
30	0xc2695253	-58.330395
31	0xc248be22	-50.185677
32	0xc262472b	-56.5695
33	0xc26d2d19	-59.29404
34	0xc265c951	-57.446598
35	0xc2704dd1	-60.075993
36	0xc272b2bd	-60.67455
37	0xc247dfca	-49.968544
38	0xc23877aa	-46.11686
39	0xc246934b	-49.64384
40	0xc26dc2d7	-59.440273
41	0xc2765f55	-61.593098
42	0xc251190f	-52.27447
43	0xc2678990	-57.88434
44	0xc2701fc3	-60.031017
45	0xc2730faf	-60.765316
46	0xc2555eaa	-53.342445
47	0xc272888e	-60.633354
48	0xc247209a	-49.781837
49	0xc26e60c6	-59.594505
50	0xc266f33f	-57.737545
51	0xc271e346	-60.471947
52	0xc24ef258	-51.736664
53	0xc258399a	-54.05625
54	0xc269f6bc	-58.49095
55	0xc275a9fd	-61.416004
56	0xc26b415f	-58.81384
57	0xc2537148	-52.860626
58	0xc2786372	-62.097115
59	0xc26e88ed	-59.633717
60	0xc24ce1c3	-51.22047
61	0xc2630bde	-56.76159
62	0xc275a001	-61.406254
63	0xc25f487a	-55.820778

layer1.1.weight f4 [64]
0	0x3f9442bf	1.1582869
1	0x3fe0eded	1.7572609
2	0x3e965b6c	0.29366624
3	0x3f6a9434	0.9163239
4	0x3f8eaefb	1.114715
5	0x3fc40158	1.531291
6	0x3f4a6f86	0.7907642
7	0x3f81b68a	1.0133832
8	0x3ea7470e	0.32671398
9	0x3f805a19	1.0027496
10	0x3f8cca43	1.0999225
11	0x3f4d6c23	0.8024313
12	0x3f8c53bf	1.0963057
13	0x3fba048f	1.4532641
14	0x3f7936ac	0.9734905
15	0x3f810a1c	1.008121
16	0x3ee513d9	0.44741705
17	0x3fc041c2	1.5020068
18	0x3fc0454a	1.5021145
19	0x3f353a71	0.707923
20	0x3f9e99f7	1.2390736
21	0x3f878457	1.0587262
22	0x3fd82603	1.68866
23	0x3f59562a	0.848971
24	0x3faab334	1.3335938
25	0x3f9b6044	1.2138753
26	0x3f3da008	0.74072313
27	0x3fc4daa2	1.5379221
28	0x3f676294	0.90384793
29	0x3f008aa4	0.5021155
30	0x3f9119ba	1.1335976
31	0x3eabdf5a	0.3356884
32	0x3f6a5361	0.91533476
33	0x3f84968f	1.0358447
34	0x3f81e5ae	1.0148218
35	0x3f9ca947	1.2239159
36	0x3f799bc6	0.97503316
37	0x3f4afd9a	0.79293215
38	0x3f239980	0.639061
39	0x3eb4dc46	0.35324305
40	0x3f33e15a	0.70265734
41	0x3fdcf82e	1.7263238
42	0x3f1642f4	0.5869591
43	0x3ed0b8e9	0.40766075
44	0x3f093d38	0.5360904
45	0x3f83243a	1.024543
46	0x3ee1069c	0.43950355
47	0x3f3ab9db	0.7293984
48	0x3f4df623	0.804537
49	0x3f932fbd	1.1498944
50	0x3f71b356	0.9441427
51	0x3f96582d	1.1745659
52	0x3ea16658	0.31523395
53	0x3f5572c7	0.8337826
54	0x3f658758	0.89659643
55	0x3fb8121c	1.4380527
56	0x3f71f937	0.94520897
57	0x3f89b69c	1.0758853
58	0x40019da9	2.0252478
59	0x3f8ca5ef	1.0988139
60	0x3f74146c	0.9534366
61	0x3f6537aa	0.8953806
62	0x3fc4f1f5	1.538634
63	0x3eae6e04	0.3406831

layer1.1.bias f4 [64]
0	0xbe82b19f	-0.2552614
1	0xbed621fe	-0.4182281
2	0xbf3889a2	-0.7208501
3	0xbe840a3a	-0.25789052
4	0xbeb24b12	-0.348229
5	0x4015109e	2.3291392
6	0xbe872f01	-0.2640305
7	0x3d23881a	0.03992472
8	0xbf0bcd23	-0.5460989
9	0xbed26bc9	-0.4109786
10	0xbe377579	-0.17915906
11	0x3f24f43e	0.64435184
12	0xbe1ead1c	-0.15495723
13	0x3f464604	0.77450585
14	0xbe85ecc2	-0.26157194
15	0xbe8e71dd	-0.27821246
16	0xbf48717f	-0.7829818
17	0x40013a4f	2.0191839
18	0x3fb31499	1.3990661
19	0xbebf6ab4	-0.37386096
20	0x3f516c9e	0.8180636
21	0x3da1efde	0.07907079
22	0xbe76ccf8	-0.24101627
23	0x3d9829bd	0.07429836
24	0xbe7083ca	-0.23487774
25	0xbe890d93	-0.2676817
26	0xbe8333fe	-0.25625604
27	0x3f164c1b	0.5870988
28	0xbe8c4114	-0.273934
29	0xbe501088	-0.20318806
30	0xbe50b1bc	-0.203803
31	0xbf60fe6d	-0.8788822
32	0xbe80d017	-0.2515876
33	0xbee9a414	-0.45632994
34	0xbea4cf20	-0.32189274
35	0x3f225500	0.6341095
36	0xbe806d08	-0.25083184
37	0xbed2445d	-0.41067782
38	0xbec41ff1	-0.3830562
39	0xbf1eafb5	-0.6198686
40	0xbdff1f84	-0.12457183
41	0x400499ee	2.0718951
42	0xbea48fa9	-0.32140854
43	0xbe9e1ae9	-0.30879906
44	0xbeca81b1	-0.39552072
45	0x3f772894	0.9654629
46	0xbf3f28da	-0.7467171
47	0x3f5b1ae5	0.8558791
48	0xbe84b09e	-0.25915998
49	0xbede2b49	-0.433924
50	0xbe981e1c	-0.29710472
51	0x3d927be8	0.071525395
52	0xbedca0fb	-0.43091568
53	0xbee7ab4e	-0.45247883
54	0xbeb54b74	-0.3540913
55	0x3eea7faf	0.4580054
56	0x3e890535	0.26761785
57	0xbe4519af	-0.19248079
58	0x3fe00889	1.7502605
59	0x3e8cd1e0	0.27503872
60	0xbe822ded	-0.25425664
61	0xbe318547	-0.17335998
62	0x3ffaffa8	1.960927
63	0xbebc5f5a	-0.36791497

layer1.1.running_mean f4 [64]
0	0xc2811cc0	-64.55615
1	0xc2760974	-61.50923
2	0xc2317921	-44.36829
3	0xc279034f	-62.25323
4	0xc2725383	-60.581554
5	0xc27558a1	-61.33655
6	0xc26fc0e2	-59.938362
7	0xc2720048	-60.500275
8	0xc2318497	-44.379482
9	0xc277ccea	-61.95011
10	0xc27db7af	-63.42938
11	0xc271c779	-60.444798
12	0xc2703d31	-60.059757
13	0xc2761c43	-61.5276
14	0xc28d0e51	-70.52796
15	0xc28dda7a	-70.92671
16	0xc25e3cf9	-55.559544
17	0xc277d8a9	-61.961582
18	0xc276899d	-61.634388
19	0xc269d118	-58.454193
20	0xc272d2ac	-60.705734
21	0xc2719954	-60.399734
22	0xc27f2d7d	-63.794422
23	0xc27043ad	-60.06609
24	0xc27624c7	-61.535915
25	0xc2801cff	-64.05663
26	0xc290255d	-72.072975
27	0xc277848d	-61.879444
28	0xc28d1ba2	-70.55397
29	0xc26b26e4	-58.78798
30	0xc27ae5fa	-62.724586
31	0xc236ea32	-45.728706
32	0xc276be31	-61.685734
33	0xc2747191	-61.110905
34	0xc26e4dc8	-59.57596
35	0xc26e4575	-59.56783
36	0xc271b2cc	-60.424606
37	0xc2613f72	-56.31196
38	0xc2924b8f	-73.147575
39	0xc22c1c4c	-43.027634
40	0xc26fe73a	-59.975807
41	0xc2769e1c	-61.654404
42	0xc231aafc	-44.416977
43	0xc2739bd6	-60.902184
44	0xc26de133	-59.46992
45	0xc272ffde	-60.74987
46	0xc241de03	-48.46681
47	0xc272a618	-60.6622
48	0xc28cf704	-70.48245
49	0xc27280f4	-60.62593
50	0xc2774460	-61.816772
51	0xc273a0ae	-60.906914
52	0xc234be69	-45.185947
53	0xc26a5c91	-58.590397
54	0xc26dfb3e	-59.495354
55	0xc2748dfa	-61.13865
56	0xc26cff48	-59.2493
57	0xc28b3ae7	-69.61504
58	0xc2793bc6	-62.308372
59	0xc276332c	-61.549973
60	0xc28d00b1	-70.50135
61	0xc278f628	-62.240387
62	0xc276a677	-61.662563
63	0xc254a56d	-53.16155

layer1.1.running_var f4 [64]
0	0x43610c69	225.04848
1	0x40ba31b2	5.8185663
2	0x433249fa	178.28897
3	0x4284963e	66.29344
4	0x41a427bf	20.519407
5	0x40cdf63d	6.4363084
6	0x405365f2	3.3030972
7	0x411bd42b	9.739299
8	0x43178acf	151.54222
9	0x42ab46b1	85.63807
10	0x430fb1d1	143.6946
11	0x40358d40	2.8367462
12	0x40bd8dc4	5.9235554
13	0x40d75af3	6.729852
14	0x449e403a	1266.0071
15	0x4499cd50	1230.416
16	0x41257f61	10.343598
17	0x40dc193b	6.87808
18	0x40bb593a	5.854642
19	0x41e1017d	28.125727
20	0x40a9e5cc	5.3093014
21	0x40b9472d	5.7899384
22	0x4260d21b	56.20518
23	0x408c8b6b	4.392019
24	0x42234e89	40.826694
25	0x4317528a	151.32242
26	0x44f67b6a	1971.8567
27	0x3fb7db8b	1.4363874
28	0x44a6fc82	1335.8909
29	0x40cdc354	6.430094
30	0x42980c20	76.02368
31	0x4293aed4	73.84146
32	0x42ceccfe	103.400375
33	0x415de19c	13.86758
34	0x4211b318	36.424896
35	0x4031ee32	2.7801633
36	0x3fa9087e	1.3205717
37	0x4330405c	176.2514
38	0x45213bd7	2579.74
39	0x432712c7	167.07335
40	0x3fcd4edc	1.6039691
41	0x41055192	8.332415
42	0x43638621	227.52394
43	0x420c7a93	35.1197
44	0x3fca0691	1.5783254
45	0x408d6a11	4.4191976
46	0x42ba4aad	93.14585
47	0x40b732d3	5.724954
48	0x44bf264c	1529.1968
49	0x40b0cbfc	5.5249004
50	0x4282beaa	65.37239
51	0x405aa638	3.4163952
52	0x431d79e9	157.47621
53	0x42c1bd2a	96.86946
54	0x4088e4af	4.2779155
55	0x40f7e553	7.7467437
56	0x41661810	14.380875
57	0x4479acc4	998.69946
58	0x40406d51	3.0066721
59	0x41c946e3	25.159613
60	0x44a48316	1316.0964
61	0x42e711f8	115.535095
62	0x40f97e71	7.7966847
63	0x41fe77ec	31.808556

layer2.0.weight f4 [64, 64, 3, 3]
0	0x3e5e27ee	0.2169492
1	0x3e0b2ef7	0.13592134
2	0x3e97ef17	0.296746
3	0x3c33df5a	0.010978544
4	0x3eaf065f	0.34184548
5	0x3eb938c0	0.3617611
6	0xbe539931	-0.20663907
7	0x3e3c0cc9	0.18364252
8	0x3eaeb8d6	0.34125394
9	0xbd5a63c4	-0.0533178
10	0x3d67001c	0.05639659
11	0xbe02f601	-0.12789156
12	0xbdb99523	-0.09061649
13	0x3ea366a5	0.3191425
14	0xbe93086d	-0.28717366
15	0xbe8ca239	-0.27467516
16	0x3b8fac9a	0.0043845894
17	0xbe901806	-0.28143328
18	0x3e805cc4	0.25070775
19	0xbe45371b	-0.19259302
20	0xbdf4a56a	-0.11945613
21	0x3f023f1b	0.5087754
22	0x3da15a86	0.07878594
23	0xbeace035	-0.33764806
24	0x3eff4bf2	0.4986263
25	0x3e367507	0.1781808
26	0xbe6fe604	-0.23427588
27	0xbca32195	-0.019913474
28	0x3e49ab48	0.19694245
29	0x3e07b2ee	0.1325185
30	0xbe81812e	-0.2529387
31	0x3dbec774	0.093153864
32	0x3e30e831	0.17276074
33	0xbece0c60	-0.40243816
34	0xbeb4922b	-0.35267767
35	0xbdee37dd	-0.11631749
36	0xbe66f49e	-0.22554252
37	0xbeacd8fd	-0.337593
38	0x3e608b93	0.21928243
39	0x3d13e643	0.036108267
40	0xbec01e93	-0.37523326
41	0xbeb02661	-0.3440428
42	0x3e8c2edf	0.2737951
43	0xbe7e1112	-0.248112
44	0xbed97de9	-0.42478874
45	0x3e86ae90	0.26305056
46	0xbe4cb8d0	-0.19992375
47	0xbe8167bd	-0.2527446
48	0x3e7615c5	0.24031742
49	0x3ecfea7c	0.40608585
50	0xbda8534b	-0.08219012
51	0xbe8e0c47	-0.27743742
52	0x3e627451	0.22114684
53	0x3ed6d0c4	0.4195615
54	0xbd944b9f	-0.07240986
55	0x3d78e52f	0.06076544
56	0x3d9d76c5	0.07688669
57	0xbdcff01e	-0.101532206
58	0xbf040d25	-0.51582557
59	0x3e3af3c1	0.18257047
60	0x3ecb26f0	0.39678144
61	0xbee10c6c	-0.4395479
62	0xbecfa395	-0.4055449
63	0x3db3cc2d	0.08779178
64	0xbe47f50c	-0.19527072
65	0x3e567a8b	0.20945184
66	0x3e027b72	0.12742403
67	0x3e6c1b71	0.23057343
68	0x3e031a13	0.12802915
69	0xbeb32ad6	-0.3499362
70	0x3d9828e8	0.07429677
71	0x3e5667e1	0.20938064
72	0x3d027dcb	0.031858247
73	0xbe3e6576	-0.18593392
74	0xbe258799	-0.16165008
75	0x3eabab1a	0.33528978
76	0xbd2b0368	-0.041751295
77	0xbede1948	-0.43378663
78	0x3ea235ff	0.3168182
79	0x3e47f306	0.195263
80	0xbe403af8	-0.18772495
81	0x3dd4692d	0.10371623
82	0xbd4608cf	-0.048348244
83	0x3eb40909	0.35163143
84	0x3bacc8c2	0.0052729556
85	0x3e48deb8	0.1961621
86	0x3e52ccf3	0.20585994
87	0xbed2022b	-0.4101728
88	0x3dc107d7	0.094253235
89	0xbe8d0a6a	-0.27547008
90	0x3eb5b229	0.35487488
91	0x3e1c5136	0.15265355
92	0x3dc94a42	0.09828617
93	0x3e791f0b	0.24328248
94	0x3e8fecff	0.281105
95	0x3eba4ed6	0.36388272
96	0xbdd1f33e	-0.10251473
97	0x3e31ab0a	0.17350402
98	0x3edd293b	0.4319552
99	0x3e8aecbd	0.27133742
100	0xbc87ab50	-0.01656118
101	0x3d77d636	0.06050702
102	0x3ea36f7f	0.31921002
103	0x3e232998	0.15933836
104	0xbdc27ae1	-0.094960935
105	0xbe2bda63	-0.16782527
106	0x3e3ba542	0.1832476
107	0x3e163e09	0.14672102
108	0xbe0500b3	-0.12988548
109	0xbd9ab39c	-0.07553789
110	0xbedc5d91	-0.43040136
111	0xbdebecf4	-0.115198046
112	0xbddb5784	-0.10710052
113	0xbe5873c1	-0.21137907
114	0xbcd440ce	-0.025909808
115	0xbdf318ad	-0.11869941
116	0xbe59809f	-0.21240471
117	0x3e0e79f1	0.13913704
118	0xbea76098	-0.32690883
119	0xbe7bda01	-0.2459488
120	0x3ec1ea3b	0.37874016
121	0xbe5f1bd1	-0.21787955
122	0xbf164156	-0.58693445
123	0x3edad585	0.42741027
124	0x3d43a946	0.047768854
125	0xbe840ef4	-0.25792658
126	0xbb1dbd36	-0.0024069077
127	0x3ea0d38b	0.31411394
128	0x3e9a328a	0.30116683
129	0xbdae49b2	-0.0851015
130	0x3d127d8b	0.03576426
131	0x3e7636c2	0.24044326
132	0xbdc3216a	-0.095278576
133	0xbdaf58f0	-0.08561885
134	0x3d89e678	0.067334116
135	0x3e422b1e	0.1896176
136	0x3e712734	0.23550111
137	0x3e8aec47	0.2713339
138	0xbe1cc082	-0.15307811
139	0x3dc150bc	0.09439227
140	0x3e937127	0.28797266
141	0xbe3d1519	-0.1846508
142	0x3d6303e5	0.055423636
143	0x3e309446	0.17244062
144	0xbdf229ee	-0.11824404
145	0xbed801c5	-0.4218885
146	0xbd69cfb4	-0.057082847
147	0x3ef3cd1f	0.47617432
148	0xbefe79a0	-0.49702168
149	0xbf41f791	-0.7576838
150	0x3f385d7a	0.72017634
151	0xbc72d0d3	-0.014820295
152	0xbf224c0c	-0.6339729
153	0xbeaa12e1	-0.33217528
154	0xbe492303	-0.19642262
155	0x3d476405	0.04867937
156	0xbce7866e	-0.028262343
157	0xbe77fe4a	-0.24218097
158	0xbcecad20	-0.028891146
159	0x3e850651	0.25981382
160	0x3e4ddcf3	0.20103817
161	0x3d9ce6e1	0.07661224
162	0xbf09663e	-0.53671634
163	0x3e63a046	0.22229108
164	0x3eb8b5b4	0.36076128
165	0x3da10d4f	0.078638665
166	0xbf6bf8ad	-0.92176324
167	0x3e81b510	0.25333452
168	0x3ecf9cf4	0.40549433
169	0xbf5f783f	-0.87292856
170	0xbe9a0afb	-0.30086502
171	0x3e329a2b	0.17441623
172	0xbdb6d7e1	-0.089278944
173	0xbd4bbeb2	-0.049742408
174	0x3ea76e13	0.32701167
175	0x3deba302	0.11505701
176	0xbedadfe1	-0.4274893
177	0x3d49faab	0.04931132
178	0xbdad1b63	-0.08452489
179	0xbf35f559	-0.71077496
180	0xbee24e05	-0.4420015
181	0x3eb40f0b	0.35167727
182	0x3f149ef9	0.58055073
183	0xbf1de96c	-0.616843
184	0xbf4c2283	-0.7974016
185	0x3e866566	0.26249236
186	0x3e054f59	0.1301855
187	0xbea34ce7	-0.3189461
188	0xbeff5ae9	-0.49874046
189	0x3e0ddfd4	0.13854915
190	0x3ce9bd94	0.02853278
191	0xbe01d51c	-0.12678951
192	0x3e73767e	0.2377567
193	0x3e23f509	0.16011442
194	0xbda20413	-0.07910933
195	0x3dd0b0b5	0.10189954
196	0xbe862d8e	-0.2620663
197	0x3d3661ec	0.04452698
198	0xbe019015	-0.12652619
199	0xbb9f3086	-0.0048580794
200	0xbdafeee7	-0.08590489
201	0x3d51abd0	0.051189244
202	0xbdaa220a	-0.08307274
203	0x3e173b37	0.14768682
204	0xbd3dd3c2	-0.046344526
205	0xbe948e7f	-0.29014966
206	0xbbb19bba	-0.0054201754
207	0x3c2f0ab3	0.010683703
208	0x3d87836e	0.06616865
209	0x3e62f371	0.22163178
210	0x3e6adb05	0.22935112
211	0xbe926f06	-0.2860033
212	0xbf13d397	-0.57744735
213	0x3ed65194	0.41859114
214	0x3e74ab21	0.23893405
215	0xbec82533	-0.3909088
216	0xbebe233a	-0.3713625
217	0xbe4194fe	-0.18904492
218	0xbd3fd943	-0.046838056
219	0xbea113ab	-0.31460318
220	0xbe7a48b7	-0.24441801
221	0xbd9a3f59	-0.07531614
222	0x3ea2c933	0.31794128
223	0xbe228cb3	-0.15873985
224	0x3d5d2660	0.053991675
225	0x3ea8f4fd	0.3299941
226	0xbc9f0134	-0.019409753
227	0x3e9683ff	0.2939758
228	0x3dbc77dd	0.092025496
229	0x3e9a57c8	0.30145097
230	0x3e959321	0.29213813
231	0xbe96e850	-0.29474115
232	0x3e13231a	0.14368859
233	0x3e73da3d	0.2381372
234	0x3e512b7b	0.20426743
235	0x3eb0392d	0.34418622
236	0x3ec18803	0.3779908
237	0xbd7a0db3	-0.06104822
238	0xbd8fbe32	-0.07018699
239	0x3e638de4	0.22222096
240	0xbe483b5a	-0.19553891
241	0xbe112b96	-0.14176783
242	0x3c9fa915	0.019489804
243	0x3eabad3b	0.33530602
244	0x3e78e810	0.24307275
245	0xbe14b664	-0.14522702
246	0xbe7ea910	-0.2486918
247	0x3d3e7341	0.046496633
248	0x3dab03f8	0.08350366
249	0xbcdac209	-0.026703851
250	0xbeb5842f	-0.3545241
251	0xbe95f4ef	-0.29288432
252	0x3e379bf7	0.1793059
253	0x3e8de17c	0.27711093
254	0x3e8aca80	0.2710762
255	0xbe52277d	-0.20522876

layer2.0.bias f4 [64]
0	0x422da541	43.41138
1	0x4206a5ba	33.661842
2	0x42317f99	44.374607
3	0x421f5759	39.8353
4	0x422831b5	42.048542
5	0x42175dbc	37.841537
6	0x420957ab	34.335613
7	0x42206cdc	40.106308
8	0x4214032c	37.003098
9	0x42286d91	42.107
10	0x421ba237	38.908413
11	0x41f802b4	31.00132
12	0x4224c7d4	41.195145
13	0x422f8ca8	43.88736
14	0x42249721	41.147587
15	0x42027e9f	32.623653
16	0x420af7ed	34.742115
17	0x42340aee	45.010674
18	0x4233ebf8	44.98044
19	0x423c0377	47.003384
20	0x4230e1bc	44.220444
21	0x4221e916	40.477623
22	0x420f7475	35.863728
23	0x4222adce	40.66973
24	0x4238d697	46.20956
25	0x422b3378	42.800262
26	0x42162afe	37.541985
27	0x423c5667	47.084377
28	0x421c9013	39.140697
29	0x4214cc9c	37.199814
30	0x42042509	33.036167
31	0x420f1c8a	35.77787
32	0x420d0e5b	35.26402
33	0x42432681	48.7876
34	0x4222ffc6	40.74978
35	0x42052581	33.286625
36	0x421c5dca	39.09159
37	0x4217ca3a	37.947487
38	0x4211b275	36.424274
39	0x4219fbd9	38.495945
40	0x4219d2cb	38.455853
41	0x4228f08c	42.23491
42	0x42140aeb	37.010662
43	0x42101b17	36.026455
44	0x41f13f62	30.155949
45	0x4228d666	42.209373
46	0x42263292	41.549385
47	0x41e3e56c	28.487022
48	0x421f35ce	39.802544
49	0x422301e2	40.75184
50	0x42217005	40.359394
51	0x4226f807	41.742214
52	0x421e77ce	39.616997
53	0x4230d3f9	44.207005
54	0x422861cf	42.095516
55	0x4206d05d	33.70348
56	0x4213fb82	36.995613
57	0x4201f318	32.487396
58	0x4221109e	40.266228
59	0x420cc5f0	35.1933
60	0x4223ce2a	40.951332
61	0x4216453b	37.567608
62	0x4239f683	46.490734
63	0x422266cf	40.6004

layer2.1.weight f4 [64]
0	0x3fbd98e9	1.481229
1	0x3f871a8c	1.0554976
2	0x3f912ccf	1.13418
3	0x3fadad53	1.3568519
4	0x3fa19597	1.2623776
5	0x3f62db95	0.88616306
6	0x3f0361c4	0.51321054
7	0x3fa24e5f	1.2680167
8	0x3f0a6ddb	0.54073876
9	0x3fa8f49d	1.319965
10	0x3f8e5d94	1.1122308
11	0x3edee1d8	0.4353168
12	0x3fae83c5	1.3633963
13	0x3f9795e8	1.1842623
14	0x3f7ced4a	0.98799574
15	0x3f019cbd	0.5062979
16	0x3f1c7b94	0.61126065
17	0x3f5f7005	0.87280303
18	0x3fcb0aa3	1.5862621
19	0x3fa27b92	1.2693961
20	0x3fb20a97	1.3909482
21	0x3f8ce64c	1.1007781
22	0x3f7aeab4	0.9801438
23	0x3f871769	1.0554019
24	0x3f615161	0.880148
25	0x3f4fa6c5	0.81113845
26	0x3f060d10	0.5236368
27	0x3fc348f6	1.5256641
28	0x3fa94d0d	1.3226639
29	0x3f95e5c5	1.1710745
30	0x3efff671	0.49992707
31	0x3f1bacdd	0.60810643
32	0x3f871be5	1.0555388
33	0x3fb7954c	1.4342437
34	0x3f9b38f4	1.2126756
35	0x3f7f577e	0.9974288
36	0x3f31aff0	0.69409084
37	0x3f851551	1.039713
38	0x3f972628	1.1808519
39	0x3f3a87ea	0.7286364
40	0x3f1c8d46	0.61153066
41	0x3f9b74f1	1.2145063
42	0x3f928720	1.1447487
43	0x3f05c3f8	0.5225215
44	0x3edd035c	0.43166625
45	0x3f8974a4	1.0738721
46	0x3fac5441	1.3463212
47	0x3ef2ef65	0.4744827
48	0x3fa59dd0	1.2938786
49	0x3f9b502c	1.2133842
50	0x3fa8538f	1.31505
51	0x3fa16589	1.2609111
52	0x3f8cdc6c	1.1004767
53	0x3f8c52a5	1.0962721
54	0x3f998d8f	1.1996325
55	0x3f204cfb	0.6261746
56	0x3f0b8b58	0.54509497
57	0x3f0ef7ab	0.5584666
58	0x3f856cc0	1.0423813
59	0x3f15e833	0.5855743
60	0x3f9f5c2b	1.2450002
61	0x3f4a0384	0.78911614
62	0x3fe35280	1.7759552
63	0x3f79be7d	0.9755629

layer2.1.bias f4 [64]
0	0x3d34641a	0.044040777
1	0x3d308bff	0.04310226
2	0xbeb627a6	-0.35577124
3	0xbd4fae01	-0.050703052
4	0xbeda6dfc	-0.42662036
5	0xbe056704	-0.13027579
6	0xbee5104f	-0.44739005
7	0xbe5e1de4	-0.2169109
8	0xbf2fc5cd	-0.68661195
9	0x3f01af7a	0.5065838
10	0xbf096937	-0.5367617
11	0xbf5469f1	-0.82974154
12	0x3e72f08d	0.23724575
13	0x3eefc3e5	0.46829143
14	0xbd8d9138	-0.06912464
15	0xbf71dc7a	-0.94477046
16	0xbf40e0f3	-0.75343245
17	0xbe4c0365	-0.1992317
18	0xbdb36997	-0.08760374
19	0xbf017413	-0.5056774
20	0x3dd98701	0.10621453
21	0xbd434a75	-0.04767843
22	0xbe8aebf8	-0.27133155
23	0xbeae6303	-0.34059915
24	0xbf6dda73	-0.9291145
25	0xbe878b62	-0.26473528
26	0xbee696e8	-0.45037007
27	0x3ee5cf8d	0.4488491
28	0xbe9dc9fb	-0.3081816
29	0x3e1f8ff5	0.15582259
30	0xbf226b48	-0.6344495
31	0xbf0393f7	-0.5139765
32	0xbe949a22	-0.29023844
33	0xbea23a08	-0.316849
34	0x3d4a38bf	0.049370524
35	0xbea67795	-0.3251311
36	0xbeb06bf8	-0.34457374
37	0xbf11fca2	-0.5702611
38	0xbef20038	-0.47265792
39	0xbef6f6f4	-0.48235285
40	0xbf11abb5	-0.5690263
41	0xbec8ce16	-0.3921973
42	0xbeb79178	-0.3585317
43	0xbf1ac766	-0.6046051
44	0xbf0431fd	-0.51638776
45	0x3f3435d3	0.7039463
46	0xbe7de3c6	-0.2479392
47	0xbf173647	-0.59067196
48	0xbd030b2d	-0.03199308
49	0xbe3b88ad	-0.18313856
50	0xbee7efdc	-0.45300186
51	0xbe648c00	-0.22319031
52	0xbe43fa32	-0.1913841
53	0x3e16eeb4	0.14739496
54	0xbec8e80a	-0.39239532
55	0xbf0939dc	-0.5360391
56	0xbe23bbf5	-0.15989669
57	0xbf1e3cfe	-0.61811817
58	0xbe5debaa	-0.2167193
59	0xbef3a1ad	-0.47584286
60	0xbdac73dc	-0.08420536
61	0xbd899aa3	-0.06718948
62	0x3dc28aec	0.094991535
63	0x3f28cae9	0.65934616

layer2.1.running_mean f4 [64]
0	0x420b3617	34.802822
1	0xc0cbf54b	-6.373693
2	0x41fcf1f9	31.61815
3	0x4132957d	11.161496
4	0x423d2d25	47.294086
5	0x41783fcb	15.515574
6	0x4217ef07	37.983425
7	0x41effeab	29.99935
8	0x42414572	48.317818
9	0x41cd4052	25.656406
10	0x41b47dfc	22.561516
11	0x42624652	56.568672
12	0x41c8c225	25.094797
13	0x42090959	34.25913
14	0x42281ce5	42.028217
15	0x41e16616	28.174847
16	0x41fde580	31.73706
17	0x421b0f17	38.764736
18	0x422159cc	40.337692
19	0x4227018f	41.751522
20	0x41d1a88a	26.207294
21	0x41f04bfe	30.037106
22	0x414f38f2	12.951403
23	0x42020bed	32.511646
24	0x422c9aaa	43.15104
25	0x41df4ee1	27.913515
26	0x423eb125	47.672993
27	0x421c3f2a	39.061684
28	0x41f6f88a	30.871357
29	0x41568d32	13.4094715
30	0x421958bb	38.33665
31	0x4226fbb4	41.745804
32	0x41249faa	10.2889805
33	0x4231ca10	44.447327
34	0x41ec3635	29.526468
35	0x415f3df6	13.952627
36	0x4212fc03	36.746105
37	0x419dd3a1	19.728334
38	0x41847989	16.559343
39	0x4085661b	4.168714
40	0x42213a8a	40.307167
41	0x420b2546	34.7864
42	0x4187007e	16.87524
43	0x4211db52	36.46418
44	0x419b3850	19.402496
45	0x419f4c68	19.912308
46	0x41b83f35	23.030863
47	0x4219fa31	38.494328
48	0x419e6053	19.797033
49	0x42242835	41.039265
50	0x4200099f	32.009396
51	0x41c659be	24.79382
52	0x4201b862	32.43006
53	0x4237ae9a	45.92051
54	0x421fc2e9	39.940342
55	0x41ce3d32	25.77988
56	0x4205de02	33.466805
57	0x41a778fb	20.934072
58	0x42084785	34.069843
59	0x423dbb5b	47.432964
60	0x41e1b84a	28.214985
61	0x41eabf36	29.343365
62	0x42243772	41.054146
63	0x41ddca7d	27.723871

layer2.1.running_var f4 [64]
0	0x436ae315	234.88704
1	0x44159e77	598.476
2	0x43266335	166.38753
3	0x43dfe8bb	447.8182
4	0x437416b3	244.08867
5	0x43a07cfe	320.9765
6	0x4330d065	176.81404
7	0x43db5744	438.68176
8	0x42c8ab8f	100.335075
9	0x4381730d	258.89883
10	0x438cd084	281.62903
11	0x42e07d26	112.24443
12	0x438a6c25	276.84488
13	0x43441bf9	196.10927
14	0x43100cb4	144.04962
15	0x42d437c8	106.10895
16	0x4299b98f	76.86242
17	0x42937812	73.73451
18	0x4367cb6b	231.7946
19	0x42baf338	93.47504
20	0x42a87e15	84.246254
21	0x43927186	292.8869
22	0x43f960d5	498.7565
23	0x431caed3	156.6829
24	0x41cbb4c3	25.463263
25	0x4257bdf6	53.93551
26	0x42ab0a74	85.52042
27	0x43208edd	160.55806
28	0x43c17b16	386.9616
29	0x438d4057	282.50266
30	0x424dc4cc	51.442184
31	0x430975c0	137.45996
32	0x44462d94	792.71216
33	0x420a94ea	34.645424
34	0x43433dac	195.2409
35	0x44046521	529.58014
36	0x4316c49d	150.76802
37	0x4389b505	275.4142
38	0x438b9a54	279.2057
39	0x4304bf64	132.74762
40	0x4258b840	54.17993
41	0x436a31bb	234.19426
42	0x43d4f4dd	425.913
43	0x42d809c0	108.01904
44	0x430682e8	134.51135
45	0x430230ef	130.19115
46	0x4364e2c9	228.88588
47	0x4384e5af	265.7944
48	0x43c25010	388.6255
49	0x4388ad21	273.35257
50	0x4356e89d	214.90865
51	0x43196549	153.39565
52	0x43843e80	264.48828
53	0x4300e159	128.88026
54	0x43384edd	184.30806
55	0x43073eb1	135.24489
56	0x42ee0bed	119.02329
57	0x4326cd81	166.80275
58	0x438808f0	272.06982
59	0x42aec841	87.39112
60	0x434dbd05	205.73836
61	0x438d883d	283.06436
62	0x432c99b9	172.60048
63	0x436491b3	228.56914

layer3.0.weight f4 [64, 64, 3, 3]
0	0x3e8f37fc	0.279724
1	0x3e43266c	0.19057626
2	0xbf48bb14	-0.7841046
3	0x3dfd0c7e	0.12355898
4	0x3e5add21	0.21373416
5	0xbf0c163a	-0.54721415
6	0xbd90c419	-0.07068653
7	0xbc90404a	-0.01760878
8	0xbef006d0	-0.46880198
9	0x3c8552ca	0.016274828
10	0xbe1caf3c	-0.15301222
11	0xbf62b57d	-0.8855818
12	0xbcec26e5	-0.02882714
13	0x3e6f2e20	0.23357439
14	0xbf0d0028	-0.55078363
15	0x3d96c4d2	0.07361759
16	0x3e4a3482	0.19746593
17	0xbef58beb	-0.4795831
18	0xbe33c4ff	-0.17555617
19	0x3c89f1ea	0.016838986
20	0x3d45666d	0.048193384
21	0xbec53ba1	-0.38522056
22	0xbd8258a3	-0.06364562
23	0xbe40963f	-0.18807314
24	0xbe8ceea5	-0.2752582
25	0x3b5c0e40	0.003357783
26	0xbece5937	-0.4030244
27	0xbf0bf043	-0.54663485
28	0xbe04314b	-0.12909429
29	0xbe5ba7b1	-0.21450688
30	0x3e2357b0	0.15951419
31	0x3e2d49f3	0.1692274
32	0xbd6164fa	-0.05502794
33	0xbe857664	-0.26066887
34	0x3e2ea460	0.17054892
35	0x3e785a77	0.2425326
36	0x3ec1e25a	0.37868005
37	0x3f1801a0	0.5937748
38	0xbec6bd6d	-0.38816395
39	0x3e97eae9	0.2967141
40	0x3f208ba7	0.6271309
41	0x3e6c49bf	0.23075007
42	0x3e65d3f4	0.22444135
43	0x3e8ba2bf	0.27272603
44	0xbdc2750b	-0.094949804
45	0xbe03ec28	-0.12883055
46	0x3ce20970	0.02759239
47	0xbe566960	-0.20938635
48	0xbeae9f05	-0.34105697
49	0xbebcf958	-0.36908984
50	0xbf114632	-0.56747735
51	0x3d1d2ec3	0.038374674
52	0xbe5a6c13	-0.2133029
53	0xbea3b0ef	-0.31970927
54	0x3d895103	0.06704905
55	0x3dfafd0e	0.122552976
56	0x3e31cc01	0.17362978
57	0x3da6c921	0.08143831
58	0xbde7fe2a	-0.11327775
59	0xbd1bb72f	-0.038016494
60	0xbd4fcc34	-0.050731853
61	0xbead422a	-0.33839542
62	0xbe4aecc2	-0.19816878
63	0x3e793355	0.24335988
64	0xbebd271e	-0.36943907
65	0xbea4039f	-0.32034013
66	0x3dd495f6	0.10380165
67	0x3e65d6c7	0.22445212
68	0xbe80e7d6	-0.25176877
69	0x3ce2056c	0.027590476
70	0x3e46e179	0.19421948
71	0xbdf0ae22	-0.11751963
72	0xbf171aea	-0.5902544
73	0xbf0d5edb	-0.5522286
74	0xbead0514	-0.33792937
75	0xbf07c131	-0.5302916
76	0xbeb5109d	-0.35364237
77	0xbef897e4	-0.48553383
78	0xbf19ea66	-0.6012329
79	0xbea4aa0e	-0.3216099
80	0xbf0b820c	-0.5449531
81	0xbdd1b0c8	-0.102387965
82	0xbf875c26	-1.0574996
83	0xbee39922	-0.4445277
84	0x3c4ddc29	0.012564697
85	0xbefbb74b	-0.4916328
86	0xbeaca61f	-0.3372049
87	0x3e219dab	0.15782802
88	0x3e7071b0	0.23480868
89	0xbc77d36b	-0.01512609
90	0x3ec716f3	0.38884696
91	0x3f026318	0.50932455
92	0xbf0e24a3	-0.55524653
93	0xbc61c826	-0.013780629
94	0x3f02902c	0.5100124
95	0xbe6a154c	-0.22859687
96	0xbea412cd	-0.32045594
97	0x3ddc43fa	0.10755153
98	0xbd72ae9a	-0.059248544
99	0x3de7fbfc	0.11327359
100	0x3f00dcdf	0.5033702
101	0x3d99985c	0.07499763
102	0x3e2ca91f	0.1686139
103	0x3ef83fda	0.48486215
104	0xbe1afb68	-0.15134966
105	0xbe674f2e	-0.22588798
106	0x3e07423e	0.13208863
107	0xbe164c6f	-0.14677595
108	0xbdb93782	-0.090437904
109	0xbe95a396	-0.2922637
110	0xbf5d3ce4	-0.86421037
111	0xbe6b72cd	-0.22993012
112	0xbf07ead4	-0.53092694
113	0xbf09e50b	-0.53865117
114	0x3e8d817c	0.2763785
115	0xbd7988fd	-0.060921658
116	0xbe8be922	-0.27326304
117	0xbe4a46d3	-0.1975358
118	0xbe49b858	-0.19699228
119	0x3d2aafc8	0.041671544
120	0x3de97174	0.113985926
121	0x3e91ef5a	0.28502923
122	0x3df07cfe	0.1174259
123	0x3ea1976c	0.31560838
124	0x3ee17c15	0.4403998
125	0x3ecd71d3	0.40125903
126	0xbe1b2576	-0.15151009
127	0xbede1eeb	-0.43382964
128	0xbe7a0e7b	-0.24419586
129	0x3e805271	0.25062898
130	0x3cc012e6	0.023446511
131	0xbdffb55d	-0.12485764
132	0xbcbd3b00	-0.023099422
133	0xbe868101	-0.26270297
134	0xbec7ba07	-0.39009115
135	0x3e5bffe8	0.21484339
136	0x3f03a780	0.5142746
137	0xbd88474b	-0.06654223
138	0xbda1f19d	-0.07907412
139	0x3f205997	0.62636703
140	0xbe194c88	-0.149706
141	0xbda51573	-0.08060732
142	0x3dac7d19	0.08422298
143	0xbeb85024	-0.35998642
144	0x3e19ccff	0.15019606
145	0x3ec53758	0.38518786
146	0x3e50ca9f	0.20389794
147	0x3f0581dd	0.5215128
148	0x3ecc2154	0.39869177
149	0x3d3f3aff	0.046687122
150	0x3e90fd68	0.28318334
151	0x3ea61bd8	0.32443118
152	0x3ce15f79	0.027511345
153	0xbe437bd7	-0.1909021
154	0x3d2d9fcc	0.042388722
155	0x3e6f0f26	0.23345622
156	0xbec33082	-0.38122946
157	0x3cd96fa9	0.026542502
158	0x3ac9c126	0.0015392646
159	0xbe5bb9df	-0.21457623
160	0x3e265ad0	0.1624558
161	0x3d2d2547	0.04227188
162	0xbbc7c61b	-0.006096614
163	0xbead42a2	-0.338399
164	0xbf188f02	-0.5959321
165	0xbeffc93a	-0.4995821
166	0xbe8acae1	-0.2710791
167	0x3ce660ea	0.028122384
168	0xbf18576d	-0.595084
169	0xbed5b191	-0.41737035
170	0xbf05600a	-0.5209967
171	0xbe0f4ea5	-0.13994844
172	0xbed5d14e	-0.4176125
173	0xbf4189d9	-0.75600964
174	0xbe888727	-0.26665613
175	0xbf0cda19	-0.5502029
176	0xbf2ee04c	-0.68311
177	0xbf0a5a56	-0.5404409
178	0xbf00010b	-0.5000159
179	0xbf2ae84f	-0.66760725
180	0xbf22c082	-0.63574994
181	0xbe44cb2e	-0.19218132
182	0x3c515338	0.012776189
183	0xbe13ea52	-0.14444855
184	0xbe211003	-0.15728764
185	0x3d963715	0.07334725
186	0xbdff4617	-0.124645405
187	0xbd75e43c	-0.060032114
188	0x3e8b0d06	0.27158374
189	0xbcdee04e	-0.027206566
190	0xbd7812a9	-0.06056467
191	0xbf0529d9	-0.5201698
192	0xbc139be3	-0.009009334
193	0x3e335693	0.17513494
194	0xbe23e8bc	-0.1600675
195	0xbbc9781e	-0.0061483523
196	0x3dbf776a	0.09348948
197	0xbe0e0cb7	-0.13872038
198	0x3ee2a5fa	0.44267255
199	0x3ed10840	0.40826607
200	0xbef625bd	-0.48075667
201	0x3f1b5462	0.6067563
202	0x3f0ef70d	0.5584572
203	0xbe1044e3	-0.14088778
204	0x3ebdb999	0.37055662
205	0x3e8ba9d4	0.27278006
206	0xbe2916ca	-0.165126
207	0x3df544fb	0.119760476
208	0x3eb5539c	0.3541535
209	0xbdaa88b9	-0.08326859
210	0x3d724fd0	0.059158146
211	0x3ee90225	0.4550945
212	0x3e96e1ac	0.2946905
213	0xbd2e55a7	-0.042562153
214	0x3ebfc03f	0.3745136
215	0x3ed0ad4f	0.40757224
216	0xbde61705	-0.112348594
217	0xbe7b7bd0	-0.2455895
218	0xbe3cef4a	-0.18450657
219	0xbe90aa77	-0.28255054
220	0xbe1fd3ae	-0.15608093
221	0xbee455f2	-0.4459682
222	0xbe7c400e	-0.2463381
223	0xbce1c666	-0.027560424
224	0xbe836080	-0.2565956
225	0xbebe3084	-0.3714639
226	0xbf055156	-0.52077234
227	0xbdefa80a	-0.11701973
228	0x3e5ef544	0.21773249
229	0xbdd1981b	-0.1023409
230	0x3db8b571	0.09018982
231	0x3e39105a	0.18072644
232	0xbecb04af	-0.3965201
233	0xbd9ce187	-0.076602034
234	0xbe2680d7	-0.16260086
235	0x3d8c31b5	0.06845418
236	0xbd2c8638	-0.04212019
237	0xbe20197d	-0.15634723
238	0x3e12c54a	0.14333072
239	0xbd90ac61	-0.07064129
240	0xbea80046	-0.3281271
241	0x3dd86e3c	0.105679005
242	0xbe1b48d3	-0.15164499
243	0x3dd16d92	0.10225977
244	0xbe56e9aa	-0.20987573
245	0xbccee20f	-0.025254278
246	0xbe543f19	-0.20727195
247	0xbd3e2f12	-0.04643161
248	0x3db45da0	0.0880692
249	0xbd96ef2a	-0.07369836
250	0x3e3b6b36	0.18302616
251	0x3e8b18f0	0.27167463
252	0x3f068b37	0.52556175
253	0x3edd287d	0.43194953
254	0xbefe77f2	-0.49700886
255	0x3f09d22b	0.53836316

layer3.0.bias f4 [64]
0	0x41b9015a	23.12566
1	0x41c9c16b	25.219442
2	0x41f72c56	30.896648
3	0x42007ce0	32.12195
4	0x41aca8df	21.582457
5	0x41b3f95e	22.496761
6	0x41b96be2	23.177677
7	0x41c97fd0	25.187408
8	0x41bad2b6	23.352886
9	0x41dd7931	27.684175
10	0x41af156b	21.885458
11	0x41d11e47	26.139784
12	0x41995f83	19.171637
13	0x41d94dd1	27.162996
14	0x41cb729b	25.43096
15	0x41a574ad	20.68197
16	0x41ec0e9e	29.507137
17	0x418ee27e	17.860592
18	0x41bdd932	23.731052
19	0x41c51bb5	24.638529
20	0x41aabbcb	21.341696
21	0x41943c23	18.529364
22	0x41bb74e5	23.432077
23	0x41a1dc63	20.23261
24	0x41cd01e5	25.625925
25	0x416e952d	14.91142
26	0x41ada551	21.70572
27	0x41dda151	27.703768
28	0x41e1befa	28.21825
29	0x41c2fce4	24.373482
30	0x41b9ad6f	23.209684
31	0x41ba4226	23.282299
32	0x41c4411f	24.531797
33	0x41f5c411	30.720736
34	0x41bff4c4	23.994514
35	0x41f67046	30.804821
36	0x419858b0	19.043304
37	0x41a0ecc2	20.115604
38	0x41b21f8f	22.26541
39	0x419c400f	19.531279
40	0x41c60d68	24.756546
41	0x41ae1d51	21.764315
42	0x41b08a6a	22.067585
43	0x41ae2be3	21.77143
44	0x41e36567	28.424513
45	0x41b1239a	22.142384
46	0x41bdecc1	23.740602
47	0x41e12b14	28.146034
48	0x41d61c88	26.763931
49	0x41e8a7c1	29.081911
50	0x41edea9c	29.739555
51	0x4194fa6d	18.622278
52	0x41a1f299	20.243456
53	0x41cbbbc1	25.466677
54	0x41b5d27d	22.727777
55	0x41b4051d	22.502497
56	0x41e3429a	28.40752
57	0x41afee7a	21.991444
58	0x41c54848	24.660294
59	0x41acde01	21.6084
60	0x41b3c27a	22.46996
61	0x41bcf912	23.621616
62	0x41bfe6e1	23.987734
63	0x41d08992	26.067173

layer3.1.weight f4 [64]
0	0x3f9eaad2	1.239588
1	0x3f4feef9	0.8122402
2	0x3fb6e79c	1.4289432
3	0x3faaa2c3	1.3330921
4	0x3f57dae4	0.84318376
5	0x3f875d0b	1.057527
6	0x3f9e63ce	1.2374208
7	0x3f853865	1.0407835
8	0x3f860855	1.0471293
9	0x3f94f28f	1.1636523
10	0x3f4b8899	0.79505306
11	0x3f9c2281	1.219803
12	0x3f4fae5b	0.8112542
13	0x3fab2c42	1.3372881
14	0x3f983276	1.18904
15	0x3f593182	0.8484117
16	0x3fa62b53	1.2981972
17	0x3f249557	0.64290375
18	0x3f7b02e9	0.98051316
19	0x3f511538	0.81673
20	0x3f2923f6	0.660705
21	0x3f7308a0	0.94935036
22	0x3f8e74f4	1.1129441
23	0x3f7e4467	0.99323124
24	0x3f9f527c	1.2447047
25	0x3ef648e7	0.48102495
26	0x3f29bbcf	0.663022
27	0x3fb6e8d7	1.4289807
28	0x3fa21db8	1.266532
29	0x3f8e4ea8	1.1117754
30	0x3fa6ffb8	1.3046789
31	0x3f8fd150	1.1235752
32	0x3f93414b	1.1504301
33	0x3f9fa5c6	1.2472465
34	0x3f517c91	0.818307
35	0x3fc2c023	1.5214885
36	0x3f3d338b	0.73906773
37	0x3f92c4a9	1.1466266
38	0x3f7d1ce8	0.9887223
39	0x3f6fd44c	0.93683314
40	0x3f95786c	1.1677375
41	0x3f893bf0	1.0721416
42	0x3f7f2c44	0.9967692
43	0x3f912c4b	1.1341642
44	0x3fb1eea6	1.3900955
45	0x3f7e9e18	0.9945998
46	0x3f59405d	0.84863836
47	0x3f9705d0	1.1798649
48	0x3f9bd708	1.2174997
49	0x3fada986	1.356736
50	0x3fabcebf	1.3422469
51	0x3f60dffa	0.8784176
52	0x3f512512	0.8169719
53	0x3f815fb0	1.0107327
54	0x3f96eb89	1.179063
55	0x3f65d1c1	0.89773184
56	0x3fb9759b	1.4489015
57	0x3f5b3eae	0.85642517
58	0x3f85e9b3	1.0461944
59	0x3f3f2e94	0.7468045
60	0x3f92d7e6	1.1472137
61	0x3f4a10b8	0.7893176
62	0x3fb5fc7f	1.4217681
63	0x3f94e8f2	1.1633589

layer3.1.bias f4 [64]
0	0xbe18e694	-0.14931709
1	0xbf0c0ea8	-0.54709864
2	0xbeeadfea	-0.45873958
3	0xbf302662	-0.6880857
4	0xbeea4fb3	-0.4576393
5	0xbed28e58	-0.41124225
6	0xbe1a1774	-0.15048009
7	0xbe90dab0	-0.28291845
8	0xbeb9f9e2	-0.36323458
9	0xbedaaaf2	-0.42708546
10	0xbed44c4e	-0.41464466
11	0xbeb83763	-0.35979757
12	0xbe4fe53a	-0.20302287
13	0xbe494b2b	-0.1965758
14	0xbe1e2b32	-0.15446165
15	0xbe5fd8b5	-0.21860011
16	0xbec02e53	-0.37535343
17	0xbe60dbd9	-0.21958865
18	0xbef75e9c	-0.4831437
19	0xbf0f55b0	-0.55990124
20	0xbf197841	-0.5994912
21	0xbecdcb83	-0.4019433
22	0xbe9b6c9d	-0.30356303
23	0xbea2b198	-0.31776118
24	0xbeaa05a9	-0.33207443
25	0xbe8eb8bc	-0.27875316
26	0xbee535bf	-0.44767568
27	0xbe02b565	-0.12764509
28	0xbe229d40	-0.15880299
29	0xbefab7c3	-0.48968324
30	0xbe9c30ce	-0.30505985
31	0xbeb52a74	-0.35383952
32	0xbec1c6e6	-0.3784706
33	0x3d12b9b3	0.035821628
34	0xbeab80c5	-0.3349668
35	0xbdd0b0b6	-0.10189955
36	0xbd87f123	-0.0663779
37	0xbee60d1e	-0.44931883
38	0xbe85b6df	-0.26116082
39	0xbdea9653	-0.11454453
40	0xbe115e5b	-0.1419615
41	0xbe850813	-0.25982723
42	0xbe3ee3f8	-0.1864165
43	0xbe0bb81f	-0.13644455
44	0xbe8ec10b	-0.27881655
45	0xbefb4849	-0.49078587
46	0x3e19621d	0.14978833
47	0xbe97add4	-0.29624808
48	0xbe95c80f	-0.29254195
49	0xbed8f107	-0.4237139
50	0xbe97670f	-0.29570815
51	0xbdd05ffc	-0.101745576
52	0xbed79d21	-0.42112067
53	0xbebf54fa	-0.3736952
54	0xbd3a2831	-0.045448486
55	0xbe936de3	-0.28794774
56	0xbc8ddf21	-0.01731831
57	0xbe63d3bb	-0.22248738
58	0xbea58e00	-0.323349
59	0xbf06c92a	-0.526507
60	0xbda40600	-0.08008957
61	0xbf266514	-0.6499798
62	0xbdd314b1	-0.10306681
63	0xbea13524	-0.31485856

layer3.1.running_mean f4 [64]
0	0x4115accb	9.354686
1	0x41e1f014	28.242226
2	0x41e3623a	28.422962
3	0x41e2fbaf	28.372892
4	0x4147d707	12.489997
5	0x40b52bb0	5.661583
6	0x411e69d5	9.900838
7	0x419c43da	19.53313
8	0x41972370	18.892303
9	0x41bf583f	23.918089
10	0x41701b09	15.0066
11	0x418e1fb6	17.765484
12	0x41b2dac6	22.356823
13	0x41783621	15.513215
14	0x419642b2	18.782566
15	0x41606317	14.024192
16	0x41d1358a	26.151142
17	0xc0d4a4da	-6.6451235
18	0x41681a8d	14.506482
19	0x4209e428	34.47281
20	0x42000ff5	32.015583
21	0x40f8a393	7.7699676
22	0x4198b903	19.090338
23	0x40aea70c	5.4578915
24	0x41917127	18.18025
25	0x412eaad1	10.916703
26	0x41bde0a5	23.73469
27	0x41991d1a	19.13921
28	0x4193fc51	18.498201
29	0x41a6649f	20.799131
30	0x4173826f	15.219344
31	0x414d9868	12.849709
32	0x41bd77fe	23.68359
33	0x41cb839d	25.439264
34	0x4196050a	18.75246
35	0x41d9c750	27.22232
36	0x41c2618c	24.29763
37	0xc06c6a86	-3.6940017
38	0x4103b0d0	8.230667
39	0x41fc41bf	31.532103
40	0x41d01f6b	26.01534
41	0x41150a69	9.315042
42	0x41bdc1d3	23.71964
43	0x41814407	16.158216
44	0x418c97f9	17.574205
45	0x41e0e9d0	28.114166
46	0x41c85063	25.039251
47	0x41e3a0d8	28.453537
48	0x41a99d6a	21.201862
49	0x419ba9a5	19.457834
50	0x41b8586e	23.043179
51	0x4160c451	14.047929
52	0x4122d250	10.176346
53	0x41d39c15	26.451212
54	0x4110b052	9.043047
55	0x41911134	18.1334
56	0x41c53520	24.65094
57	0x417da03f	15.851623
58	0x41406c2e	12.026411
59	0x41aa83d7	21.314375
60	0x4175ac1e	15.354521
61	0x41e5211f	28.641172
62	0x41daeaa1	27.364565
63	0x420a8aa3	34.635387

layer3.1.running_var f4 [64]
0	0x42dc3fbf	110.124504
1	0x427401af	61.001644
2	0x423635d6	45.552574
3	0x4244d27f	49.205563
4	0x425c38e6	55.055565
5	0x42a48743	82.26418
6	0x42c33c0c	97.61728
7	0x4284ea33	66.45742
8	0x42be4db7	95.15179
9	0x4240dd6d	48.216236
10	0x42b0192d	88.04917
11	0x428f968e	71.79405
12	0x433d5eea	189.37076
13	0x42b4d69e	90.419174
14	0x427705d0	61.755676
15	0x42bf8598	95.760925
16	0x426a04dd	58.50475
17	0x42ccc5df	102.38647
18	0x42b6a231	91.31678
19	0x423b27d6	46.788902
20	0x4229b075	42.42232
21	0x430448be	132.28415
22	0x42d82ce3	108.08767
23	0x43161119	150.06679
24	0x42d51bd2	106.55434
25	0x4299d767	76.92071
26	0x4282291d	65.0803
27	0x428b090f	69.51769
28	0x4292c844	73.39114
29	0x424100ce	48.250786
30	0x4316e62a	150.89908
31	0x43026ee6	130.4332
32	0x42c039dd	96.113014
33	0x428a8283	69.254906
34	0x4244c64b	49.193645
35	0x427c49f3	63.072216
36	0x4312764b	146.46208
37	0x434506f7	197.0272
38	0x42edb420	118.85181
39	0x42ff0d9d	127.52659
40	0x42e4c697	114.38787
41	0x4312ef92	146.93582
42	0x426c1610	59.021545
43	0x431b1d3e	155.11423
44	0x42a08fe6	80.28105
45	0x42ee43ba	119.13228
46	0x42b55b35	90.67814
47	0x428c2eda	70.09151
48	0x428449f8	66.14447
49	0x42648b06	57.135765
50	0x425d3329	55.29996
51	0x42def58c	111.47958
52	0x429afab5	77.48966
53	0x42c471d3	98.22231
54	0x43314afc	177.29291
55	0x432b9d2e	171.61398
56	0x429eb4ca	79.3531
57	0x42ddfb38	110.99066
58	0x42a67b5c	83.24094
59	0x429463ef	74.19518
60	0x42e43457	114.10223
61	0x4261679b	56.351177
62	0x42e42056	114.063156
63	0x42a58894	82.766754

layer4.0.weight f4 [64, 64, 3, 3]
0	0x3f114e3c	0.5676
1	0x3e51fc83	0.20506482
2	0x3eb05333	0.34438476
3	0x3efc5985	0.49287048
4	0xbe671949	-0.2256824
5	0xbc34c402	-0.01103306
6	0x3f22e90b	0.63636845
7	0xbdc428ea	-0.09578116
8	0xbda29abc	-0.079396695
9	0x3e3223ed	0.17396517
10	0xbe88f0fc	-0.26746356
11	0xbebd71ad	-0.3700079
12	0xbe80cdd9	-0.2515705
13	0xbec8073f	-0.39068028
14	0xbef530aa	-0.4788869
15	0xbe2fd0df	-0.17169522
16	0xbe419d1e	-0.18907592
17	0xbea6b5ce	-0.3256058
18	0xbe7ffa17	-0.24997745
19	0xbc5e6e64	-0.013576124
20	0x3e1d6bd0	0.15373158
21	0xbe76cac8	-0.24100792
22	0xbe3934fd	-0.1808662
23	0x3de48a7f	0.111592285
24	0x3eaa746c	0.33291948
25	0x3e678fcb	0.22613446
26	0x3e5e4e3c	0.21709532
27	0xbf327612	-0.6971141
28	0xbf1649af	-0.5870618
29	0x3c15c769	0.009141781
30	0xbf23fb1c	-0.6405504
31	0xbf0bdafb	-0.5463101
32	0xbdd536f4	-0.10410872
33	0xbf75819d	-0.959009
34	0xbf80d8d2	-1.0066168
35	0xbe94a1ac	-0.29029596
36	0xbda02d91	-0.07821191
37	0xbe14205f	-0.14465474
38	0x3cdb819b	0.0267952
39	0xbe6eb419	-0.2331089
40	0xbe26ddef	-0.16295598
41	0xbd6adec5	-0.057341356
42	0xbe98cf85	-0.29845825
43	0xbe29fb11	-0.1659968
44	0xbd5ea7e9	-0.05435935
45	0x3cc680b9	0.024231302
46	0x3d14f99b	0.036370855
47	0x3e8ce65d	0.27519503
48	0xbe3002db	-0.1718859
49	0xbe2f63eb	-0.1712796
50	0xbdfa6f95	-0.12228314
51	0xbf23b90c	-0.63954234
52	0xbf014137	-0.50490135
53	0xbea7baed	-0.327598
54	0x3eab3257	0.33436844
55	0x3e2f1f18	0.17101705
56	0xbe319609	-0.1734239
57	0x3e77522e	0.24152443
58	0x3dd29564	0.102824
59	0xbe682b0c	-0.22672671
60	0x3a9dc36f	0.0012036393
61	0x3ce16d2b	0.027517876
62	0xbd9e0d7c	-0.07717416
63	0x3d4ed444	0.0504954
64	0x3c658d58	0.01401075
65	0x3f05dfb5	0.52294475
66	0x3e5da2f1	0.21644188
67	0x3e10b751	0.1413243
68	0x3e4d0e31	0.20024945
69	0x3eaca31a	0.33718187
70	0x3ea59e4e	0.3234734
71	0x3e8d7428	0.27627683
72	0xbe9e1e2c	-0.30882394
73	0xbdce7206	-0.10080342
74	0xbe552b7d	-0.2081737
75	0xbe5be596	-0.21474299
76	0xbe2814b9	-0.16414155
77	0xbe25736b	-0.1615731
78	0xbeacd142	-0.337534
79	0xbe096e9a	-0.13421097
80	0xbde0248f	-0.10944473
81	0xbf5276c2	-0.8221246
82	0xbf2743d9	-0.653379
83	0xbee25908	-0.4420855
84	0xbf8cd3ff	-1.1002196
85	0xbf43475b	-0.76280755
86	0xbe8b76ec	-0.27239168
87	0xbfa869c0	-1.3157272
88	0xbf96f475	-1.1793352
89	0xbf149aae	-0.5804852
90	0x3ed7f3ec	0.42178285
91	0x3dbbafe0	0.09164405
92	0xbd7c8441	-0.061649565
93	0xbb89a27e	-0.004200279
94	0xbe4bced0	-0.19903111
95	0xbe985f45	-0.29760185
96	0xbc45d24b	-0.0120740635
97	0xbea73a43	-0.32661638
98	0xbed897ee	-0.42303413
99	0xbd0d88da	-0.03455434
100	0x3d1025cb	0.035192292
101	0x3e98f2ba	0.29872686
102	0xbd0b41ed	-0.03399842
103	0x3be0efde	0.006864532
104	0x3ea3c389	0.3198512
105	0xbe41730a	-0.1889154
106	0x3a291715	0.0006450278
107	0x3edb1100	0.42786407
108	0xbc976e67	-0.018485261
109	0xbd7f655e	-0.06235253
110	0x3d6740b8	0.056458205
111	0xbe40546b	-0.18782203
112	0xbe320fb6	-0.17388806
113	0xbe6519c1	-0.22373106
114	0xbe5e45f8	-0.21706378
115	0xbed69fb6	-0.41918725
116	0xbea31236	-0.3184983
117	0xbe71b9a4	-0.23605973
118	0xbe818bdc	-0.25302017
119	0xbd874326	-0.066046044
120	0xbed0c451	-0.40774778
121	0xbf0467df	-0.51720995
122	0xbea25c41	-0.3171101
123	0xbee0935f	-0.43862435
124	0xbf36eaa1	-0.71451765
125	0xbf351c58	-0.70746374
126	0x3ea106c5	0.31450477
127	0x3d89fb18	0.067373455
128	0x3d3e4165	0.046449084
129	0xbdfaedf4	-0.12252417
130	0xbd8b37ae	-0.067977294
131	0xbdaea049	-0.08526666
132	0x3e9c5655	0.30534616
133	0x3e099fd6	0.13439879
134	0x3db6a825	0.0891879
135	0x3ed404f8	0.4141004
136	0x3e8d1a1a	0.27558976
137	0x3e0d9918	0.13827932
138	0x3e050aa1	0.12992336
139	0x3db56efb	0.088590585
140	0x3dc15e3d	0.09441803
141	0x3e66fcab	0.22557323
142	0x3e3e08cf	0.18558048
143	0x3cf4f674	0.029902674
144	0xbe84b3b5	-0.25918356
145	0xbdbfaa21	-0.093586214
146	0xbe522871	-0.2052324
147	0xbef00b04	-0.46883404
148	0xbeaa93a8	-0.33315778
149	0xbf00f185	-0.5036853
150	0xbe30ef5c	-0.17278808
151	0x3c9d6588	0.019213453
152	0xbcdce7af	-0.026965944
153	0xbd94d275	-0.07266704
154	0xbe4a1516	-0.19734606
155	0xbe599605	-0.21248634
156	0x3e28d780	0.16488457
157	0xbdd65096	-0.10464589
158	0xbdaeb3d0	-0.0853039
159	0x3e5ccb99	0.21562041
160	0x3deeaf7f	0.11654567
161	0xbd9ad812	-0.075607434
162	0x3f1459f5	0.57949764
163	0x3efeaf2d	0.49743024
164	0x3edd37f9	0.43206766
165	0x3e891c2e	0.26779312
166	0x3e66a985	0.22525604
167	0x3e8c9b8d	0.27462426
168	0xbdce594a	-0.10075624
169	0x3bd4c8c6	0.0064936606
170	0x3dbfcddf	0.09365439
171	0xbf435372	-0.762992
172	0xbf1050fa	-0.5637356
173	0xbeabcfe0	-0.33557034
174	0xbf0b093a	-0.54310954
175	0xbedaf3bb	-0.42764077
176	0xbed4312b	-0.41443762
177	0xbf1a53dd	-0.60284215
178	0xbe6d6195	-0.23181756
179	0xbe89eb7e	-0.2693748
180	0x3d6a72cb	0.05723838
181	0xbde2e7c3	-0.11079361
182	0xbd9bf557	-0.07615154
183	0x3d5d736b	0.05406515
184	0xbdf56cbb	-0.11983629
185	0x3d7892ec	0.06068699
186	0x3e83241e	0.25613493
187	0x3e4a8bf7	0.19779955
188	0x3e2ccd4f	0.16875194
189	0x3f0b4f28	0.5441766
190	0x3f394a25	0.7237876
191	0x3f2b3265	0.6687377
192	0x3ea993ad	0.3312048
193	0x3f275abd	0.6537283
194	0x3f0c61ae	0.5483655
195	0x3e5df3f0	0.21675086
196	0x3e84b4f8	0.25919318
197	0x3ec73839	0.38910082
198	0x3eb61d51	0.35569242
199	0xbdbefc96	-0.09325521
200	0xbe096758	-0.13418329
201	0x3dfb5eef	0.122739665
202	0x3d989de9	0.07451994
203	0xbd0f8aa6	-0.035044335
204	0x3d52dcc6	0.051480077
205	0xbd36fcc7	-0.04467466
206	0xbd42de0c	-0.04757504
207	0x3d8334b3	0.06406536
208	0x3b977e6a	0.004623224
209	0x3e551cdc	0.2081179
210	0xbe9a1d0d	-0.3010029
211	0xbeb32275	-0.34987226
212	0xbe50be12	-0.20385006
213	0xbea8d62c	-0.329759
214	0xbed8e241	-0.42360118
215	0xbed62e96	-0.41832417
216	0xbe41bc66	-0.18919525
217	0xbe2c870f	-0.16848396
218	0x3e1a10b0	0.15045428
219	0x3e14fb14	0.14548904
220	0xbd38dbeb	-0.045131605
221	0x3e01571a	0.12630883
222	0x3d9fb4c4	0.0779815
223	0x3cedd837	0.029033763
224	0x3e44f119	0.19232596
225	0xbe77e76a	-0.24209371
226	0xbe9e7777	-0.3095052
227	0xbea39a55	-0.31953683
228	0xbe3e87d8	-0.18606508
229	0xbdcd4638	-0.10023159
230	0xbea7f2b4	-0.32802355
231	0x3d49df98	0.0492855
232	0x3df501f2	0.11963262
233	0xbc1c04c2	-0.009522619
234	0xbdb735fa	-0.08945842
235	0xbe8361bf	-0.25660512
236	0xbe078d5c	-0.13237518
237	0xbcc7cf04	-0.024390705
238	0xbdf69e5f	-0.12041926
239	0xbd59cb5c	-0.053172454
240	0x3d6f4edf	0.058424827
241	0xbd332ce6	-0.04374399
242	0xbce7bbe8	-0.028287843
243	0x3e46b593	0.19405203
244	0xbd76868a	-0.0601869
245	0xbd5fb515	-0.054616053
246	0x3e786dca	0.24260631
247	0xbe1a7cfa	-0.15086737
248	0xbe624bf0	-0.2209928
249	0xbd36f41d	-0.0446664
250	0xbec8ae60	-0.39195538
251	0xbece2536	-0.40262765
252	0xbf02b5b4	-0.51058507
253	0xbeddc25a	-0.4331234
254	0xbda9c5a7	-0.08289652
255	0xbeab0def	-0.33409068
